main_app/deep_model_strength/torch_model_params.pkl (torch_old, 15532 bytes, 5 tensors)

0.weight f4 [60, 39]
00000000: 9d22 b7bc 267a ff3f 755c 85c0 9e7a 1c3f
00000010: 7b57 263f 386f 63c0 7ebf 1540 5cdf 47c0
00000020: 6ec0 b13f 536a a2bf 6e0b eabe 1803 37c0
00000030: 4eb0 883f a20d 52bf c50d 54bf e2d9 f8bf
00000040: b461 0740 264f 433a dfcf fdbd 5288 83c0
00000050: 443f 82c0 e531 81c0 bcc6 c6bd e9fd 84c0
00000060: 0055 043a 65c3 4abf b1c4 3fbf 51cf d63f
00000070: 6fd2 89bf 71f6 813e e083 1140 c8b7 363d
00000080: 4ce6 85c0 f605 c2be 650a 9d3f a72b 85c0
00000090: 0d22 21c0 8d6d 6ec0 14a5 db3d 0445 3ec0
000000a0: 6d08 423c 4912 0ec0 49cd 7f40 f86d 2840
000000b0: ed44 3340 04d8 35bf e8d7 fd3f 2840 dabf
000000c0: 5c60 a43f 44c2 343f bae6 28bf 560c 41c0
000000d0: 1d37 9b3f 8610 debc 48ab 16c0 6d0c 9abf
000000e0: b31f 863f a811 7bbe c9c1 e03e c9fc 983f
000000f0: dcc1 af3f a068 1a3e 48f1 ae3f 10e5 70bc
00000100: a50d b7be 292f aebf 5c1b 06bf 066c 11c0
00000110: 4cd0 1ebf 1ab9 14c0 30d6 71bd 49aa 06c0
00000120: 57c6 673f c308 293d 7cb2 16c0 39bf 07c0
00000130: a5c9 18c0 8e76 863d 0b1a 253f b2b5 50bf
00000140: b556 a9bf b0ad 50bf 29a8 39c0 5702 8cc0
00000150: 727a 2a3f ff09 38c0 8dd7 1c3f 8a20 163f
00000160: 5d5a 85bf 2fe6 88bd 590e 2bc0 4fa8 03bf
00000170: 6a13 a4bf f320 fd3e 9c47 4740 c3a6 b23f
00000180: 962e a63e 065e 2140 0187 af3f 9ca9 b23f
00000190: b7c4 8dbd e978 b43f 887b 0b3e d56c 04c0
000001a0: 66ad 0ac0 d438 9bbf 993f d33c 8652 9ebd
000001b0: 064a a7bf 3ee6 1f3e 7ca5 8a3d ca51 633f
000001c0: fa65 643e a4fa 86bf f719 78be 89a2 d23e
000001d0: eaa2 053e 7ede a13f 92f3 06c0 0fb4 2140
000001e0: 8abc afbe 07ba 5b3f 317e 0341 fe38 07c0
000001f0: a80a 5a40 fc32 1ebf e2b3 cd3f 4f34 b2bf
00000200: cc60 3240 900a 8a3f 499b fc3f 4872 0fbf
00000210: 9b54 1040 8a39 0ec0 714f 353f 860c 17bf
00000220: 2710 67bf e54f 32bf 0395 92be 7057 67bd
00000230: 169b 0ebf 3c88 123e 9a4f eebf 9d10 09c0
00000240: 02fc 5cbf 3752 373f 154f a2bf ecd8 7fbe
00000250: e5db a8bd 395b 5940 9870 15c0 42bc 01c0
00000260: 0bff 4f40 8ada 0040 0340 eb3f 2ce8 0dbd
00000270: aa25 80bc a905 413f 02aa 6d3d 1001 b540
00000280: 64ca 8c40 4ac5 8b40 9db9 3e3e 538b 0bbf
00000290: b061 3f3f 6388 ff3e c727 1cbf ef96 ba3f
000002a0: 6028 e63e c5f5 c03f c172 763f 2353 933f
000002b0: 3015 a13f 7110 fbbf 5728 31bf 7912 67be
000002c0: 9f6f debd 9b0b 633e 606e f83c 372c bbbd
000002d0: a23a 46bd 3ff7 2dbe b9e5 37bf 10f4 423e
000002e0: 0df4 9abf 1561 0540 c0bb ae3f 4aac e6bd
000002f0: 4986 fd3f 1d80 ca3f 2d37 0440 c469 543f
00000300: 8a53 473f 1627 e83f fe25 efbd eaa5 5dc0
00000310: 3e9f 0ac0 2562 78c0 5a86 af3f a6f2 25bf
00000320: 7072 20c1 500a 51bf 71fe 14c0 e4da 9f3f
00000330: fbd5 e13e 713b 07bf 2d01 7f3f 6e3b 96c0
00000340: 6165 c8bf 4d9f 0fbf 9087 75c0 a836 8b3f
00000350: 7b8b c8bd 212e c3be 93aa 5340 39b6 1040
00000360: 9a8b e63f 784d acbc b2cb 0640 b319 9ebd
00000370: 523e 0ebf bf31 14be 0157 edbf 31b8 b43f
00000380: 583b 62bf 3aae 05bf a6dd af3d badb 7ac0
00000390: 8808 313e a4d8 e6bf 7ea9 72c0 2a7b 67c0
000003a0: 4a35 6cc0 a303 efbd 8897 c23f 8c82 063e
000003b0: b5cc d03f 80fa 2bbf 8665 703f c064 f43f
000003c0: 4562 813f 4269 0f3f 5b20 0c3e cca2 1d3f
000003d0: 8b99 0ebe 58bc e8be ca3a 773f 1b87 1b3f
000003e0: bd0a 93be b05b 8c3e 59fc 46bf 90c3 9abd
000003f0: 1b9c 10bf 7686 4ebf 5a84 163e b1fd 9d3e
-0.022355372 1.9959152 -4.1675363 0.611246 0.64977235 -3.5536633 2.3398128 -3.1230078
1.388685 -1.2688698 -0.45711845 -2.8595638 1.0678804 -0.8205205 -0.8283351 -1.9441493
2.1153383 0.00074504537 -0.12393164 -4.1103907 -4.070223 -4.0373406 -0.09705874 -4.155995
0.00050480664 -0.792044 -0.749095 1.6782018 -1.0767344 0.25383332 2.273674 0.04460886
-4.1843624 -0.37895173 1.2268797 -4.1615787 -2.5177033 -3.7254364 0.107248455 -2.9729624
0.011842829 -2.219866 3.9969046 2.631712 2.801082 -0.7103274 1.9831514 -1.7050829
1.2841907 0.70608926 -0.6597706 -3.016378 1.2126194 -0.027107488 -2.3542042 -1.2035042
1.0478424 -0.24518454 0.43897846 1.1952144 1.3731036 0.15078974 1.3667383 -0.01470305
-0.35752597 -1.3608142 -0.523855 -2.2722182 -0.62036586 -2.3237977 -0.059042156 -2.1041434
0.9053702 0.04126812 -2.3546438 -2.1210463 -2.3873074 0.06565581 0.64492863 -0.81527245
-1.3229586 -0.81515026 -2.9008887 -4.3752856 0.66593087 -2.87561 0.61266404 0.586434
-1.0418202 -0.06684529 -2.6727507 -0.51428694 -1.2818425 0.494392 3.1137457 1.3957142
0.32457417 2.5213637 1.3713075 1.3958011 -0.06922286 1.4099399 0.13621342 -2.0691426
-2.1668334 -1.2126718 0.025787162 -0.07730584 -1.3069465 0.15615174 0.06769845 0.88796675
0.22304526 -1.054524 -0.24228655 0.4113963 0.13050428 1.2646024 -2.1086164 2.526615
-0.3432353 0.8583073 8.218308 -2.1128535 3.4069004 -0.61796546 1.6070521 -1.3922213
2.787158 1.0784473 1.9734889 -0.56033754 2.255164 -2.222262 0.7082434 -0.59003484
-0.9025902 -0.6965316 -0.28629312 -0.05647987 -0.5570539 0.14309782 -1.8618042 -2.141639
-0.86322033 0.71609825 -1.2680384 -0.24985093 -0.082450666 3.3961928 -2.3349972 -2.0271153
3.2499416 2.0133386 1.837891 -0.034645244 -0.01564296 0.7539926 0.05802346 5.6563797
4.399706 4.367833 0.18625493 -0.54509467 0.74758434 0.49908742 -0.60998195 1.4577311
0.4495268 1.5075003 0.9626885 1.1509746 1.2584591 -1.9614393 -0.6920218 -0.2256564
-0.10861134 0.22172396 0.030326068 -0.09139293 -0.04839576 -0.16988848 -0.71834904 0.19038415
-1.2105728 2.0840504 1.3651047 -0.1126333 1.9806606 1.5820347 2.0658677 0.82973886
0.77861845 1.8136928 -0.11677168 -3.4632516 -2.1659694 -3.8809903 1.3712876 -0.6482338
-10.027939 -0.8165636 -2.3280299 1.2488675 0.44108567 -0.52825075 0.9961117 -4.6947546
-1.5655938 -0.5610245 -3.836399 1.0876055 -0.09792229 -0.3812113 3.307286 2.261122
1.8011353 -0.021033034 2.1061826 -0.077197455 -0.55563843 -0.14472102 -1.8542176 1.4118711
-0.883718 -0.52218974 0.08587198 -3.919661 0.1728841 -1.8034863 -3.791595 -3.6168923
-3.6907525 -0.116706155 1.5202494 0.13135737 1.6312472 -0.6717911 0.9390491 1.9093246
1.0108114 0.56019986 0.13684218 0.61576533 -0.1392576 -0.45456195 0.9657408 0.6075303
-0.2871913 0.27413702 -0.777288 -0.07556832 -0.564882 -0.8067392 0.14698926 0.30857614

0.bias f4 [60]
00000000: aab6 8140 a0d2 0d40 6399 b73f bf57 c0c0
00000010: 7276 ddbf 9f90 7440 4456 d5c0 1b9c 4040
00000020: dcd5 4bbf 8544 00c0 c130 453f f9a8 bac0
00000030: 837c 1740 ba93 8dc0 f13f 3fbe 5dd0 06c0
00000040: 5040 a8c0 52ca a1bf 753f d63f fc6a 80c0
00000050: 3d84 a43f d236 afc0 26c5 12c0 1d84 9fbf
00000060: bf23 8fbf 950b 5c40 d073 7f3f a220 ddbf
00000070: cc89 993f d48b cfc0 9b60 91bf 20da 70c0
00000080: 8f62 e3c0 bb68 2540 c3c4 8f3c b6cd bd3e
00000090: b253 1e3f b563 8ac0 f009 92bb 41ea edbe
000000a0: 87c8 8040 dd7e 55c0 5221 6dc0 2e2c bbc0
000000b0: 9983 d5bf 0a16 4e40 b2aa 5ac0 8725 d9bf
000000c0: 6028 a9c0 fa84 123f 4d9a 41bf 4826 773f
000000d0: 7a1c 0dc0 e956 123f 5e49 94c0 5624 12c0
000000e0: ff5f d8c0 438f 9040 896c 1140 3a57 fabf
4.053548 2.2159805 1.4343685 -6.010711 -1.7301772 3.821327 -6.6667805 3.009528
-0.796232 -2.004182 0.7702752 -5.8331265 2.3669746 -4.424283 -0.18676735 -2.1064675
-5.2578506 -1.2639868 1.6738116 -4.0130596 1.2852856 -5.475442 -2.293283 -1.2462193
-1.1182784 3.438207 0.9978609 -1.7275584 1.1995177 -6.485819 -1.1357607 -3.7633133
-7.105781 2.5845172 0.017549878 0.37071007 0.6184646 -4.3246713 -0.004456751 -0.46467784
4.0244784 -3.3358681 -3.7051587 -5.849143 -1.6680785 3.2200952 -3.4166684 -1.6964577
-5.2861786 0.57234156 -0.7562607 0.9654279 -2.204863 0.57163864 -4.633956 -2.2834678
-6.7617183 4.517488 2.2722495 -1.955787

2.weight f4 [20, 60]
00000000: df01 b63e 71db f83e f65b 853e 1cfd 0b3d
00000010: b9b9 3d3e 8535 2e3e 7874 8c3e 9176 9f3e
00000020: d733 003e dd38 9e3e ddb0 123f 5ff5 003f
00000030: a3f2 903e a6fa 7b3e a723 a0bd 4cec 533e
00000040: 54ec 013f d921 7a3e c5ab a43e 65d2 563e
00000050: 0e1e 613e b991 913e 106f 403e 57a9 913e
00000060: 2dc1 043e e468 903e 9669 de3d b6c2 9c3e
00000070: 9b94 1abd 4b0f c13d f519 a93c 96b7 7ebc
00000080: f1a8 703e 0315 813e ed08 033e 41d8 563e
00000090: 77f2 a93e 9b8f 493e 65e6 cb3d 084d c93d
000000a0: 1ea7 bc3d 8cf6 1c3e 4b32 4d3e cd5f df3d
000000b0: ac85 06bd ff85 1f3d f262 5f3e a7fb c33e
000000c0: 1684 6b3d 1b09 dc3c 65cb 7b3e 1f81 d03e
000000d0: 46a4 b93c b348 143e 2c2f 843d 9dc3 be3e
000000e0: 21b3 e1bc 6193 b93e f1ab 273e 4aa2 963e
000000f0: 2bdd 9c3e 25f5 7f3e c151 be3e ffbb 3a3d
00000100: a33b 743e 71f1 123d bb0c ac3e a700 ba3e
00000110: da79 b0bd 6341 553e fc2c ec3e 37d6 0c3f
00000120: 82ab a73e b256 313e bf59 97be 7778 f63d
00000130: 06cd a43e f4fb d13d 5552 a93e dc8c cb3d
00000140: 12d0 923e f084 ea3d b6bb 543e 1d4a 04bc
00000150: 7e27 e33d 78c6 a23e 5a1b 533d a16e 4a3d
00000160: ba77 8c3c 494f d13d 0b29 413d 6e2f 193e
00000170: 4987 7f3e eb66 293e ee76 df3e ed8b 903e
00000180: 232d 463c adc3 f53d 002e 3e3d f54b c53c
00000190: 5e30 973e d8a0 2b3e c493 283e 41ae a13d
000001a0: fd2c 1f3e 7b81 d5b9 4322 083e edf1 b73d
000001b0: 3c19 f23d 7aaa 5abc c99c 8f3e b5f7 eb3d
000001c0: d772 9e3c f565 e13d 4904 b63d b14c cd3e
000001d0: c95f 093e a3af 773e e4da a63d 99bf 903d
000001e0: 2fd9 6dbe 567b 05bf e44c 68be 60cf 6ebe
000001f0: 3fe7 f1be 7890 a0be c96b 97be 1f03 2cbd
00000200: afd4 973d 60a5 04bf a91a c3be e248 a4be
00000210: df8d debe b2d2 5abe e6fe fbbd 6ce9 1dbc
00000220: bf82 b9be 1863 b6be 304b 9bbe a713 e5be
00000230: 4329 8ebe ada0 9ebe 0f8c 7abe 3eed 00be
00000240: 7e42 06bd 108a 09bf 5633 eebd b75a d0be
00000250: 30ca 8ebd 002b 53be 425a 85be 3e4d efbd
00000260: a9fa c2be 0650 e7be d12c e0bd f79c 90be
00000270: cd4d 18bf 8bd1 d3be e6a9 9fbe 068d 3bbe
00000280: 33f6 44be b583 adbe d2a6 05bf 3436 ab3d
00000290: fe27 6c3d ab4b 86bd dafe 31be 2d4b 7dbe
000002a0: 57c8 31be 664d b33a 34f3 28bf 20d4 19bf
000002b0: 6c79 713c b5ae 0bbe e791 2b3d 92a1 04bf
000002c0: 9d0d b93c 92d7 39bf 9094 563c 7ba8 0fbe
000002d0: 1076 053f 1a0c abbc ccf6 753f f14d 583e
000002e0: b9e0 313e 4683 8bbe 0459 3c3d 55d2 533e
000002f0: 24e4 3dbc f5b1 313f c7cd 603f 938f 383f
00000300: cf32 d33e 7237 f83e 4f40 b4bd 1c09 b73e
00000310: 9548 2f3e 0932 963e 39bd f43e d483 193f
00000320: fda0 7f3f f20d 253f 62fc 1a3f cac5 483f
00000330: 0ccc 413f 11f4 123f 2ed0 01be 15c3 a23e
00000340: 4626 443e 7871 a0ba a0fb 4d3f 39b3 67be
00000350: 2565 b43e fbb1 233e 970c f4bd a7c8 403e
00000360: ffd4 ba3e c0a6 253f 1e24 0c3e 3af2 d0bd
00000370: e379 0fbe 922e c63e 45ab b2bd ddfe 80be
00000380: 3044 953e 5ae7 4d3f 6553 4f3f bff0 fb3e
00000390: f15e 5b3e af8d 3abe 0b86 e93e 2611 7a3e
000003a0: 8283 083f 9b21 95bd 4c6b 723d 0948 c43e
000003b0: 86f5 bb3e b26f b43e a606 fe3e 93f0 a43e
000003c0: 4c6f c83f cb9b 8e3e 2f6f d0bf 6719 1140
000003d0: 64c3 943f cfd0 26c0 bfab 6c3f 84fa 2abf
000003e0: 5620 a73f b6bb a43f 8d0a 753f ec01 983f
000003f0: be2c e23f 5b91 6b3f 25b0 1b3e 01c0 16c0
0.35548303 0.4860492 0.26046723 0.03417693 0.18527879 0.17012604 0.2743261 0.31145146
0.12519775 0.30902758 0.5730112 0.50374407 0.28310117 0.24607334 -0.078193 0.20695609
0.50751233 0.24426974 0.321623 0.20978697 0.21984121 0.2843149 0.18792367 0.2844951
0.12964316 0.28205025 0.10859983 0.30617303 -0.037739377 0.09426745 0.02064226 -0.0155467
0.23501946 0.25211343 0.12796374 0.20980932 0.33192798 0.19683687 0.09956054 0.09829146
0.092115626 0.15328425 0.20038716 0.109069444 -0.032842323 0.038946148 0.21815088 0.38277933
0.057499014 0.02685981 0.24589308 0.40723512 0.02266134 0.14480858 0.0645431 0.37258616
-0.027551236 0.36245254 0.16374184 0.29420692 0.30637488 0.24995859 0.37171748 0.045589443
0.23850875 0.035874788 0.33603463 0.36328623 -0.08616991 0.20825724 0.4612807 0.55014366
0.32748038 0.17318228 -0.29560658 0.120346956 0.3218767 0.10253134 0.33070627 0.09938976
0.2867437 0.11451137 0.20774731 -0.008074311 0.11091517 0.31792045 0.051539756 0.04942191
0.017146934 0.102202006 0.047158282 0.14959499 0.24953951 0.16543166 0.43645424 0.28231755
0.012095722 0.12000213 0.046430588 0.02408407 0.2952909 0.16760576 0.16462618 0.078945644
0.15544505 -0.00040722996 0.1329432 0.089816906 0.11821219 -0.013346309 0.28049305 0.11521856
0.01934187 0.11005775 0.08887536 0.40097573 0.13415445 0.24188094 0.08147219 0.07067794
-0.2322738 -0.5214132 -0.22685581 -0.23321295 -0.4724674 -0.3136022 -0.2957442 -0.041995164
0.07413613 -0.5181484 -0.38106278 -0.32086855 -0.43467614 -0.21369436 -0.123044774 -0.009638172
-0.36232564 -0.35622478 -0.303308 -0.44741556 -0.27765855 -0.3098196 -0.2446749 -0.125905
-0.032778256 -0.5372629 -0.11630885 -0.4069421 -0.06972158 -0.20621872 -0.26045424 -0.11684655
-0.38081864 -0.4517824 -0.10946048 -0.28244755 -0.59493715 -0.41370806 -0.3118431 -0.18315515
-0.19234543 -0.33889547 -0.5220767 0.08359948 0.057655327 -0.06557401 -0.17382374 -0.24735709
-0.1736158 0.0013679683 -0.659961 -0.600893 0.014738422 -0.13640864 0.04188719 -0.51809037
0.0225895 -0.7259456 0.0130969435 -0.14029114 0.52133274 -0.020879794 0.9607971 0.21123482
0.17370881 -0.2724859 0.04598333 0.20685704 -0.0115900375 0.69412166 0.8781399 0.72094077
0.412497 0.484798 -0.088013284 0.35749137 0.17117532 0.2933505 0.47800615 0.5996678
0.99855024 0.64474404 0.60541356 0.784268 0.75701976 0.57403666 -0.1267707 0.3178946
0.19155225 -0.0012240848 0.80462074 -0.22626962 0.35233417 0.15985863 -0.11916464 0.18826543
0.36490628 0.64707565 0.13685653 -0.10202451 -0.1401134 0.38707405 -0.08724073 -0.25194445
0.29153585 0.8043114 0.80986625 0.49207112 0.21422936 -0.1821811 0.4561008 0.24420604
0.53325665 -0.072818 0.059184358 0.38336208 0.36710757 0.35241467 0.49614447 0.32214794
1.5658965 0.27853236 -1.628393 2.2671754 1.1622128 -2.6064947 0.92449564 -0.66788507
1.3056743 1.2869785 0.95719224 1.1875587 1.7669904 0.9201867 0.15203913 -2.355469

2.bias f4 [20]
00000000: 939a 243f 64b3 a53e 87e1 31bf 53a3 853e
00000010: 2973 0340 4857 9740 0614 073f 8fb0 d9be
00000020: 65a5 4e40 1470 e3be 0f26 7dbf 2d0a c8be
00000030: 845e 2fc0 4630 5dbf 4b19 2b40 5230 053f
00000040: e6e5 f7be 71e5 063f 45b9 47c0 56ff 073f
0.6429836 0.32363427 -0.6948475 0.2610117 2.0539038 4.7294044 0.5276493 -0.42517516
3.228845 -0.44421446 -0.988862 -0.39070264 -2.7401438 -0.86401784 2.6734188 0.52026856
-0.48417586 0.5269385 -3.120683 0.53123987

4.weight f4 [1, 20]
00000000: 7a6e 4e40 4cd2 5040 36bc 4bc0 4299 4540
00000010: e0f3 4d40 947d adc0 b438 4a40 40c5 54c0
00000020: e1ba 2040 0684 52c0 0e31 46c0 aa4a 50c0
00000030: aafe 1b40 b848 47c0 c4ce 8dc0 120a 4f40
00000040: 1a67 4fc0 3416 4c40 b10d 16c0 9696 4a40
3.225493 3.2628355 -3.1833625 3.087479 3.21801 -5.4215794 3.159711 -3.3245392
2.5114062 -3.289308 -3.096744 -3.2545571 2.4374185 -3.1138134 -4.43149 3.2349896
-3.2406678 3.1888552 -2.3445857 3.165441
