main_app/deep_model_strength/torch_model_params_v1.pkl (torch_old, 38419 bytes, 19 tensors)

0.weight f4 [80, 39]
0.18158475 -0.520911 1.8161108 0.0058458243 -0.17346185 -0.071859084 0.40960315 0.00080255175
0.35475242 -0.2213744 -0.17888963 -0.14418975 -0.7792489 -0.1702592 0.6359328 0.9829396
0.17764603 -1.0318007 0.049637783 0.03816315 0.21226019 -0.048004944 -0.16608554 0.24817233
-0.21943247 -0.28172636 -0.23967993 0.37178084 -0.21540521 -1.1788158 -0.012758712 -0.11366136
0.5238506 -0.08179778 -0.17241645 0.17953394 -0.08318239 -0.0515791 -0.16055648 0.13468546
0.6832353 0.0014791907 0.12887883 -0.008283275 0.60324 -0.20787057 -0.030500341 0.015230069
-0.0557162 -0.079833075 -0.7082042 0.050715405 0.19334213 0.16126956 0.15620556 -0.5015728
-2.532252 -0.058171153 0.08963051 0.02149256 0.16518563 0.21271339 -0.06874394 -0.0026169587
0.24105841 -0.11603974 -0.21407026 -0.09923958 0.09987925 0.17158775 0.030018533 0.6586726
-0.01368863 -0.10468851 -0.020736478 0.12630744 0.33050472 -0.21003103 0.23260602 0.658057
-0.98611206 -0.12758413 -0.118022926 0.6344802 -0.014645194 -0.019044613 -0.007599891 0.003947306
0.0023256307 -1.3645023 0.35513252 0.5678043 0.13827538 0.6388793 -0.58123404 -1.491771
0.08758668 0.15780795 -0.036851913 -0.0260662 0.055433113 -0.018887907 -0.12366298 0.3108919
-0.106907636 -0.49052733 0.15965821 0.047410753 -0.004989649 -0.07108995 -0.3080459 0.19390942
-0.15292156 0.08139655 -0.03286448 -0.38223112 0.021965992 -0.17046215 0.69898236 0.29501528
0.17974369 -0.06946582 0.6148992 -0.13320324 0.07514472 0.0028842601 -0.07124185 -0.08106496
-1.4330642 -0.1695883 0.7737207 0.08156558 0.2185337 -0.59438765 -1.9560832 0.15948027
0.15026161 0.14619264 0.2294502 0.17986456 -0.060214896 0.014664456 0.046703655 -0.0367025
-0.14846823 0.1891927 0.6990356 0.097898714 0.12927666 0.078548945 0.016445966 -0.0057752808
0.007090062 0.13360657 0.021384269 -0.057702105 0.3493157 0.03853541 0.50406516 -0.15928216
-0.18554445 0.08139276 -0.038529206 -0.02294179 -0.008907683 0.25950778 0.225935 -0.58152634
0.2556798 -0.16368076 -0.0077196453 0.6419982 -0.75929713 -2.684063 0.40225425 0.40645593
0.10772151 0.07408253 0.12480231 -0.057537716 0.03397976 0.18385346 0.031170936 -0.8392528
0.031575624 -0.53518 -0.036847968 -0.05342568 0.13800342 0.03580196 0.14692163 0.06698009
-0.060054686 -0.015251548 -0.10104623 0.73458034 1.0231715 2.533137 -0.20751175 -0.08767351
0.32289743 -0.040647972 0.029470213 0.1225298 -0.33704874 0.08744283 0.11405265 0.37769464
0.47423097 -0.07349436 1.0855867 -0.13095343 -1.0780979 0.20951173 -0.16339841 0.039451085
0.4828323 0.0006074427 -0.048614975 -0.08366152 0.005270671 -0.44239488 -0.70732003 -0.05758472
-0.15662117 0.12980326 0.056212336 -0.5322926 0.18171231 -0.047736317 -0.041890375 -0.034775954
0.14929718 0.10759356 -0.30585763 -0.70415163 -0.89050514 0.14015815 0.2882638 -0.70790267
-0.021091728 0.0038141294 0.01751996 0.0054074465 -0.019617142 0.34376416 -0.42316687 -0.6017825
-0.39586347 -0.86124766 0.15660056 2.1886208 -0.041474465 -0.14445916 -0.035448924 -0.20571814
00000000: 5af1 393e 6c5a 05bf 5276 e83f 548e bf3b
00000010: fc9f 31be db2a 93bd 81b7 d13e 5662 523a
00000020: 1ca2 b53e f9af 62be d82e 37be 7aa6 13be
00000030: db7c 47bf 6d58 2ebe 7ecc 223f eea1 7b3f
00000040: d7e8 353e 0c12 84bf fd50 4b3d f750 1c3d
00000050: bc5a 593e d5a0 44bd 5412 2abe e320 7e3e
00000060: e8b2 60be 703e 90be a86e 75be 0f5a be3e
00000070: 2f93 5cbe 70e3 96bf eb09 51bc 4ac7 e8bd
00000080: 131b 063f 9885 a7bd f08d 30be bfd7 373e
00000090: 875b aabd 9b44 53bd eb68 24be fcea 093e
000000a0: 82e8 2e3f 67e1 c13a d0f8 033e 93b6 07bc
000000b0: f06d 1a3f 06dc 54be dadb f9bc 8a87 793c
000000c0: ac36 64bd 867f a3bd df4c 35bf f5ba 4f3d
000000d0: 7bfb 453e d923 253e 5af4 1f3e 1367 00bf
000000e0: 6b10 22c0 e044 6ebd 3390 b73d 2a11 b03c
000000f0: 6c26 293e 8ad1 593e 9fc9 8cbd 4881 2bbb
00000100: 04d8 763e 3ea6 edbd 3c35 5bbe 1f3e cbbd
00000110: 7e8d cc3d b3b4 2f3e 6de9 f53c c49e 283f
00000120: 4746 60bc ee66 d6bd 8cdf a9bc bd56 013e
00000130: ea37 a93e 6012 57be 4630 6e3e 6c76 283f
00000140: d771 7cbf 6aa5 02be 01b6 f1bd 4b6d 223f
00000150: 65f2 6fbc 7303 9cbc 8208 f9bb 6758 813b
00000160: 9c69 183b 03a8 aebf eed3 b53e 9f5b 113f
00000170: 1098 0d3e 988d 233f c1cb 14bf 5af2 bebf
00000180: a560 b33d 6898 213e 08f2 16bd c988 d5bc
00000190: d50d 633d d0ba 9abc 0443 fdbd 392d 9f3e
000001a0: 64f2 dabd 6626 fbbe 717d 233e c731 423d
000001b0: 3680 a3bb 9c97 91bd 31b8 9dbe 3190 463e
000001c0: 7897 1cbe 3cb3 a63d e89c 06bd ccb3 c3be
000001d0: 06f2 b33c a18d 2ebe 82f0 323f 3e0c 973e
000001e0: bb0e 383e 1944 8ebd 096a 1d3f 6e66 08be
000001f0: 7ae5 993d db05 3d3b 3fe7 91bd 6305 a6bd
00000200: a66e b7bf 8ea8 2dbe 8f12 463f db0b a73d
00000210: 4cc7 5f3e ca29 18bf ef60 fabf cc4e 233e
00000220: 2ede 193e 86b3 153e fef4 6a3e 6a2e 383e
00000230: e5a3 76bd 3043 703c 554c 3f3d 5c55 16bd
00000240: 0e08 18be bbbb 413e fff3 323f 1f7f c83d
00000250: 1a61 043e 45de a03d b1b9 863c 913e bdbb
00000260: c053 e83b 29d0 083e 102e af3c 0b59 6cbd
00000270: 82d9 b23e 4ed7 1d3d 6a0a 013f dd1a 23be
00000280: 5dff 3dbe 3fb1 a63d cdd0 1dbd 6cf0 bbbc
00000290: 88f1 11bc 34de 843e 815b 673e e9de 14bf
000002a0: 76e8 823e ee9b 27be 14f5 fcbb fe59 243f
000002b0: 4c61 42bf b0c7 2bc0 45f4 cd3e fe1a d03e
000002c0: 189d dc3d 95b8 973d 5a98 ff3d abac 6bbd
000002d0: 5c2e 0b3d 1544 3c3e 315a ff3c 46d9 56bf
000002e0: 7155 013d 8e01 09bf e5ed 16bd e3d4 5abd
000002f0: c550 0d3e 13a5 123d a072 163e dc2c 893d
00000300: e7fb 75bd a1e1 79bc 53f1 cebd 750d 3c3f
00000310: 49f7 823f eb1e 2240 f67d 54be 2b8e b3bd
00000320: d052 a53e 7d7e 26bd 846b f13c e7f0 fa3d
00000330: a791 acbe 3a15 b33d 7094 e93d 3161 c13e
00000340: 67ce f23e 3684 96bd 81f4 8a3f a818 06be
00000350: 1dff 89bf 3e8a 563e ea51 27be 7697 213d
00000360: cc35 f73e ca3c 1f3a 7f20 47bd bb56 abbd
00000370: 98b5 ac3b 9581 e2be ed12 35bf f5dd 6bbd
00000380: 4d61 20be 25eb 043e e83e 663d 5444 08bf
00000390: cb12 3a3e 2887 43bd 3e95 2bbd 3b71 0ebd
000003a0: 5ce1 183e 035a dc3d 5f99 9cbe 4843 34bf
000003b0: 25f8 63bf 9e85 0f3e 5097 933e 1c39 35bf
000003c0: 8fc8 acbc 79f6 793b 0586 8f3c f330 b13b
000003d0: 21b4 a0bc db01 b03e 54a9 d8be 6b0e 1abf
000003e0: 9eae cabe ba7a 5cbf e65b 203e 5d12 0c40
000003f0: 21e1 29bd 1aed 13be e432 11bd c7a7 52be

0.bias f4 [80]
-0.26182193 -0.07411313 -0.14517194 -0.14931042 -0.16568775 -0.121028155 0.17092836 0.22694491
-0.009402946 -0.04911623 -0.14866632 0.1295036 -0.2971362 -0.1690358 0.11473229 -0.060649693
-0.14510413 0.10765422 -0.033281256 0.03394872 -0.3299975 -0.3161545 0.034455273 0.025157426
0.104547165 -0.14937086 0.07803097 0.23375313 -0.097494565 0.2218173 0.04976905 -0.09688226
-0.0698183 -0.018451143 -0.035143178 -0.118176185 -0.06964837 -0.031340808 0.112042345 -0.07701902
-0.070942886 0.048622683 -0.025793523 0.13489686 0.17116413 0.1176043 0.24212731 -0.05325732
0.06594733 -0.16498551 0.05203773 0.032911755 -0.031008746 0.30637074 0.10357211 -0.38700116
-0.17291822 0.09755027 0.27984625 0.07412978 -0.20859168 -0.046800114 -0.07989812 0.08520594
0.06643017 -0.1572323 -0.08253853 -0.2068469 -0.16973725 -0.17446011 -0.2622857 -0.08435332
-0.11240483 -0.11061155 0.010618843 0.02934436 -0.19829725 -0.15351292 -0.079178676 0.11627029
00000000: 860d 86be a0c8 97bd f4a7 14be d5e4 18be
00000010: 0daa 29be 9cdd f7bd d807 2f3e 3f64 683e
00000020: d00e 1abc 1a2e 49bd fc3b 18be 979c 043e
00000030: 3c22 98be b917 2dbe c3f8 ea3d d06b 78bd
00000040: 2d96 14be d179 dc3d ed51 08bd d00d 0b3d
00000050: 6ff5 a8be 01df a1be f920 0d3d f216 ce3c
00000060: d31c d63d adf4 18be b4ce 9f3d fb5c 6f3e
00000070: 3bab c7bd 1324 633e a2da 4b3d 356a c6bd
00000080: e6fc 8ebd da26 97bc 4bf2 0fbd 5b06 f2bd
00000090: cea3 8ebd 385f 00bd 7576 e53d 26bc 9dbd
000000a0: 814a 91bd 9428 473d f04c d3bc 6722 0a3e
000000b0: a645 2f3e 86da f03d 39f0 773e 5924 5abd
000000c0: 650f 873d f6f1 28be 8425 553d 7ace 063d
000000d0: 0e06 febc a0dc 9c3e 9d1d d43d 0425 c6be
000000e0: 7911 31be 70c8 c73d 0248 8f3e 5bd1 973d
000000f0: 0f99 55be 7ab1 3fbd a0a1 a3bd 7480 ae3d
00000100: 8a0c 883d 8101 21be f609 a9bd accf 53be
00000110: 9acf 2dbe aca5 32be 504a 86be 6fc1 acbd
00000120: 8134 e6bd 4f88 e2bd a8fa 2d3c 9563 f03c
00000130: 6f0e 4bbe 7e32 1dbe 6e28 a2bd 1e1f ee3d

3.weight f4 [80]
1.1148121 1.0193571 1.068623 1.1765833 0.614609 0.6638896 1.1507012 0.817254
0.78047013 0.7374032 1.0683359 1.001322 0.9183631 0.30616 0.6925266 1.2487464
0.57062256 0.7925732 0.81502235 0.52397424 0.819026 0.5401979 1.0444213 1.1417638
1.089611 0.83234304 1.1150979 1.0398672 0.85586506 1.2321614 0.6058681 0.31613153
0.87031996 0.6548252 0.5408438 0.9981231 0.9027514 0.6695157 0.4127509 1.0975382
1.0102617 0.971534 1.1658776 1.2056551 1.246692 1.1432962 0.8576789 0.49866515
0.6012081 1.077431 0.7181383 0.9145184 1.1728475 0.99283355 0.74863464 0.39835015
0.60558194 0.7509762 0.91872215 1.2587655 0.8297849 1.2537311 1.0874143 0.40135288
1.195844 1.1275176 0.70654535 0.49793 1.2065268 1.7005872 1.2955124 1.0962642
1.2176023 0.78690094 0.8862153 1.0930636 0.74951774 0.6448504 1.2445562 0.84891605
00000000: 2ab2 8e3f 4b7a 823f a3c8 883f 489a 963f
00000010: 0457 1d3f abf4 293f 2d4a 933f 8f37 513f
00000020: e4cc 473f 75c6 3c3f 3bbf 883f 522b 803f
00000030: d819 6b3f 01c1 9c3e 6c49 313f ecd6 9f3f
00000040: 5214 123f 14e6 4a3f 4ea5 503f 2d23 063f
00000050: b0ab 513f 694a 0a3f 99af 853f 5125 923f
00000060: 6078 8b3f 6f14 553f 87bb 8e3f 5e1a 853f
00000070: f919 5b3f 77b7 9d3f 2c1a 1b3f fedb a13e
00000080: 4acd 5e3f a0a2 273f bd74 0a3f ff84 7f3f
00000090: b71a 673f 6265 2b3f 1654 d33e 227c 8c3f
000000a0: 4150 813f 74b6 783f 7a3b 953f e852 9a3f
000000b0: 9a93 9f3f 8857 923f d890 5b3f 0a51 ff3e
000000c0: c6e8 193f 42e9 893f e9d7 373f e11d 6a3f
000000d0: de1f 963f 572a 7e3f 85a6 3f3f 8df4 cb3e
000000e0: 6b07 1b3f fa3f 403f 6031 6b3f 3a1f a13f
000000f0: c96c 543f 437a a03f 6430 8b3f 207e cd3e
00000100: 6b11 993f 7f52 903f 28e0 343f aef0 fe3e
00000110: 786f 9a3f d7ac d93f 5ad3 a53f 6352 8c3f
00000120: 64da 9b3f 5772 493f 02df 623f 82e9 8b3f
00000130: 65e0 3f3f ea14 253f 9e4d 9f3f 9052 593f

3.bias f4 [80]
0.57906455 0.20127715 -0.11375331 0.08115549 0.0019843674 0.19393402 -0.30134618 0.29970315
0.063231334 0.4550239 -0.28291166 0.04925222 0.26152226 0.046121135 0.6221202 0.2555832
-0.3651081 0.26817435 0.23606646 -0.07146288 0.2266866 0.32300398 0.08016065 0.20334195
0.3894893 -0.4826282 -0.03333441 -0.73733276 -0.3856542 0.47672695 -0.15193784 0.14402914
-0.36425862 -0.24769199 -0.5371328 0.5257197 0.18702996 -0.18210661 0.028660744 -0.073707595
0.27265716 0.076353714 0.57167935 -0.24429603 -0.07275205 0.2309956 0.5700114 -0.041704733
-0.061941575 0.3023594 -0.21677634 0.56572074 0.12157576 -0.09017846 -0.08650459 0.101169415
-0.13234888 -0.25212988 -0.47991434 -0.2158043 0.2779426 0.04666363 0.363367 0.008328632
0.34493774 -0.33580348 -0.09856143 -0.3803249 0.29799998 0.42913413 0.35334378 0.4166733
-0.018649349 0.042078882 0.052507192 0.13675034 -0.05696064 0.034115028 0.19536778 -0.7477933
00000000: 933d 143f 991b 4e3e 7ff7 e8bd d934 a63d
00000010: 290c 023b a496 463e 0c4a 9abe b172 993e
00000020: 6e7f 813d e5f8 e83e ccd9 90be b2bc 493d
00000030: 3fe6 853e 84e9 3c3d 4543 1f3f cddb 823e
00000040: 73ef babe 264e 893e 68bb 713e 215b 92bd
00000050: 8820 683e c760 a53e 442b a43d df38 503e
00000060: 246b c73e 0b1b f7be aa89 08bd d7c1 3cbf
00000070: 7874 c5be 8e15 f43e 9895 1bbe 607c 133e
00000080: 1b80 babe f8a2 7dbe 8981 09bf 9195 063f
00000090: c884 3f3e 287a 3abe f0c9 ea3c 02f4 96bd
000000a0: b899 8b3e 565f 9c3d 9459 123f bd28 7abe
000000b0: 07ff 94bd 1c8a 6c3e 44ec 113f 95d2 2abd
000000c0: 73b6 7dbd dace 9a3e 9efa 5dbe 13d3 103f
000000d0: b6fc f83d 7caf b8bd 5229 b1bd e931 cf3d
000000e0: 7786 07be 2b17 81be 55b7 f5be cdfb 5cbe
000000f0: 7e4e 8e3e 5d22 3f3d 3d0b ba3e d174 083c
00000100: ae9b b03e 6fee abbe 93da c9bd f2b9 c2be
00000110: 7493 983e 78b7 db3e 7ae9 b43e 3456 d53e
00000120: 85c6 98bc e85a 2c3d c811 573d 4808 0c3e
00000130: 8f4f 69bd 33bc 0b3d 7e0e 483e 626f 3fbf

3.running_mean f4 [80]
4.854455 10.378032 13.576555 16.746988 13.935737 3.577916 5.7063656 17.839684
-0.048589133 15.2834015 4.939678 7.435764 17.62668 -4.4603925 3.948115 10.743316
-1.571731 4.170767 -0.77854013 -3.1354048 3.8577793 6.4007955 3.4030716 4.5068994
19.741724 5.1549215 12.394142 5.498184 24.661963 16.504173 0.85079724 8.534967
18.27148 4.548443 27.574577 10.834359 12.431749 3.2674186 -1.4040618 8.457928
10.881768 40.736824 7.615664 5.7165728 3.89606 7.349932 10.092642 9.087615
-1.2917562 3.0389538 9.815672 46.700336 6.166716 11.060802 8.298429 -1.2430015
-1.2684939 3.6521199 9.469738 8.72956 1.8946649 1.397856 12.200259 -1.0897174
24.393793 3.3298879 7.443544 -1.0818257 14.975635 23.165276 4.123924 7.4875007
29.400242 4.3724256 18.151402 8.455392 6.5613184 1.2241023 3.0563126 2.2232523
00000000: b257 9b40 6b0c 2641 9239 5941 d5f9 8541
00000010: c7f8 5e41 93fc 6440 8c9a b640 acb7 8e41
00000020: 6605 47bd d088 7441 d811 9e40 c7f1 ed40
00000030: 7103 8d41 89bb 8ec0 ebad 7c40 9fe4 2b41
00000040: 7b2e c9bf ec76 8540 684e 47bf 79aa 48c0
00000050: dbe5 7640 51d3 cc40 edcb 5940 8538 9040
00000060: 0def 9d41 1ef5 a440 684e 4641 20f1 af40
00000070: b34b c541 8c08 8441 d9cd 593f 3a8f 0841
00000080: fe2b 9241 d88c 9140 bc98 dc41 8959 2d41
00000090: 72e8 4641 631d 5140 4cb8 b3bf ac53 0741
000000a0: b91b 2e41 82f2 2242 85b3 f340 2aee b640
000000b0: 0c59 7940 a532 eb40 767b 2141 df66 1141
000000c0: 4458 a5bf 387e 4240 fe0c 1d41 25cd 3a42
000000d0: bd55 c540 0cf9 3041 5dc6 0441 ac1a 9fbf
000000e0: 025e a2bf 55bc 6940 0c84 1741 47ac 0b41
000000f0: 6184 f23f f2ec b23f 4334 4341 dc7b 8bbf
00000100: 7d26 c341 e21c 5540 8331 ee40 4479 8abf
00000110: 339c 6f41 7c52 b941 2ff7 8340 9b99 ef40
00000120: b233 eb41 e9ea 8b40 1236 9141 4949 0741
00000130: 52f6 d140 62af 9c3f a09a 4340 c449 0e40

3.running_var f4 [80]
371.92822 639.7356 766.14874 1001.9658 337.37848 190.17606 156.57954 733.55524
447.76855 636.3676 320.68326 397.67395 1363.7098 8.392476 1125.7787 284.24606
1.0581386 345.33524 18.170677 2.3573716 173.34529 134.74544 177.14932 331.40372
389.55392 206.71112 457.77548 208.20699 1126.6714 331.8067 222.99954 424.65848
1120.5795 888.23035 2031.6508 502.0947 1112.0066 328.78604 14.349277 447.52206
588.455 5025.1523 235.42528 201.98482 225.66847 392.578 937.7439 356.37775
0.62566817 144.27766 497.6467 1789.8196 276.61517 543.8062 657.698 0.31613994
0.56187785 138.33539 399.7313 245.95102 58.035046 51.881695 1185.34 5.135938
518.83527 212.81805 480.00446 0.16194679 656.67957 1128.1453 419.204 398.4273
1939.4211 214.68394 750.2947 490.2248 125.19436 320.63266 329.59363 47.75362
00000000: d0f6 b943 14ef 1f44 8589 3f44 d07d 7a44
00000010: 72b0 a843 122d 3e43 5d94 1c43 8963 3744
00000020: 60e2 df43 8717 1f44 7557 a043 44d6 c643
00000030: b776 aa44 9547 0641 ebb8 8c44 7f1f 8e43
00000040: 1671 873f e9aa ac43 8c5d 9141 2ddf 1640
00000050: 6558 2d43 d5be 0643 3a26 3143 adb3 a543
00000060: e7c6 c243 0cb6 4e43 43e3 e443 fd34 5043
00000070: 7cd5 8c44 42e7 a543 e2ff 5e43 4954 d443
00000080: 8b12 8c44 be0e 5e44 d3f4 fd44 1f0c fb43
00000090: 3600 8b44 9d64 a443 a396 6541 d3c2 df43
000000a0: 1f1d 1344 3809 9d45 df6c 6b43 1dfc 4943
000000b0: 21ab 6143 fc49 c443 9c6f 6a44 5a30 b243
000000c0: ca2b 203f 1547 1043 c7d2 f843 3aba df44
000000d0: be4e 8a43 99f3 0744 ac6c 2444 18dd a13e
000000e0: 3ad7 0f3f dc55 0a43 9bdd c743 76f3 7543
000000f0: e323 6842 db86 4f42 e12a 9444 9b59 a440
00000100: 75b5 0144 6cd1 5443 9200 f043 61d5 253e
00000110: 7e2b 2444 a604 8d44 1d9a d143 b236 c743
00000120: 7a6d f244 17af 5643 dc92 3b44 c61c f543
00000130: 8363 fa42 fb50 a043 fccb a443 b503 3f42

4.weight f4 [50, 80]
-0.4498414 0.14056887 0.17836481 0.10559198 -0.043150723 0.016294036 -0.033290893 -0.7357683
-0.17142645 -0.06901664 -0.09637961 -0.3610276 -0.011892718 0.11020179 -0.4254798 -0.31647623
0.08227619 0.061543684 -0.10471189 0.1384843 -0.27739573 -0.077849045 0.10544449 -0.5077005
-0.9830138 -0.028204074 0.15429695 0.15952088 0.053814214 -0.60958624 0.32168415 -0.21525002
0.06785692 0.34186652 0.008679576 0.03075109 -0.02858039 0.19170363 0.058871467 0.11125063
0.058491964 0.11803704 -1.0877149 -0.051972575 0.00643812 -0.07590379 -0.15028542 0.22519538
0.26420283 0.02448316 0.14397232 -0.7161883 0.07352225 0.003278284 0.096616365 -0.12784897
0.13394699 0.060369875 0.06734692 -0.1149495 -0.0061967247 0.040883813 -1.0195959 -0.17768838
-0.66713995 -0.0015108084 -0.16372883 0.09176769 0.08621903 0.0017772258 -0.68571025 0.05154375
-0.027431827 -0.0843914 0.17882612 -0.13321058 0.08483422 0.013545345 -0.48307565 0.03239693
-0.2613249 -0.45347497 -0.12522127 -0.6643891 0.084690526 0.03909229 0.0018028003 0.10659581
-0.15440781 0.10870583 0.036613807 -0.030114606 -0.7455432 0.00736774 0.1122985 -0.5443012
-0.36285347 0.09906287 -0.07782659 0.16381776 0.06240142 -0.31916252 0.008882112 -0.39570582
0.23315607 -0.31468976 0.035209563 -0.12225721 0.13855894 -0.09896358 0.2730678 -0.15944698
-0.07352324 0.09128306 -0.23740791 0.02885684 -0.04124823 -0.0005635815 0.06148072 -0.13982704
-0.21630035 -0.34896213 -0.37068713 0.056325693 0.111943334 0.058960702 0.14486478 0.099820174
-0.2247167 0.010591009 -0.075059876 -0.25979072 0.22282968 0.10457991 -0.33640543 0.061071724
0.10571225 -0.06666597 0.023909913 0.21484117 -0.0987275 0.36418098 -0.7310499 -0.026339196
-0.11074827 -0.43817538 -0.16172929 -0.030451208 -0.14610893 -0.025014399 -0.3493634 -0.1791286
0.023224194 -0.7593364 -0.22201268 0.004492792 0.16678643 0.3648531 -0.6222994 0.011122822
-0.6646923 0.31237188 -0.06526299 -0.0731306 -0.09650646 0.07827118 0.30787382 0.36883104
-0.28093514 -0.113264374 0.30292445 -0.5451359 0.18648201 -0.03522184 -0.18353304 -0.26706514
0.053686045 -0.407087 -0.26192003 -0.17880526 -0.5677785 0.013250653 0.07005772 -0.4074528
-0.283552 0.28790405 -0.5147867 -0.15289415 -0.003737395 -0.41397002 0.1886029 -0.2111015
-0.22950876 0.1196162 0.018640481 0.0005362719 -0.011622216 -0.27389833 0.15315995 0.011020454
0.13847339 -0.0068389936 -0.6123048 0.047769964 -0.40380326 0.19606939 -0.40420368 -0.10838693
0.08429554 0.27145556 0.11037359 -0.14080665 0.1495419 -0.40692785 0.13630264 0.28988868
-0.11631573 -0.037179075 -0.0756983 0.15141468 0.14481997 -0.22750865 -0.16371079 0.03198982
-0.58239526 0.20161575 -0.10839961 -0.0010047953 0.14109093 -0.042269714 0.106960796 0.29902023
-0.036400903 -0.026435902 -0.03955922 -0.4619148 -0.123117335 0.36702353 -0.48981375 0.17758365
-0.22694235 0.058459397 -0.26081502 0.058278717 -0.03340599 0.034886926 0.092401825 -0.021796566
0.11119644 -1.2152808 0.1727806 -0.0373827 -0.55167645 -0.08755437 -0.0019514094 -0.12071402
00000000: 9d51 e6be 49f1 0f3e 44a5 363e 9c40 d83d
00000010: d0be 30bd 127b 853c 085c 08bd 505b 3cbf
00000020: 6a8a 2fbe 9958 8dbd ac62 c5bd 9cd8 b8be
00000030: add9 42bc 7ab1 e13d 7dd8 d9be 2c09 a2be
00000040: 6b80 a83d 3b15 7c3d 3073 d6bd d4ce 0d3e
00000050: d006 8ebe 526f 9fbd 48f3 d73d a9f8 01bf
00000060: cba6 7bbf 3b0c e7bc 0500 1e3e 7159 233e
00000070: 4b6c 5c3d d80d 1cbf c9b3 a43e 806a 5cbe
00000080: 92f8 8a3d 2109 af3e c834 0e3c b6e9 fb3c
00000090: 6c21 eabc f54d 443e 3523 713d 5fd7 e33d
000000a0: 4595 6f3d 67bd f13d 3e3a 8bbf 32e1 54bd
000000b0: ddf6 d23b 7273 9bbd 6ce4 19be 9e99 663e
000000c0: 9845 873e e890 c83c 7b6d 133e 1e58 37bf
000000d0: d592 963d 7bd8 563b cdde c53d d7ea 02be
000000e0: 6629 093e 6746 773d 2fed 893d a56a ebbd
000000f0: e50d cbbb c975 273d 1e82 82bf f1f3 35be
00000100: afc9 2abf 5106 c6ba 88a8 27be b3f0 bb3d
00000110: 9a93 b03d cdf1 e83a b58a 2fbf 8a1f 533d
00000120: b6b8 e0bc 66d5 acbd 321e 373e 5b68 08be
00000130: 90bd ad3d 4bed 5d3c b155 f7be a5b2 043d
00000140: 61cc 85be df2d e8be 013a 00be 6715 2abf
00000150: 3a72 ad3d 3d1f 203d f14b ec3a e74e da3d
00000160: 151d 1ebe 2aa1 de3d 5cf8 153d e8b2 f6bc
00000170: ebdb 3ebf 156d f13b c2fc e53d 5357 0bbf
00000180: eec7 b9be 79e1 ca3d 8c63 9fbd d8bf 273e
00000190: a298 7f3d 4569 a3be 4786 113c f499 cabe
000001a0: 77c0 6e3e 041f a1be e737 103d fd61 fabd
000001b0: 65e2 0d3e 6bad cabd 8bcf 8b3e 1246 23be
000001c0: 5a93 96bd 9df2 ba3d 0f1b 73be 2e65 ec3c
000001d0: e7f3 28bd 50bd 13ba 35d3 7b3d d22e 0fbe
000001e0: d77d 5dbe 2aab b2be b4ca bdbe c5b5 663d
000001f0: 8c42 e53d c780 713d 6f57 143e 856e cc3d
00000200: 221c 66be e985 2d3c feb8 99bd 4a03 85be
00000210: 772d 643e fe2d d63d 553d acbe 5826 7a3d
00000220: aa7f d83d 2b88 88bd b9de c33c 53ff 5b3e
00000230: a531 cabd ee75 ba3e 1626 3bbf 4cc5 d7bc
00000240: fdcf e2bd 8658 e0be 5d9c 25be d074 f9bc
00000250: 949d 15be ffea ccbc c2df b2be 7d6d 37be
00000260: aa40 be3c df63 42bf 4b57 63be 4538 933b
00000270: 10ca 2a3e 07ce ba3e 034f 1fbf 7f3c 363c
00000280: 4629 2abf 35ef 9f3e 9aa8 85bd 7fc5 95bd
00000290: 2ea5 c5bd a44c a03d a3a1 9d3e 6cd7 bc3e
000002a0: bbd6 8fbe 27f7 e7bd ea18 9b3e 078e 0bbf
000002b0: 24f5 3e3e c744 10bd 16f0 3bbe c3bc 88be
000002c0: e6e5 5b3d b56d d0be 621a 86be ba18 37be
000002d0: ef59 11bf 4419 593c 6c7a 8f3d a79d d0be
000002e0: ba2d 91be 2968 933e 10c9 03bf 4990 1cbe
000002f0: 15ef 74bb e1f3 d3be 1e21 413e fe2a 58be
00000300: 5804 6bbe 57f9 f43d ecb3 983c 9994 0c3a
00000310: 1b6b 3ebc 673c 8cbe f6d5 1c3e 228f 343c
00000320: f8cb 0d3e a319 e0bb 02c0 1cbf 70aa 433d
00000330: 4dbf cebe 6ac6 483e c9f3 cebe f7f9 ddbd
00000340: 24a3 ac3d 39fc 8a3e 8c0b e23d 9e2f 10be
00000350: 8321 193e d958 d0be eb92 0b3e 4a6c 943e
00000360: f136 eebd 1649 18bd b607 9bbd 730c 1b3e
00000370: b04b 143e 07f8 68be cda3 27be c207 033d
00000380: db17 15bf 5c74 4e3e 9d00 debd 56b3 83ba
00000390: 247a 103e 0223 2dbd 430e db3d 2e19 993e
000003a0: 1d19 15bd 1b90 d8bc d908 22bd 1980 ecbe
000003b0: f124 fcbd 82ea bb3e dec8 fabe 7dd8 353e
000003c0: 9363 68be 1f73 6f3d 8c89 85be aab5 6e3d
000003d0: b8d4 08bd 98e5 0e3d 2b3d bd3d b68e b2bc
000003e0: f6ba e33d 528e 9bbf 66ed 303e 9a1e 19bd
000003f0: ab3a 0dbf b54f b3bd 6fc6 ffba ea38 f7bd

4.bias f4 [50]
-0.6427367 0.4316905 -0.11598424 -0.5400613 -0.012440992 -0.74615055 -0.076537825 -0.59172684
-0.33973828 -0.4716638 -0.6705993 -0.4155364 -0.66414595 0.7675935 0.2809537 -0.779908
-0.5344311 -0.04955949 -0.63932997 0.083487645 -0.40327013 0.024791257 0.7982599 -0.38852078
0.45420069 0.48817375 0.089643285 0.35107633 -0.23928054 -0.5364939 -0.38912562 -0.83084345
-0.57645535 0.16549242 0.33326188 -0.45631847 0.3282874 0.027376875 0.4335216 -0.23567794
-0.0077605667 0.5472734 -0.3129757 -0.13801032 -0.0412701 0.06736885 0.21788153 -0.23057018
-0.19667737 -0.30730632
00000000: 648a 24bf 8a06 dd3e 2589 edbd 7541 0abf
00000010: 4dd5 4bbc b903 3fbf ddbf 9cbd 697b 17bf
00000020: 2df2 adbe eb7d f1be 65ac 2bbf 30c1 d4be
00000030: 7805 2abf 0281 443f 2ad9 8f3e 0da8 47bf
00000040: 7ad0 08bf e4fe 4abd 21ab 23bf 92fb aa3d
00000050: 6c79 cebe 0917 cb3c c35a 4c3f 32ec c6be
00000060: fe8c e83e e9f1 f93e e696 b73d 47c0 b33e
00000070: f505 75be aa57 09bf 793b c7be 28b2 54bf
00000080: 9492 13bf d876 293e 4da1 aa3e 93a2 e9be
00000090: 4915 a83e 7845 e03c 8bf6 dd3e 8f55 71be
000000a0: 5a4c febb 1c1a 0c3f 5a3e a0be 9452 0dbe
000000b0: d60a 29bd aef8 893d 561c 5f3e 971a 6cbe
000000c0: cb65 49be 4157 9dbe

7.weight f4 [50]
0.67028064 0.7797857 1.0448325 0.68674463 0.97655624 0.8494721 1.1805547 0.99137115
0.9385694 1.0536141 0.6262076 0.74419993 1.0612454 0.8269502 1.1489179 0.32895485
0.7547372 0.7591941 0.6307713 0.98168147 0.8078342 0.98335576 1.132514 0.715427
1.1195978 0.9898479 0.78513443 1.0963777 1.1549186 0.7887175 0.8163774 1.2921562
0.77860063 0.977204 1.0201112 1.0152853 0.6794822 0.90705264 1.018818 0.72955054
1.0816852 0.8829732 0.97864485 1.1766315 0.8708327 0.8649301 0.8559027 0.6985681
0.45254424 0.7480207
00000000: 8397 2b3f 09a0 473f 12bd 853f 7fce 2f3f
00000010: 97ff 793f 0177 593f 6b1c 973f 80ca 7d3f
00000020: 1646 703f d4dc 863f 244f 203f e383 3e3f
00000030: e4d6 873f 02b3 533f be0f 933f c56c a83e
00000040: 7536 413f 8b5a 423f 3a7a 213f 7a4f 7b3f
00000050: 39ce 4e3f 34bd 7b3f 38f6 903f 3926 373f
00000060: fb4e 8f3f ac66 7d3f 92fe 483f 1b56 8c3f
00000070: 5fd4 933f 64e9 493f 1cfe 503f 6065 a53f
00000080: 5f52 473f 0b2a 7a3f 0193 823f def4 813f
00000090: 8cf2 2d3f 9a34 683f a168 823f d3c3 3a3f
000000a0: a974 8a3f 880a 623f 7888 7a3f dc9b 963f
000000b0: e4ee 5e3f 0f6c 5d3f 701c 5b3f 5cd5 323f
000000c0: e1b3 e73e 497e 3f3f

7.bias f4 [50]
-0.6360434 0.25460315 0.09869846 0.05306919 0.34990904 0.27922642 0.36362323 -0.15539989
-0.052008968 -0.2617049 -0.184402 0.15419887 0.16961257 0.5186435 0.77738047 -0.3603464
-0.1112868 0.45135322 -0.05519882 0.2213473 -0.0355998 0.19148606 0.3643972 0.046560463
0.61516184 0.26709425 0.19528028 0.607784 -0.023160199 0.2333312 -0.40773183 0.32923263
-0.19524951 0.14078672 0.55300987 0.07224686 0.22766462 0.8368436 0.5729869 -0.19366248
0.26615196 0.7161508 0.45383117 0.4097532 0.4543127 0.31351468 0.4471484 0.34093198
-0.48323587 0.13501108
00000000: bed3 22bf 585b 823e 6b22 ca3d 145f 593d
00000010: 4727 b33e c4f6 8e3e d32c ba3e 2621 1fbe
00000020: 5b07 55bd 2ffe 85be e1d3 3cbe 4fe6 1d3e
00000030: ebae 2d3e d2c5 043f 6802 473f 537f b8be
00000040: 55ea e3bd c517 e73e 2818 62bd dea8 623e
00000050: 19d1 11bd ec14 443e 4592 ba3e 2fb6 3e3d
00000060: 3f7b 1d3f 94c0 883e 8ef7 473e bb97 1b3f
00000070: 75ba bdbc 60ee 6e3e 3ac2 d0be 2e91 a83e
00000080: 7def 47be 652a 103e 0e92 0d3f 29f6 933d
00000090: ea20 693e 623b 563f 45af 123f 754f 46be
000000a0: 1245 883e a955 373f 8f5c e83e 2ccb d13e
000000b0: ad9b e83e ff84 a03e a3f0 e43e a38e ae3e
000000c0: b16a f7be 5840 0a3e

7.running_mean f4 [50]
0.23120673 0.9608592 0.6336306 0.16823162 2.2857552 0.17336379 1.3385397 1.3625405
0.9820297 0.56798095 0.8426723 1.0265683 0.47458518 3.348599 1.8987149 0.12990654
0.5197264 0.42246768 1.1241314 1.8787241 0.68499863 1.1445204 3.06107 1.0198743
4.0487027 2.4816794 1.2131933 3.5035818 1.1369476 0.8593574 0.3231138 0.59197783
0.55342704 2.755651 3.0915256 1.2555838 1.7749344 3.353338 4.0482693 0.19486251
2.106014 2.8989644 1.3914963 1.3731359 1.6420473 2.331698 1.95382 0.9386187
0.6150639 0.35413307
00000000: 75c1 6c3e defa 753f 9d35 223f e944 2c3e
00000010: d049 1240 4786 313e 4555 ab3f ba67 ae3f
00000020: 4c66 7b3f 3367 113f 5fb9 573f 9766 833f
00000030: d4fc f23e 724f 5640 1709 f33f 3806 053e
00000040: ca0c 053f af4d d83e 8ae3 8f3f 087a f03f
00000050: 125c 2f3f a57f 923f 92e8 4340 3e8b 823f
00000060: f98e 8140 d6d3 1e40 eb49 9b3f af3a 6040
00000070: 8087 913f d9fe 5b3f 2c6f a53e dc8b 173f
00000080: 65ad 0d3f 965c 3040 8edb 4540 f8b6 a03f
00000090: 0d31 e33f 179d 5640 6c8b 8140 0a8a 473e
000000a0: efc8 0640 a288 3940 8d1c b23f ebc2 af3f
000000b0: 9b2e d23f 8a3a 1540 c616 fa3f 5149 703f
000000c0: d474 1d3f ee50 b53e

7.running_var f4 [50]
1.08621 1.8587921 3.7639651 0.29355893 7.65826 0.30271584 8.718418 13.834059
4.946181 3.6453953 3.5045924 3.6768634 2.1304107 7.4864416 13.4948845 0.36870682
1.3272917 0.9431261 6.3325253 6.6986036 1.7949581 2.1057594 5.3594227 3.8401275
35.838387 5.4327235 5.769958 12.122087 8.98661 2.3891041 0.9119641 4.9018655
0.8926322 7.78484 10.274869 3.3822103 4.572869 17.141989 19.030474 0.3809208
6.3563538 6.362084 3.9795165 12.228673 3.2699678 4.871462 4.8932276 1.9223595
1.6947664 0.73867214
00000000: ee08 8b3f e6ec ed3f cee4 7040 5b4d 963e
00000010: 7710 f540 92fd 9a3e a47e 0b41 4e58 5d41
00000020: 1d47 9e40 284e 6940 3e4b 6040 bb51 6b40
00000030: a658 0840 ee90 ef40 0ceb 5741 24c7 bc3e
00000040: b2e4 a93f b670 713f 0ca4 ca40 f65a d640
00000050: 30c1 e53f c3c4 0640 6480 ab40 a6c4 7540
00000060: 825a 0f42 dfd8 ad40 7fa3 b840 11f4 4141
00000070: 28c9 0f41 15e7 1840 7b76 693f 15dc 9c40
00000080: 8b83 643f 691d f940 dd65 2441 2276 5840
00000090: f154 9240 cb22 8941 693e 9841 0d08 c33e
000000a0: 4067 cb40 3196 cb40 66b0 7e40 a5a8 4341
000000b0: 2747 5140 04e3 9b40 5295 9c40 e00f f63f
000000c0: 1bee d83f 9e19 3d3f

8.weight f4 [20, 50]
0.013479068 -0.24033017 0.022814464 -0.015163401 -0.89661866 0.099986665 -0.033481915 0.08000635
0.21299542 -0.05645508 -0.097206935 -0.74622756 0.22843643 -0.015276449 -0.118898146 -0.35146353
0.10543042 -0.0564293 -0.34493893 -0.45672417 -0.13338992 -0.595028 -0.24367733 -0.2942489
-0.13086051 -0.31151286 0.23248148 -0.13073866 -0.057142064 -0.64409554 0.08620642 0.33723238
-0.014283301 -0.8975441 -0.047737632 0.010793248 -0.07308726 -0.19138636 -0.15164872 0.16307488
-0.7036555 -0.1361392 -0.76312286 -0.038636666 -0.90822446 -1.042928 -0.39429227 -0.073664196
-0.021835715 0.15033723 0.017041223 0.11081989 -0.7278251 0.1441958 0.16600968 -0.21959871
-0.65775156 -0.87684613 -0.65719026 -0.85653573 0.10378719 0.00322608 -0.8023258 0.072723694
-0.2170648 -0.08585504 0.17991248 -0.042767096 0.2044448 0.030722804 0.15705569 -0.018341064
-0.019885471 0.33471978 -0.13916166 -0.011231825 -0.43312162 0.1453732 -0.63214874 0.2143083
-0.4745474 -1.8464948 0.2453529 -0.044602685 0.016167691 0.057669617 -0.1353025 -0.10909224
0.09771022 0.4460323 0.13889721 -0.08287533 0.04210173 -0.3632092 -0.17218761 -0.061876636
-0.1151352 -0.057739813 0.054291464 0.11170459 -0.42562917 -0.095712766 -0.31044304 0.052368756
0.15566929 -0.45014903 -0.33234307 -0.9020093 -0.5491926 -0.42928648 0.09249453 0.28827697
-0.8211555 -0.17677447 0.048115898 0.19101691 0.059777703 0.16202962 0.21911064 0.014782136
0.17090864 -0.18741348 -0.07396767 0.06821028 -0.026364082 -0.15248172 -0.35948768 0.12364352
-0.96426743 0.22417249 -0.68092966 -2.2492557 0.12978517 -0.10074132 0.100090116 0.22979946
-0.011908201 -0.09737657 -0.039635107 0.21554804 0.0041150963 -0.26871362 0.030232035 -0.36659577
0.008346951 -0.12563792 -0.0005819552 -0.10113098 -0.015730903 -0.015213508 -0.47412154 -0.028350227
-0.17023417 0.13575801 0.067095645 -0.6186022 -0.49022612 -1.0707786 -0.7996655 -0.5481098
0.05840631 0.081724554 -1.0992303 0.15685458 0.019882908 0.09154025 0.19397931 0.13913547
0.52626646 0.024745489 0.26332477 -0.1296954 -0.19080669 0.2608353 0.0056275446 -0.16778393
-0.55078655 -0.036477078 -0.7801569 0.20598456 -0.48853803 -2.081393 0.11633989 -0.054622885
-0.014150946 0.22189805 0.030694455 -0.039374206 0.0022509336 0.21905859 -0.04583713 -0.15562679
0.0783907 -0.20380145 -0.06330001 -0.090477705 -0.15623716 -0.1719139 0.11722576 0.10530225
-0.55288774 -0.062671326 -0.31028208 0.271323 0.023258135 -0.37661448 -0.6697251 -0.7742869
-0.57786024 -0.42750618 0.29602146 0.16126916 -0.89400154 -0.33266088 -0.09962298 0.015879339
0.1085965 0.0120581295 0.15936883 0.20051003 0.33359933 -0.10972523 -0.06965233 0.25005087
0.036761 -0.028226275 -0.26173666 -0.07725554 -0.7925114 0.02675425 -0.6595376 -1.9636701
0.301863 0.02534702 -0.0069299927 0.20785876 -0.12819871 0.21183252 0.07025047 -0.0022343185
-0.039436065 -0.09350758 0.11566454 -0.83837783 -0.0070423004 0.041266657 -0.22338112 0.05819373
0.2447555 -0.17927384 -0.018488783 -0.028942723 0.019819193 0.0092901075 -0.046078205 -0.11779843
00000000: 4fd7 5c3c 1d19 76be 66e5 ba3c ea6f 78bc
00000010: cd88 65bf cfc5 cc3d 5524 09bd 5fda a33d
00000020: 791b 5a3e 713d 67bd 6e14 c7bd c508 3fbf
00000030: 3deb 693e 124a 7abc df80 f3bd 07f3 b3be
00000040: e7eb d73d 6922 67bd d69b b0be c0d7 e9be
00000050: 5e97 08be c153 18bf 8d86 79be cba7 96be
00000060: 4c00 06be 9d7e 9fbe a00f 6e3e 5be0 05be
00000070: cc0d 6abd 72e3 24bf fe8c b03d b9a9 ac3e
00000080: 8204 6abc 73c5 65bf 8988 43bd 2ad6 303c
00000090: c6ae 95bd c9fa 43be cd49 1bbe 1afd 263e
000000a0: c422 34bf 1368 0bbe 055c 43bf 7b41 1ebd
000000b0: 6681 68bf aa7e 85bf ade0 c9be 41dd 96bd
000000c0: d0e0 b2bc 01f2 193e 099a 8b3c 8af5 e23d
000000d0: bf52 3abf 10a8 133e 71fe 293e 7cde 60be
000000e0: 6862 28bf fd78 60bf 9f3d 28bf ed45 5bbf
000000f0: 618e d43d a46c 533b 3965 4dbf 29f0 943d
00000100: 3c46 5ebe c4d4 afbd fa3a 383e 8d2c 2fbd
00000110: fa59 513e 64ae fb3c 35d3 203e 0040 96bc
00000120: dbe6 a2bc 6460 ab3e 6580 0ebe b005 38bc
00000130: 1ec2 ddbe b6dc 143e 80d4 21bf a373 5b3e
00000140: e0f7 f2be f159 ecbf ca3d 7b3e 4eb1 36bd
00000150: 1b72 843c fa36 6c3d bd8c 0abe c16b dfbd
00000160: 4c1c c83d 585e e43e 123b 0e3e 8aba a9bd
00000170: dd72 2c3d 8ef6 b9be f351 30be 5b72 7dbd
00000180: 01cc ebbd 9580 6cbd ba60 5e3d 60c5 e43d
00000190: 11ec d9be 0e05 c4bd 64f2 9ebe 9f80 563d
000001a0: c567 1f3e ef79 e6be df28 aabe 15ea 66bf
000001b0: e397 0cbf 70cb dbbe c66d bd3d 0a99 933e
000001c0: 3f37 52bf 5e04 35be 2d15 453d f099 433e
000001d0: 77d9 743d 18eb 253e 8a5e 603e c630 723c
000001e0: ad02 2f3e 52e9 3fbe 5d7c 97bd d5b1 8b3d
000001f0: 7df9 d7bc 2b24 1cbe c50e b8be d038 fd3d
00000200: 3bda 76bf 798d 653e 6851 2ebf cef3 0fc0
00000210: 67e6 043e 7751 cebd 0cfc cc3d 8d50 6b3e
00000220: 9d1a 43bc 5e6d c7bd 6c58 22bd a0b8 5c3e
00000230: eed7 863b d594 89be 2ca9 f73c 71b2 bbbe
00000240: a6c1 083c 3aa7 00be 5a8e 18ba c21d cfbd
00000250: 18de 80bc 1442 79bc 0fc0 f2be bc3e e8bc
00000260: de51 2ebe 2604 0b3e 7169 893d b75c 1ebf
00000270: ebfe fabe 460f 89bf e1b6 4cbf ed50 0cbf
00000280: 743b 6f3d 345f a73d 94b3 8cbf 7d9e 203e
00000290: 7be1 a23c 7479 bb3d 83a2 463e 8779 0e3e
000002a0: 66b9 063f 0db7 ca3c 81d2 863e dfce 04be
000002b0: d462 43be 348c 853e 4467 b83b 8dcf 2bbe
000002c0: 5900 0dbf fd68 15bd 5db8 47bf 9eed 523e
000002d0: a821 fabe 8b35 05c0 9c43 ee3d 3fbc 5fbd
000002e0: 5fd9 67bc 3e39 633e f072 fb3c d946 21bd
000002f0: 6684 133b e550 603e b7bf 3bbd a15c 1fbe
00000300: 4e8b a03d 54b1 50be 70a3 81bd 604c b9bd
00000310: a2fc 1fbe 330a 30be 0f14 f03d b5a8 d73d
00000320: 0d8a 0dbf d359 80bd 4bdd 9ebe d9ea 8a3e
00000330: d887 be3c 9dd3 c0be 1b73 2bbf ab37 46bf
00000340: a6ee 13bf 17e2 dabe 2090 973e be23 253e
00000350: 49dd 64bf 8752 aabe 2207 ccbd 6315 823c
00000360: d767 de3d 768f 453c 9531 233e 8052 4d3e
00000370: 88cd aa3e 9fb7 e0bd e1a5 8ebd ab06 803e
00000380: b492 163d ca3a e7bc 5902 86be 2738 9ebd
00000390: 07e2 4abf bb2b db3c 75d7 28bf 8b59 fbbf
000003a0: ca8d 9a3e 8ea4 cf3c fe14 e3bb edd8 543e
000003b0: 8646 03be a0ea 583e 7adf 8f3d a56d 12bb
000003c0: b687 21bd e780 bfbd 88e1 ec3d ee9f 56bf
000003d0: 19c3 e6bb 3a07 293d 05be 64be 8c5c 6e3d
000003e0: 30a1 7a3e 9093 37be ca75 97bc 4a19 edbc
000003f0: dc5b a23c 8935 183c 80bc 3cbd 4e40 f1bd

8.bias f4 [20]
-0.43194097 -0.13796715 0.030362409 0.028227001 0.07729583 -0.6027933 -0.24039574 -0.032612324
-0.10022694 -0.28806674 -0.19443731 -0.92367184 -0.50639284 -0.8410449 -0.7455814 -0.5308705
-0.14091314 -0.1405537 -0.5814075 -0.016543986
00000000: 5e27 ddbe 4347 0dbe 96ba f83c 503c e73c
00000010: 474d 9e3d a950 1abf 4d2a 76be 8094 05bd
00000020: c843 cdbd 7c7d 93be 931a 47be c275 6cbf
00000030: f6a2 01bf b84e 57bf 6cde 3ebf 21e7 07bf
00000040: 894b 10be 4fed 0fbe 1fd7 14bf 4187 87bc

11.weight f4 [20]
0.44091064 0.3147983 0.27803472 0.32614842 0.30910206 0.47234264 0.45386413 0.26233667
0.36263275 0.34280956 0.44540438 0.40904126 0.45028633 0.4894051 0.35374165 0.44780776
0.40881613 0.4147878 0.37077177 0.41553026
00000000: 0abf e13e 3e2d a13e 915a 8e3e edfc a63e
00000010: a042 9e3e e5d6 f13e e160 e83e fe50 863e
00000020: 00ab b93e bc84 af3e 0b0c e43e db6d d13e
00000030: ee8b e63e 4e93 fa3e a01d b53e 0f47 e53e
00000040: 5950 d13e 115f d43e ccd5 bd3e 62c0 d43e

11.bias f4 [20]
1.1445891 -1.2665313 -1.139363 -1.3413879 -1.2693253 -1.2901032 1.1807485 -1.1020638
-1.2436076 -1.3085215 1.1496754 -1.3594913 -1.2936472 1.2204812 -1.2881646 1.1461064
1.075082 1.109337 -1.3496048 1.1001102
00000000: e581 923f b31d a2bf a6d6 91bf 99b2 abbf
00000010: 4079 a2bf 1a22 a5bf c422 973f 6d10 8dbf
00000020: 892e 9fbf a27d a7bf 9028 933f d003 aebf
00000030: 3b96 a5bf ba38 9c3f 94e2 a4bf 9db3 923f
00000040: 499c 893f c1fe 8d3f dabf acbf 69d0 8c3f

11.running_mean f4 [20]
0.92097986 1.597905 1.722803 1.8643806 1.873177 0.17456152 1.3876439 1.1687368
0.6118417 2.030966 1.782582 -0.06481694 0.19867085 0.13951305 -0.03270893 0.7261141
1.5345542 1.4599917 0.8805888 1.9536983
00000000: 56c5 6b3f 2788 cc3f cf84 dc3f 06a4 ee3f
00000010: 44c4 ef3f 41c0 323e 519e b13f 2b99 953f
00000020: a8a1 1c3f 59fb 0140 a62b e43f bebe 84bd
00000030: 5f70 4b3e 82dc 0e3e cdf9 05bd 9de2 393f
00000040: 466c c43f 02e1 ba3f 456e 613f c912 fa3f

11.running_var f4 [20]
3.8737328 3.335558 3.842545 4.5957036 5.6722703 0.27961567 6.3958697 2.1999357
0.85593927 6.3037624 8.763928 0.008689148 0.3244949 0.3665641 0.033115473 2.3047152
7.0279994 6.038743 3.201827 11.400948
00000000: 3deb 7740 c879 5540 42ec 7540 0110 9340
00000010: 3d83 b540 c929 8f3e f7aa cc40 bfcb 0c40
00000020: d61e 5b3f 6cb8 c940 0d39 0c41 ee5c 0e3c
00000030: 3224 a63e 4aae bb3e 17a4 073d 7480 1340
00000040: 5fe5 e040 623d c140 bcea 4c40 486a 3641

12.weight f4 [1, 20]
1.7255012 -1.532414 -1.7336336 -1.4401171 -1.508842 -1.5084538 1.6191192 -1.8742505
-1.5571132 -1.497739 1.6655989 -1.4484534 -1.4970413 1.5693896 -1.5295951 1.7049971
1.8515265 1.7830697 -1.4495143 1.7998985
00000000: 39dd dc3f 2426 c4bf b5e7 ddbf c255 b8bf
00000010: bc21 c1bf 0415 c1bf 4c3f cf3f 71e7 efbf
00000020: 7c4f c7bf e9b5 bfbf 5832 d53f ec66 b9bf
00000030: 0d9f bfbf c2e1 c83f c6c9 c3bf 583d da3f
00000040: d2fe ec3f a13b e43f af89 b9bf 1363 e63f
