main_app/deep_model_strength/torch_model_params.pkl (torch_old, 38373 bytes, 19 tensors)

0.weight f4 [80, 39]
00000000: cce6 8840 5a73 36c0 91fa 93c0 a5b5 d9bf
00000010: bac3 87bf ebff 6c40 51b4 f83f d041 88bf
00000020: f062 0dbf e120 78be 43ab efbf 5581 0340
00000030: ddd0 fdc0 0042 1341 b720 02c1 f9c5 ff40
00000040: 91ce 73c0 99d9 e5bf 60e2 06c1 de82 ce3d
00000050: db2d 1741 2247 0241 a5a7 cdbd 268b 1141
00000060: 1609 053e 8a12 dcc0 0c01 dac0 cc1b 1ac1
00000070: 69f4 b3c0 cb59 d8c0 4563 ee3d b0c6 c53c
00000080: 26f4 e440 7319 b5bd 55f0 0f3d cba8 3fbd
00000090: 854e 3bbd 9767 b0bf 2053 aa3d 8a80 15c1
000000a0: 5f17 d1c0 16c7 88c1 131a 8c40 5b51 ac40
000000b0: 4caf 8841 ce23 4a3f 3ce2 06bf 55df de3f
000000c0: 3732 cd3f 2c9f c03f af60 03c0 e9c6 be40
000000d0: ee56 4941 f251 11bf 55cf 1e41 a2a6 0dc1
000000e0: eb85 b1c1 d4cd 7840 774a 9d3d 3820 9340
000000f0: f725 a4bf d407 293d dbdf c33f d33c 07bc
00000100: 113b 10c1 f43d bbc1 86fd 2d40 cd10 0240
00000110: 156d 1a41 4c6c a53d 6d06 abbd 0122 26c0
00000120: 1da7 f2bd 942c 29bd d653 34be 3685 653c
00000130: 70cc 9b40 7f6b 803e 8939 07c1 fd71 b241
00000140: 7377 87c2 296d fc40 4df4 f7bf 5ec9 0d40
00000150: 5be5 123f 5d9d 6a3f 660f 78be 260b 51c0
00000160: 10b0 4ac0 6753 7540 47a0 4cc1 2bf5 9dc0
00000170: 8af2 9940 0fe6 2cc1 1ef9 afc0 e4d2 a142
00000180: 0d87 e3c0 0dd7 eebd 2e00 2a40 859c 21c1
00000190: 1d89 9e3d ecea cd3f 1c79 97bd 33a9 fac0
000001a0: 147a afc0 c14b 1041 ca46 1340 93de a741
000001b0: ec24 f3bd 16c0 283a 2b93 f43f 40ba 77bd
000001c0: 9bad 613c b338 a7bd 9aeb 22bc bb2f 0040
000001d0: 7e74 823e cfa4 2e41 d713 93c0 4251 07c2
000001e0: 76da 2f40 3fc2 87c0 dcf6 aac0 6fa7 0c40
000001f0: a351 97bf 40ea 4dbf c17a a33f 1449 4f3f
00000200: ad4b eb41 10eb b940 fae7 2b40 4978 89bf
00000210: 0f63 473f 0544 9d41 5d40 ca42 cfa8 17c0
00000220: c846 48bc ead8 fa3f b4be c5c0 10b9 643c
00000230: a42c 4b40 d314 bebd 83fb 09bf e423 4341
00000240: 9525 b8c0 e96d f93e 96fe 4741 84bc d93d
00000250: 1489 9c3d a922 5240 828d d03c 44ce 353e
00000260: 8eca 2dbd 77ea a0bc 2968 61c0 76d3 8dbd
00000270: 0e6d ca3f c12f 2d3f 9798 3e3f 524c 92bf
00000280: 5bc7 0fc0 f9dd 7e41 b0d8 e4bf 43f0 2bbf
00000290: ab1d cebf b824 a7bf 8fbc 8dbd d4d7 f3c0
000002a0: 5a4a 3ec0 71b6 8041 b5c9 c63f e9e8 1a41
000002b0: a48b 0dc0 dad4 0441 2735 2abc bfd8 423c
000002c0: 346c 5740 1db9 3e3e e24b 5f3d 284e 2340
000002d0: b642 55be 2c7e d9c0 ab2c 22c1 bc0d 5840
000002e0: c440 b5be 9091 4f41 b3cf 7c3d 84a2 653c
000002f0: a67d dbc0 ab8b 7bbd 991d 9ebe 2a2d 083d
00000300: 795f 8d3c a0a5 803f 3b68 c6bc 6bd0 8b41
00000310: fa0e 8d3f 0224 ccc1 a36f fd3f abe6 cebf
00000320: 8cb5 4cc0 edde 8340 7324 2e40 d5db 0240
00000330: 74a2 4b3f 8470 833f bbf2 fbbf e7e5 8ac0
00000340: bd8b cbbf e053 9b40 3c35 8fbf 82f1 b9c0
00000350: 4e31 9e42 8903 14c0 5fb1 433d 99a3 163e
00000360: 10e3 dabe 9466 2ebd d0f3 c73e bae0 f8bd
00000370: eb6c bcc0 9866 b641 9104 be41 be2a 3dc0
00000380: d858 9541 5dc3 90bd e235 0e3e 0379 5cc1
00000390: ffcf d2bd cf98 993d fe6a 9abd 2f66 f4bd
000003a0: 8e20 c03f c704 713e 0b4a b540 d4ff a8bf
000003b0: 29ea 2ac0 5e21 acc0 a722 45c0 0288 2abf
000003c0: 110e db3f 8e1c 36c0 601e 50c0 3aab fbc0
000003d0: 905a c140 1cfc a93c 1ccf 62bf 439e 22c0
000003e0: bfb2 2bc0 ad42 7a40 8c10 24c0 f491 ea40
000003f0: d286 cac0 7b5e a33d 7491 2840 3214 1540
4.2781734 -2.8507905 -4.6243367 -1.7008559 -1.0606606 3.70312 1.9430028 -1.0645084
-0.5522909 -0.24231292 -1.872414 2.0547688 -7.931746 9.203613 -8.132987 7.9929166
-3.8094828 -1.795703 -8.430267 0.10083555 9.448695 8.142366 -0.10041741 9.096472
0.12991747 -6.877263 -6.812628 -9.631786 -5.623585 -6.760961 0.11640028 0.024142593
7.1548033 -0.08842745 0.035141308 -0.046791833 -0.04572918 -1.3781613 0.08316636 -9.343882
-6.534103 -17.09721 4.378183 5.384931 17.085594 0.78960884 -0.52688956 1.7411906
1.6030949 1.5048575 -2.052776 5.961781 12.583723 -0.56765664 9.925618 -8.853182
-22.19039 3.8875628 0.07680219 4.597683 -1.2824086 0.04126723 1.530269 -0.008254248
-9.0144205 -23.40525 2.7185988 2.0322754 9.651631 0.080772966 -0.08350835 -2.5958254
-0.118482806 -0.04130228 -0.17610106 0.014008811 4.8687057 0.25082013 -8.451547 22.305658
-67.7333 7.888325 -1.937143 2.2154155 0.5738122 0.9164637 -0.24224624 -3.2663054
-3.166996 3.8332155 -12.78913 -4.9361777 4.810857 -10.806167 -5.49916 80.911896
-7.1102357 -0.116621114 2.656261 -10.100713 0.07740996 1.6087317 -0.07396147 -7.833154
-5.483652 9.018495 2.3011956 20.983679 -0.11872277 0.00064373144 1.9107412 -0.060480356
0.013774301 -0.081651114 -0.009943867 2.0029132 0.254795 10.915236 -4.596172 -33.829353
2.7477088 -4.2424617 -5.342634 2.1977193 -1.1821789 -0.8043556 1.2771837 0.80970883
29.411951 5.809944 2.6860337 -1.0739833 0.77885526 19.658213 101.12571 -2.3696783
-0.012223907 1.9597447 -6.179529 0.013960138 3.1745996 -0.09281316 -0.538994 12.196262
-5.7545877 0.48716667 12.499655 0.106316596 0.07643333 3.2833655 0.025458101 0.17754465
-0.0424295 -0.019643052 -3.5219824 -0.069250986 1.5814531 0.6765099 0.74451584 -1.1429541
-2.2465427 15.929193 -1.7878628 -0.67163485 -1.6102804 -1.3058081 -0.0692073 -7.620096
-2.973288 16.089083 1.5530306 9.681863 -2.211648 8.301966 -0.010388649 0.011892497
3.3659792 0.18625303 0.054515727 2.5516453 -0.2082623 -6.796652 -10.135905 3.3758383
-0.35400975 12.973038 0.061721515 0.0140157975 -6.859088 -0.061412495 -0.30881956 0.033246197
0.017257439 1.0050545 -0.024219623 17.476767 1.1020195 -25.517582 1.9799694 -1.6164144
-3.1985807 4.1209626 2.7209747 2.0446675 0.7954476 1.0268712 -1.968345 -4.3405643
-1.590202 4.8539886 -1.1188121 -5.810731 79.0963 -2.3127158 0.047776576 0.14710845
-0.4275136 -0.042578295 0.39053202 -0.12152238 -5.8882957 22.800095 23.75223 -2.9557338
18.66838 -0.070685126 0.13887742 -13.779544 -0.10293578 0.07499849 -0.075399384 -0.119335525
1.5009935 0.23536979 5.6652884 -1.3203073 -2.670542 -5.379073 -3.08024 -0.6661378
1.7113668 -2.8454928 -3.251854 -7.8646517 6.042305 0.020750098 -0.88597274 -2.5409095
-2.6827848 3.9103196 -2.56351 7.3303165 -6.3289576 0.07977005 2.6338778 2.3293576

0.bias f4 [80]
00000000: 3d78 8bbf a404 853d 07f5 20c0 7d22 76c0
00000010: 3fa6 0dc0 92d7 d2bf c051 4fc0 1394 5cbe
00000020: 806a 35c0 cd1f 35bf e56e 02bf d489 5ebf
00000030: 2d7a a4bf 3ebe eabe e738 70c0 dd38 89be
00000040: 5254 67bf fcea 1e40 92bc b0bf 39a4 e1be
00000050: d513 543f f88b d3bf fcc9 04c0 cef1 3840
00000060: c43d cdbf 3617 eebe c56e a1be 16c0 0fc0
00000070: 7b15 1140 7d72 69bf 70f5 3e40 749c e5bf
00000080: a268 1bbf 8b9e fbbf b7bc 91c0 9c4a 64c0
00000090: 1190 1fc0 292c 1ac0 a848 d63e 85e4 e8bf
000000a0: d913 cc3f dbb4 843e d842 28c0 2149 b03d
000000b0: 2d5e 7bbf 2dab ea3e 07c9 df3d a48c 1d40
000000c0: d19f 783f 41a3 be40 c062 4dc0 7451 02c0
000000d0: 441d cdbe fe6d a1bf ecb4 4dc0 61dc 39c0
000000e0: 237a 68bf 6e4a 3cc0 b64b c8bf c4ff d73d
000000f0: 612f d43f 0667 7bbf a225 89c0 0062 b6bd
00000100: 7a72 42c0 7b41 f83f 5905 6340 8851 23c0
00000110: 69d4 6bc0 2c68 073f cb26 ccbb a0cb 48bf
00000120: 2456 30c0 3d9d cbbf ce6c dbbf 7bde e13f
00000130: 3197 26be bc8c 593f 7b50 47c0 88a8 00bf
-1.0896069 0.06495026 -2.5149553 -3.845855 -2.2132719 -1.6472037 -3.2393646 -0.21540861
-2.8346252 -0.7075165 -0.5095046 -0.8692906 -1.2849785 -0.45848268 -3.753473 -0.26801196
-0.9036304 2.4830923 -1.3807547 -0.44070604 0.8284276 -1.652709 -2.0748281 2.8897586
-1.6034474 -0.46502084 -0.31529823 -2.246099 2.266936 -0.9119032 2.9837303 -1.7938371
-0.6070653 -1.9657758 -4.5542865 -3.5670538 -2.493168 -2.4089453 0.41852307 -1.8194739
1.5943557 0.25919232 -2.6290798 0.08607698 -0.98190576 0.45833722 0.10927015 2.461709
0.9711886 5.9574285 -3.2091522 -2.0362215 -0.4006139 -1.2611692 -3.2141676 -2.9040759
-0.90811366 -2.9420428 -1.5648105 0.1054683 1.6576959 -0.98204076 -4.285844 -0.08905411
-3.038237 1.9394983 3.5472014 -2.5518513 -3.6848395 0.5289333 -0.0062302104 -0.7843571
-2.7552576 -1.590736 -1.714258 1.7646021 -0.16268612 0.8498037 -3.1142871 -0.5025716

3.weight f4 [80]
00000000: ed06 54bd ccb9 e53f eb51 4d40 484c 5a40
00000010: 605e c540 9374 8e40 ec7f 6fbd d7e0 f640
00000020: 49d5 8140 b8e6 c8bc 95c8 fc3e 617b b03f
00000030: bde3 6440 0e79 9040 5aa7 f23d 509e a440
00000040: d065 0240 552c 6f3e 0c11 8a40 ac06 8c3f
00000050: 990a 8dbf d0d2 813d baef 6640 4c18 3bbd
00000060: a6ab 9e40 255d 96bd 4b58 6740 a718 28be
00000070: 00e6 cc40 6d06 fbbc 4213 763d 9883 de3d
00000080: a086 7b3e a17a 6b3e 0ffb dc40 15e6 7d40
00000090: 04e2 223e f783 ddbc f890 8d40 334a 213b
000000a0: be13 5240 54e7 ccbb 052f 4540 ff47 463e
000000b0: a72c 453b 17bb 9b3f 94eb 7540 6f80 1fbe
000000c0: 6b78 2640 33d5 15c0 cb1b 7c40 dbb3 6540
000000d0: 5a4c 723d 8dbe 483e fe41 0841 6dc4 fd3f
000000e0: fbd1 9540 957f 0641 efd1 6c40 645b 4c40
000000f0: 4da0 da40 13d5 6e40 229c a93d 887c a040
00000100: b128 b040 6f9f 4c3d 1450 ac3d 8eba 8440
00000110: ea1d d640 f64e a640 b15d b83f 503f 33bd
00000120: 3c21 cb40 3911 4040 e61a 3d40 0333 873d
00000130: 3e36 3fc0 4aa2 f840 54df 0741 1a6b 1a3d
-0.051764417 1.7947326 3.2081249 3.4109058 6.1677704 4.4517303 -0.058471605 7.7149463
4.057286 -0.024524078 0.49371782 1.3787652 3.5764 4.514777 0.11848326 5.1443253
2.0374641 0.23356755 4.314581 1.0939536 -1.1018859 0.063390374 3.6083817 -0.04567747
4.958453 -0.07341985 3.614764 -0.16415654 6.403076 -0.030642712 0.06007696 0.10864943
0.24563074 0.22995998 6.905647 3.967168 0.1590653 -0.027040465 4.4239464 0.0024610877
3.282455 -0.0062531624 3.0809948 0.19363402 0.003008643 1.216647 3.8425035 -0.15576337
2.6010997 -2.3411376 3.9391963 3.5891025 0.059154846 0.1960394 8.516111 1.9825569
4.6818824 8.406148 3.7003133 3.193078 6.832068 3.731755 0.08281733 5.0152016
5.504967 0.049956735 0.08413711 4.147773 6.6911516 5.197139 1.4403592 -0.04376155
6.347807 3.0010512 2.9547668 0.066015266 -2.9876857 7.7698107 8.492023 0.037699796

3.bias f4 [80]
00000000: cba1 b53e d176 d7c0 246f 59bd b2de 87bf
00000010: 7767 1340 fa59 903f 608a 1dbe cbac 0440
00000020: ecf7 e3bf e7b3 663e fee7 01bb 20fb f3be
00000030: f816 533f 6ef0 4f3f c3fa d13c 2d5b 963e
00000040: 5555 2ebe a2c9 63be 9270 0140 b6d2 8c3f
00000050: 0b4c 81bd d3a0 53be ccc3 e7bd e2ea 033e
00000060: ffb6 a73e ef6e d33d 56c4 2840 e7eb 863e
00000070: b6f8 e23f 57cb 04bf 4bb9 963d 4d97 f6bd
00000080: 37d0 11bf 1313 2fbe a819 cc3e 2f35 7bc0
00000090: fe7a b53d a893 c53e 6fda b23e c3da af3d
000000a0: 62de 4a40 c41b 11be d196 cebe 80de aa3e
000000b0: faef b43d 1d63 18c1 5461 9f3f f6a4 34be
000000c0: 3abd 5f3e b091 83be 5403 e33e f6d0 113f
000000d0: 57c1 49be 21d1 38be e66a 7540 ef1e 8b3f
000000e0: c12f 7b3f 0a4d 4cc0 a3b6 8cbb a8fb 533e
000000f0: 4e9c e3be 5071 5540 fabe 73be 10ff 86be
00000100: 2041 b6bf 9e95 903d 196d 09be 34cb 73bf
00000110: b708 2ec0 6698 c33f 5ab4 e7be a475 adbe
00000120: c39d 023f a94f f43e 09e0 e2be 5957 8bbd
00000130: ee0c 9f3d eba8 61c0 ffee 5ebe a06f 01bf
0.35475 -6.733254 -0.053084508 -1.0614836 2.30319 1.1277459 -0.15384817 2.0730464
-1.7810035 0.22529565 -0.0019822116 -0.4765253 0.8245692 0.8122624 0.025632268 0.29366437
-0.17024739 -0.22244886 2.0224957 1.1001804 -0.06313332 -0.20666818 -0.11316642 0.1288257
0.32756802 0.10323893 2.6369834 0.26351854 1.773215 -0.5187277 0.073595606 -0.12040577
-0.56958336 -0.1709712 0.39863324 -3.925121 0.088613495 0.38589215 0.34932277 0.08586647
3.1698232 -0.14170748 -0.4034944 0.3337288 0.088348344 -9.524198 1.2451577 -0.17641053
0.21849528 -0.25697088 0.44338477 0.56959474 -0.1970266 -0.18048526 3.8346496 1.0868815
0.9811974 -3.192202 -0.004294233 0.20701468 -0.4445519 3.335041 -0.2380332 -0.26366472
-1.4238625 0.07059787 -0.13420524 -0.9523194 -2.719282 1.5280883 -0.45254785 -0.33878815
0.51021975 0.47717026 -0.4431155 -0.068037696 0.07766138 -3.525935 -0.21770857 -0.5056095

3.running_mean f4 [80]
00000000: f585 dfc1 e27c 2c46 5f26 0cc2 90bc bf44
00000010: c50b a644 0ac5 8d44 d908 5bc2 a4f4 3bc2
00000020: ce3e c0c1 25c8 24c2 fc23 afc2 b4ca d9c1
00000030: bb4e fdc1 732a b5c2 06ef c6c2 0afd 1bc2
00000040: af6e fec1 6392 9045 e309 5944 85f9 49c2
00000050: 5152 7844 fb5e 8fc2 2076 31c2 c2aa 0146
00000060: d4c9 2a44 29f7 97c2 e395 5dc2 214a 6ac2
00000070: 929e a544 467c e4c1 8dcc c745 0209 35c2
00000080: 92a5 69c2 13aa c6c2 bbc6 0cc2 2573 6544
00000090: bd78 59c2 8bf8 91c2 5261 e043 10d4 9dc2
000000a0: b7c7 9844 455e f542 5f67 fbc1 89c6 7945
000000b0: a293 cdc2 2f0d e245 09f7 93c2 4fe2 e845
000000c0: 88b8 1545 3a5c dd44 6e6e cfc1 e477 95c2
000000d0: c5fb 67c2 3325 a2c2 f6d4 5f44 f4fd 44c2
000000e0: 795a efc1 56a0 0045 8265 66c2 aadd f645
000000f0: 15b9 1744 0921 6fc2 89dc 02c3 6758 a045
00000100: 68db f144 f2f4 ef45 b919 3146 3f6f b4c1
00000110: 02a8 7144 c724 4244 a8e7 de43 dbf4 9242
00000120: 655e 3944 b6fe 53c2 71fa 2744 32a2 2246
00000130: ee22 3244 9fbd 3744 6f12 f343 2e53 80c2
-27.940409 11039.221 -35.03747 1533.8926 1328.3678 1134.1575 -54.75864 -46.988907
-24.030666 -41.195454 -87.57028 -27.223976 -31.663443 -90.58291 -99.46684 -38.99711
-31.804045 4626.2983 868.1545 -50.49367 993.2862 -71.68551 -44.365356 8298.689
683.15356 -75.982735 -55.396374 -58.57239 1324.9553 -28.56068 6393.569 -45.258797
-58.41169 -99.33218 -35.194073 917.79913 -54.36791 -72.985435 448.7603 -78.914185
1222.2411 122.68412 -31.425474 3996.4084 -102.788345 7233.648 -73.98249 7452.2886
2395.5332 1770.8821 -25.92892 -74.73416 -57.99587 -81.072655 895.3275 -49.248
-29.919176 2058.021 -57.59913 7899.708 606.8919 -59.78226 -130.86147 5131.0503
1934.8564 7678.618 11334.431 -22.55432 966.6251 776.57465 445.8098 73.47823
741.4749 -52.99874 671.91315 10408.549 712.5458 734.9628 486.144 -64.16246

3.running_var f4 [80]
00000000: bc82 0144 cfce fe49 3958 0942 e93f c948
00000010: 6430 9949 5682 a948 cc7e 1f44 e622 8342
00000020: 1288 5141 9b81 2143 68c1 4843 1d4c f846
00000030: 5eb0 1f41 d09d 8542 3a37 d043 7813 b541
00000040: bf7c 4142 31ea b949 7a68 9249 88ad d842
00000050: 898a 3f4a cf4c 3c43 4529 e442 985f a04a
00000060: 4f39 ab48 8edb 2043 5b5a 2643 a002 0e43
00000070: 03aa 004a 4857 3143 c919 a64a 6abd 3e44
00000080: d3ef 3743 4287 0b43 bbc6 e341 ce41 3148
00000090: ee9c 0543 3a81 e743 3ce9 ae48 9959 1343
000000a0: 2249 2649 4878 1949 e6b4 9c41 bb4e 144a
000000b0: 3cc8 0343 3d88 084a e14c b640 1853 c049
000000c0: 6c17 7148 c37c 4749 7996 dc41 09b3 3741
000000d0: 82ab f742 ba56 8143 8c7d 7949 791d fd42
000000e0: 1cbb c641 bb02 f549 e83c 2641 3995 ed47
000000f0: 895d f848 7132 4242 9876 4a44 6b87 ad49
00000100: 40a9 ef49 a726 1d4a af93 334a 42cf d941
00000110: 5f73 7c49 8b68 0a49 8750 294a 3593 2c48
00000120: 1e36 ff48 d03d 3f42 2a71 1149 3ac5 da4a
00000130: bb64 ee48 d931 9e49 b4d9 4b48 68c3 3443
518.0427 2.0873859e+06 34.336155 412159.28 1.2549245e+06 347154.7 637.9812 65.56816
13.09572 161.50627 200.7555 31782.057 9.980558 66.80823 416.43146 22.634506
48.371822 1.5230141e+06 1.1993752e+06 108.33893 3.1382102e+06 188.30003 114.080605 5.255116e+06
350666.47 160.85764 166.35295 142.01025 2.1080328e+06 177.34094 5.4427885e+06 762.9596
183.93681 139.52835 28.472036 181511.22 133.613 463.00958 358217.88 147.34999
681106.1 628612.5 19.58833 2.4298708e+06 131.78217 2.2369432e+06 5.6968846 1.575523e+06
246877.69 817100.2 27.573473 11.48121 123.83498 258.67755 1.02191275e+06 126.55756
24.841362 2.0071274e+06 10.38987 121642.445 508652.28 48.54926 809.853 1.4215494e+06
1.963304e+06 2.5747618e+06 2.9421878e+06 27.2262 1.03403794e+06 566920.7 2.7740498e+06 176716.83
522672.94 47.810364 595730.6 7.168669e+06 488229.84 1.2959311e+06 208742.81 180.7633

4.weight f4 [50, 80]
00000000: 31ed 8d3f 7fe6 9bbe 0bda d23f 522f 0641
00000010: eabe 3b40 5d1e 38be dae7 96bf 1fe5 3640
00000020: c355 4dc0 9e67 f23e 1cfc 32c0 717d 9a40
00000030: ee83 40bf a3d9 9abc a9b2 11bf fb93 b240
00000040: cb40 af40 e905 063f deb3 e6c0 80c5 4340
00000050: 5503 d9be 1a8e 25bf e2a1 c1c0 d6d8 3dbf
00000060: 0bf7 1640 d5d1 10bf e4fd 59bd f4fe 463f
00000070: ba10 06c1 dc8e 053f 655e adbf 1986 eabd
00000080: e193 86be 6cb9 073f 98c3 d53f 8770 74bf
00000090: 2f2c 613f eea7 183f 3a8e 3740 c052 1cbf
000000a0: 4dc9 753f 42d2 a73e 2a5e 96bf 8e70 f73e
000000b0: 9ba0 22bf 17c8 2dbf a871 47bf 7c17 11bf
000000c0: 042d e4bd 7df3 f7bf 9e24 babe 6d5b 5240
000000d0: 5b37 0fbf fd78 6bbe d8f6 3140 2920 6fc0
000000e0: 5ebe 923f c811 7240 869f 6940 7e1e bc3f
000000f0: d301 2041 ba9b c540 ae7f 503f 8040 f1bf
00000100: e97c 4dbf 1380 d3bd 9f29 8bbd a954 7841
00000110: b207 0cc0 b89f d7bf 0cfd 1840 79e3 663e
00000120: f5b4 233f fa30 8cbf 38cb f240 36af 283e
00000130: 8602 80be 2c8b 513f c3e6 84c0 54eb 403f
00000140: d1c8 49bd 54d7 813f fa9c ca3f d851 37c0
00000150: 2875 5cbe 82b1 51c0 b6fc 083e 4851 ffc0
00000160: e58d 8740 f178 5dbd 52fe d5be b6c2 2d40
00000170: b934 3840 f764 df40 7378 f9be 9d32 82c0
00000180: fc39 1dc0 c23b a4bf 6e41 5b40 4418 b33e
00000190: 8287 80c0 27c0 8d3e fed9 37c0 d8c4 aabd
000001a0: 70d8 f540 2450 8d3f 5973 973f 2cfd bfbf
000001b0: 943b 7ebf ed80 5dbf 42b8 ad3e 9150 d0be
000001c0: a49e 59bf f53c 3b3f 5c91 463e 9bc7 c240
000001d0: 49d9 c83e 3f32 773f eb8f 22c0 be4a 2abe
000001e0: e6c3 0cc0 07af e3bd f6b9 4a40 ac2c 7c3f
000001f0: 690c 723f 6d8e 1040 947c f3c0 1ba2 d83d
00000200: 6f52 2340 2ff7 2840 fa59 b8c0 24a7 38c0
00000210: 29e8 d6ba c962 adbf e5da c3bf c2ad 8b40
00000220: e919 7ec0 76e4 77c0 9ad7 95bf 0d54 34c0
00000230: cee3 2ec1 5ce4 e940 20f4 72bf e19e b540
00000240: d0e0 b8bf bf04 a9bf fb14 923f fa6b ec3e
00000250: 696a ba3f b26e 7b3e 2d21 a540 d5d0 2ebe
00000260: bd51 8a3f dc3d 873f b796 bfbf a820 fe3e
00000270: a411 0fc0 6b59 43c0 7cb3 84c0 446f c5bf
00000280: 3a24 7cbf c488 fc3f e49a 813f 0d5e d93f
00000290: 3d98 09c1 3763 a83f ad7b cf3e 5f55 8cc0
000002a0: 4ef8 1dc1 32ff bf3f e1db c8bf 3d70 6bc0
000002b0: 2455 cd40 cd0b 7140 dbbb ccbf c720 0fc0
000002c0: fa6b 1040 6241 943e a105 cabe 9402 0bbe
000002d0: 4360 f63f 6724 90bf e9a8 2040 0dbe e7be
000002e0: 326f 2a3f dd52 31bf e417 8a3f 1131 55bf
000002f0: 87ee 363f b090 c53d 419c f73e d34f 72be
00000300: 8be1 22bf 8c98 083f 75df a1c0 c0d3 9240
00000310: 6012 93bf 18e7 73be c190 d53f 2597 adbe
00000320: 4efb bcbf 0640 333f a588 6b40 6d5d 9e3d
00000330: 203e 51bf ef3b 3140 1fef dfc0 a8b8 6cbd
00000340: 92e4 24c0 7ecd 60c0 6fa4 03c1 89ad 80c0
00000350: bdf5 973d a596 c3be 4e4d fac0 5cfd 2440
00000360: 076c 443f ca54 a9bf 904b 49c0 4cb1 4d40
00000370: 2713 843f 5bc2 a8be 7c85 53bf 88b8 f93f
00000380: dab1 31c0 f467 84bf a509 f93e 1e73 8f40
00000390: 465f ec3e 040b 2e40 74e2 5140 ae6b 6c3f
000003a0: 9f1b 7c40 655b 25c1 0fbc 873b d386 243f
000003b0: d0d8 9d3f a63f 6dbf 54ff 19c0 062f d53e
000003c0: 7cee 21c0 68dc 0340 ea6e c73f 7319 bcbf
000003d0: 5913 9340 2f2d aabe 39a0 79be ed65 263f
000003e0: 8a48 3940 22a4 843e 5e4f 52bf 6a6d 933f
000003f0: b000 383f bbea e6c0 4012 b2bf 9373 fa40
1.108801 -0.30449292 1.6472791 8.386553 2.9335275 -0.17980333 -1.1789505 2.8577344
-3.2083595 0.4734468 -2.7966375 4.8278127 -0.7520131 -0.018902605 -0.5691324 5.580564
5.4766593 0.5235277 -7.2094564 3.0589294 -0.42385355 -0.64669955 -6.051011 -0.7415899
2.3588283 -0.5657018 -0.053220645 0.7773278 -8.379084 0.5217111 -1.3544432 -0.11451358
-0.26284698 0.53017306 1.6700315 -0.95484203 0.87958044 0.5963124 2.8680558 -0.61063766
0.96010286 0.327776 -1.1747487 0.4832806 -0.63526314 -0.6788344 -0.779078 -0.5667646
-0.111413985 -1.9371182 -0.36356062 3.2868302 -0.5594384 -0.22995372 2.7806911 -3.736338
1.1464345 3.7823353 3.6503615 1.4696805 10.000445 6.1752596 0.81444824 -1.8847809
-0.8026872 -0.103271626 -0.06795048 15.520669 -2.1879697 -1.6845617 2.3904448 0.22547711
0.63947994 -1.0952446 7.587307 0.16473088 -0.25001925 0.81852984 -4.153169 0.7535908
-0.04926378 1.0143838 1.5829155 -2.8643703 -0.21529067 -3.2764592 0.13377652 -7.978672
4.236071 -0.054070417 -0.41795594 2.7150092 2.878218 6.981075 -0.48724708 -4.0686784
-2.456664 -1.2830737 3.4258685 0.3497945 -4.0165415 0.27685663 -2.8726802 -0.08338326
7.6826706 1.1040082 1.1832076 -1.4999137 -0.9930966 -0.8652485 0.3392964 -0.40686467
-0.8500769 0.7313989 0.19391388 6.086866 0.39228275 0.96561044 -2.540034 -0.16630074
-2.1994567 -0.11117368 3.1676002 0.98505664 0.94550186 2.258693 -7.6089573 0.10577794
2.5519063 2.640087 -5.7609835 -2.8852015 -0.0016396093 -1.3545772 -1.5301176 4.3649607
-3.9703314 -3.8733191 -1.1706421 -2.81763 -10.930616 7.309126 -0.94903755 5.6756444
-1.4443607 -1.3204573 1.1412653 0.4617613 1.4563724 0.24553946 5.1603 -0.1707185
1.0806195 1.0565753 -1.496787 0.4963429 -2.2354517 -3.0523326 -4.1469097 -1.542458
-0.9849278 1.9729238 1.0125394 1.6981827 -8.599668 1.3155278 0.40524045 -4.3854213
-9.873121 1.4999754 -1.5692102 -3.6787255 6.416643 3.7663453 -1.5994829 -2.2363756
2.2565904 0.28956133 -0.3945742 -0.13575202 1.9248127 -1.1261109 2.5103095 -0.45262185
0.6657592 -0.69267064 1.0788541 -0.83277994 0.71457714 0.096467376 0.483614 -0.23663263
-0.636254 0.5335777 -5.0585275 4.5883484 -1.1489983 -0.23818624 1.66848 -0.33904377
-1.4764192 0.70019567 3.6802151 0.07732663 -0.8173542 2.769283 -6.9979396 -0.05779329
-2.5764508 -3.5125422 -8.227645 -4.0211835 0.07419918 -0.3820087 -7.8219366 2.5779638
0.76727337 -1.3229 -3.145237 3.2139463 1.0318345 -0.3296078 -0.82625556 1.950944
-2.7764802 -1.0344224 0.4864017 4.4828024 0.46166438 2.7194223 3.2794466 0.92351806
3.9391859 -10.334813 0.0041422914 0.64268225 1.2331791 -0.92675245 -2.406209 0.4163744
-2.530181 2.0603275 1.5580723 -1.4695266 4.596112 -0.33237597 -0.24377526 0.64999276
2.8950524 0.25906473 -0.82152355 1.1517766 0.7187605 -7.2161536 -1.391182 7.826608

4.bias f4 [50]
00000000: 640b 1440 91a6 69bf afd7 91c0 7a6c eb3f
00000010: f72f 1041 eec6 9741 55db efbf 0249 8140
00000020: 86e2 763f dc33 0d40 da27 8cc0 e529 41c0
00000030: 12cd a741 8446 03c1 5f09 83bf 6c6a 4ec0
00000040: f79a 8bbf 426f 12c0 9887 c93f e5b3 1d3f
00000050: 5bb2 9840 b0d0 9ac0 fd50 5a40 219c 6ec0
00000060: 45af f43f 8077 19c0 1be1 0dc0 dafc d03d
00000070: 1414 4f3f f8cb b5c0 4aee bbbf 29d1 57c0
00000080: a5ee 8040 aace a5c0 36e9 00c1 1ca7 85bf
00000090: c19d dc3f c890 03bd 43ec b440 45b0 18bf
000000a0: 4d4a a440 e9b4 51c0 da5f dabf 09a9 a13e
000000b0: 96f7 f1bf 20bd 1540 f822 a53f f681 e5bf
000000c0: 7182 7fbf ec64 8142
2.3131952 -0.91269785 -4.5575786 1.839248 9.01171 18.972134 -1.873881 4.040162
0.964394 2.2062902 -4.3798647 -3.018182 20.975132 -8.204716 -1.0237235 -3.2252455
-1.0906667 -2.2880406 1.5744505 0.6160262 4.771772 -4.8379745 3.4111931 -3.7282794
1.9115988 -2.3979187 -2.2168643 0.102044776 0.8089001 -5.6811485 -1.4682095 -3.3721411
4.0291314 -5.1814775 -8.056936 -1.0441623 1.7235643 -0.032120496 5.6538405 -0.59643966
5.13407 -3.2766669 -1.7060502 0.31574276 -1.8903682 2.3396683 1.2901297 -1.7930286
-0.9980841 64.69711

7.weight f4 [50]
00000000: bd3a 5740 1012 3640 60ec 0240 b9ab 5040
00000010: 9e76 b43f 6018 0c41 6527 0ebf 35c5 8e40
00000020: 6e6e 9540 91d2 9c40 c13e 8c40 8977 1ec0
00000030: e931 0941 3d9f 8e40 a3b9 a940 1a9b 3d40
00000040: 59fa 3940 d393 0b40 7df8 9b40 a560 f540
00000050: 37bf 8c40 e9a5 eebd 0ca0 bf40 2f82 2940
00000060: 11d8 d540 74b8 5440 d358 5c40 0b50 d740
00000070: 8b60 8240 2a67 c23d 1d92 ac40 6f42 7540
00000080: 4ee9 a640 dba2 aabf c7bd be40 2e75 6640
00000090: dc3a 6040 6931 2d40 5b95 c640 93e9 1f40
000000a0: be52 7d40 4c21 1840 3bb4 7040 d3fd 8640
000000b0: 96dc 0cc0 f56f 7840 bde2 8140 c532 8e40
000000c0: 72f7 2d40 d733 0d41
3.36296 2.8448524 2.0456772 3.260481 1.4098699 8.755951 -0.5552886 4.461573
4.66973 4.900704 4.3826604 -2.4760458 8.574685 4.4569383 5.3039107 2.9625916
2.905905 2.1808975 4.874083 7.6680474 4.3983417 -0.116527386 5.988287 2.6485708
6.6826253 3.3237581 3.4429214 6.728521 4.074285 0.09492333 5.392836 3.8321798
5.2159796 -1.333095 5.960666 3.600902 3.5035925 2.7061408 6.205732 2.4986312
3.9581752 2.3770323 3.7610004 4.2184844 -2.2009635 3.8818333 4.058928 4.4436975
2.7182279 8.825156

7.bias f4 [50]
00000000: 8e4a 0fc0 4960 f43f 3ad9 a6bf f26c 8fbf
00000010: 4180 453e 7fd9 36c0 acfb 6bbe 5f14 f540
00000020: 82b6 013f 0f6c 7fbf ea72 f33f fda7 a03f
00000030: a9e7 d9be 50b7 26c0 da1e 0640 ca33 eabf
00000040: 067e c13f cabd 763f 0f0a eb40 ccf0 103f
00000050: 9c42 83bf 724d 3dbd d72e 503f 819d a6be
00000060: 9572 3940 4872 56be 74b2 b53e 85eb d83f
00000070: edc9 9ebf 60c0 58bb eff8 1840 74b5 ea3e
00000080: 3770 dbbe 1b75 0c3f 3eb2 8440 1ae5 16c0
00000090: 76e6 3dbf 42ee 2b40 0fdb 25bf dbe4 0040
000000a0: 74f9 dfbe b087 f3bf 8f46 1140 d0b6 7dbf
000000b0: 43a8 91bf 451b 48be f49f db3e d54b da3f
000000c0: 2a1a bf3e c757 0d40
-2.2389255 1.9091884 -1.3035042 -1.1205122 0.19287206 -2.857025 -0.23045224 7.6587367
0.5066911 -0.9977426 1.9019444 1.2551266 -0.42559555 -2.6049385 2.095633 -1.8297055
1.5116584 0.96383345 7.344978 0.56617427 -1.0254703 -0.046216436 0.8132147 -0.3254204
2.8976185 -0.20942032 0.3548771 1.6946875 -1.2405373 -0.0033073649 2.3901937 0.45841563
-0.4285905 0.5486619 4.146758 -2.3577332 -0.7417978 2.686417 -0.6478738 2.0139682
-0.43745005 -1.9025784 2.2699316 -0.99107075 -1.1379474 -0.19541653 0.42895472 1.7054392
0.3732465 2.2084825

7.running_mean f4 [50]
00000000: 1d96 8742 de36 4d42 057f cc41 74aa 2742
00000010: bf9f 8943 1d88 2b44 3a2b 0342 cd96 3143
00000020: fb52 c042 9d05 9142 312f 7642 d933 7142
00000030: 2102 d043 d879 cf41 7d58 ab42 906f e541
00000040: eede 5b42 6ff9 e241 9efa dc42 9ee2 9642
00000050: 8e6e 1043 009f 2841 c31a 3643 bc4e 0742
00000060: abad 0643 64ba 5742 b580 6942 bd4c ad42
00000070: 0835 a142 8d79 ea3f f0e3 9e42 7419 4642
00000080: d647 5e43 6914 bc40 6039 c842 3290 8d42
00000090: fa34 7242 327f 9042 8895 aa43 b923 0c42
000000a0: 1798 9e43 d1bb 8542 1efc 7542 b18b b542
000000b0: b39e db41 0b07 e542 087b 8342 3841 3542
000000c0: 79be 2c42 0efe 0044
67.79319 51.30358 25.562021 41.91646 275.24802 686.1268 32.792213 177.58907
96.16207 72.51096 61.546085 60.300632 416.01663 25.934494 85.67283 28.679474
54.967705 28.371794 110.48949 75.44261 144.43185 10.538818 182.10454 33.82689
134.67839 53.932022 58.37569 86.64988 80.60358 1.8318344 79.44519 49.524857
222.28061 5.8774915 100.11206 70.78163 60.551735 72.24843 341.1682 35.034885
317.1882 66.86683 61.49621 90.772835 27.45249 114.513756 65.740295 45.31369
43.18601 515.9696

7.running_var f4 [50]
00000000: 9e47 3746 5928 e445 0e79 3345 d822 a345
00000010: ae5a cd46 9f83 4147 5dd1 9d45 ceaf 1647
00000020: c358 7a46 6efb 4146 2968 2846 51a1 1346
00000030: 1e6f 5647 ad21 3f45 4352 7546 cad7 8645
00000040: 44a6 0f46 fff2 7c45 1bc5 e846 c135 7a46
00000050: ab5c 8c46 f0f0 0145 188e a346 2401 d445
00000060: 31a7 8146 b12e 0446 b94a bd45 0bcb 9346
00000070: edb3 4546 0492 b043 2901 5746 97e0 0346
00000080: 8a0b 6d47 7816 7544 02f2 7946 3176 2246
00000090: 88ec ec45 1a66 3546 0505 fd46 6a74 8245
000000a0: 4f82 2147 7476 2146 1c7e e045 c388 9046
000000b0: 0625 8145 8efe 5c46 e26e 0746 ce33 2546
000000c0: e48e b945 d539 a847
11729.904 7301.0435 2871.566 5220.3555 26285.34 49539.62 5050.1704 38575.805
16022.19 12414.857 10778.04 9448.329 54895.117 3058.1047 15700.565 4314.9736
9193.566 4047.1873 29794.553 16013.438 17966.334 2079.0586 20935.047 6784.1426
16595.596 8459.673 6057.3403 18917.521 12652.981 353.14075 13760.29 8440.147
60683.54 980.3511 15996.502 10397.548 7581.5664 11609.525 32386.51 4174.552
41346.31 10333.613 7183.7637 18500.38 4132.628 14143.639 8667.721 10572.951
5937.8613 86131.664

8.weight f4 [20, 50]
00000000: d713 3140 264f 02c0 6fab 4340 6011 a039
00000010: 062e 2240 9b7e 9e3f c2c8 4c3f 9230 2040
00000020: 4349 3640 6061 773d f5df e5c0 f9d1 8bbf
00000030: f98b de3f c865 74bf fb97 a8bf a255 c83f
00000040: 7ed8 8b3e 19bf 86bf 6ed1 3fbe 9759 1541
00000050: 4dfd 9440 3c32 f83d 19fe 25be 38ac 3dbf
00000060: 7edd f03f e59c 2040 cf14 cabf 397b 4440
00000070: dd42 b2bf c7b1 e13c e700 9cc0 952e 30bf
00000080: 79df 69be 8244 c2bf 1543 4241 e0b5 8abf
00000090: 4369 4040 4553 3340 2fd4 b240 cc65 803f
000000a0: e3ff 8f40 21d8 5540 f6dd 34bf ba87 1fc0
000000b0: 4d7c a7c0 1cfe c040 56e7 e740 d53b 0641
000000c0: 8c5f c33e 4667 ffbe 58a8 4c3c 638b acc0
000000d0: 416e aa40 fdb2 83c0 ddbf 9340 f30b 39c0
000000e0: 7aab 60bf 77e2 d2c0 d62e 823f 36eb 2140
000000f0: e2ff 56c0 2da7 11c0 c741 23c0 b4dd fcbf
00000100: f75e 40c0 3564 62c0 d8a0 0a40 cfca aec0
00000110: 1585 c2c0 435a b0bf e07d c340 ae2d bcbe
00000120: a8aa 0d40 0046 36c0 fc29 f6bf 0b2c 1b41
00000130: bd5c aac0 a912 9740 523e ddc0 476f ad3e
00000140: 405d eabf a0ad a1c0 1859 03bf e43c abbe
00000150: fef4 9e40 5a87 8dc0 7950 d340 f835 38bf
00000160: bbae 4d40 e30f 2340 aac8 cd3f f460 e7bf
00000170: 6617 fd3f 986b 87bf 3e4c babf 7d2b 6640
00000180: 4112 14c1 ec98 a53e 9ea2 c5c0 e65b debf
00000190: d464 6640 2ba6 5b40 0ebc 123f a09c 92c0
000001a0: ffa3 673f 2557 e8c0 2ce9 533f c6ac 21c0
000001b0: 51d2 0dbf 7207 1c40 e6fc d740 56be b9be
000001c0: 4d97 df3f 8a85 68c1 fb5d 1441 38f0 56c0
000001d0: f35a b1bf 4adf 6bc0 02cb afc0 e916 d4bf
000001e0: 7223 cdc0 3803 ef3e f973 97c0 5009 6fbf
000001f0: 823a a1bf 3f89 3ebf 444a cfbf 9077 f2bf
00000200: 5e69 8fbe 473a e3be ab22 86be bad7 5240
00000210: 6281 7b40 0519 10bd 054f bfbf 87e6 45c0
00000220: 4f89 7fbf b750 b340 f61b 0cc1 e97c 06c0
00000230: 4d50 1dc1 4c33 c440 b49f c6bf c6e3 1dbc
00000240: 78eb cbbf 459d 9ac0 12d7 f6bf 4d7c 1c3f
00000250: bcca b5bf b178 e8bf 2b8e 5740 efd6 1240
00000260: 4d41 a8bf 1afe f3bf 05a0 12be 9d79 3fbf
00000270: e89f e3be 95b0 38bf afcf e2bf fdad 8441
00000280: f72c 91be 34bd eb40 867c 0f3f 10db 4cc0
00000290: e925 78c0 e791 e040 4fca c8bf 0e45 8b40
000002a0: ce23 3bc0 a830 7fbe 1738 8c3e 64e8 0bbd
000002b0: 60e4 5ec1 00ea 383f 7a29 dbbf b66b 023f
000002c0: f475 6640 9dd6 7c40 c830 85c0 d9c5 3e3e
000002d0: 31b1 bd3f fa7e 3dbe 0375 7ebf 02df ce3f
000002e0: 7d03 febf 335c 2d40 6acd 7d3f 2f4a 3040
000002f0: 201b 68c0 ca18 1c40 485b 4440 024b e3c0
00000300: 2188 b740 6c20 dd40 a4a4 afbf 4513 d8bf
00000310: 5cf0 1c3f 3dfb da3f a93c 6cbf d5ad 5a40
00000320: 66f9 2040 be42 b7bf e8a8 9ec0 73a5 0240
00000330: c1b9 a140 83e1 8fbe 918f e6be d0ca 9c3f
00000340: 8bf3 a240 3919 b440 acd8 0040 7c55 583e
00000350: b6ce 7dc0 71c7 a6bf 4fc2 ba3f 79f0 bfbf
00000360: 9020 50c0 08a0 f33f 58e4 b73e 5a0f 19c0
00000370: baf0 db3f 9586 593e dae5 43be fe86 de40
00000380: b7fe 7dc0 2e6a 76c0 1306 d740 9be6 303f
00000390: ae6c 91c1 796d cb3e aeaf 8640 3c85 d03e
000003a0: e670 b3bf 2f02 6a3f 3a10 043f 836a 7b40
000003b0: 13fc 9c40 ea54 2840 1513 f9c0 e571 1240
000003c0: 30ea be3c 34b6 c33f e537 3d40 a9a2 99bf
000003d0: 1b9f c73f 26bc 65bd 84e8 813e f27b aa40
000003e0: 561e adc0 d648 f6c0 7f0c c940 1cc7 48c0
000003f0: 3feb b73f 5f3e e43d cc2e 553f 7001 7ec0
2.766836 -2.0360808 3.0573385 0.00030530524 2.534059 1.2382387 0.7999383 2.5029645
2.8482215 0.0603956 -7.1835885 -1.0923454 1.7386466 -0.95467806 -1.3171381 1.5651133
0.27313608 -1.0527068 -0.18732235 9.3343725 4.6559205 0.121189564 -0.16210212 -0.7409091
1.8817594 2.509576 -1.57876 3.070021 -1.3926655 0.027550591 -4.87511 -0.6882108
-0.22839154 -1.5177157 12.141377 -1.0836754 3.0064247 2.8019574 5.5884013 1.0031066
4.499986 3.3413165 -0.70651186 -2.492659 -5.2339234 6.031019 7.2469893 8.389607
0.38158834 -0.4988348 0.012491308 -5.392015 5.3259587 -4.115599 4.617171 -2.8913543
-0.8776165 -6.5901446 1.0170543 2.5299811 -3.3593678 -2.2758286 -2.5508897 -1.9755158
-3.0057962 -3.5373662 2.1660671 -5.462257 -6.0787454 -1.3777546 6.1091156 -0.367536
2.213541 -2.8480225 -1.9231563 9.698253 -5.3238206 4.721028 -6.9138575 0.3387396
-1.8309708 -5.0524445 -0.5130782 -0.33444893 4.9674063 -4.4227724 6.6035733 -0.7195735
3.2137897 2.5478446 1.6076863 -1.8076463 1.9772766 -1.057971 -1.4554517 3.5964043
-9.2544565 0.32343233 -6.1761007 -1.7371795 3.599904 3.432017 0.573182 -4.5816193
0.90484613 -7.2606378 0.8277767 -2.5261703 -0.5539904 2.4379544 6.7496214 -0.36278027
1.7468048 -14.532602 9.272944 -3.3584118 -1.385588 -3.6855035 -5.493531 -1.6569492
-6.410577 0.46682143 -4.732907 -0.93373585 -1.259598 -0.7442817 -1.6194539 -1.8942738
-0.28010076 -0.443804 -0.26198325 3.294417 3.929772 -0.03518011 -1.494599 -3.0921953
-0.9981889 5.603603 -8.756826 -2.101374 -9.832105 6.131262 -1.5517488 -0.009636825
-1.5931234 -4.831698 -1.9284384 0.6112717 -1.4202495 -1.8161832 3.3680522 2.2943685
-1.3144928 -1.9061921 -0.14318855 -0.7479494 -0.44457936 -0.7214444 -1.771963 16.584955
-0.28354618 7.366846 0.5604938 -3.2008705 -3.8773139 7.0178103 -1.568674 4.3521795
-2.9240603 -0.24920905 0.27386543 -0.03415717 -13.930756 0.72232056 -1.7122033 0.50945604
3.6009493 3.950599 -4.1622047 0.1863016 1.48197 -0.18505469 -0.99397296 1.6161807
-1.9844815 2.7087524 0.9914156 2.7545278 -3.6266556 2.439013 3.0680714 -7.102906
5.7353673 6.9102077 -1.3722119 -1.688088 0.6130426 1.7107922 -0.9228006 3.4168599
2.515222 -1.4317243 -4.9581184 2.0413482 5.053925 -0.2810174 -0.45031407 1.2249393
5.0922294 5.628079 2.0132246 0.2112636 -3.9657416 -1.3029615 1.4590548 -1.4995261
-3.2519875 1.9033213 0.359164 -2.391562 1.7182839 0.21242745 -0.1913065 6.9539785
-3.9686716 -3.8502307 6.7194915 0.69101876 -18.178066 0.39731959 4.2089453 0.4072665
-1.4018829 0.9140958 0.5158726 3.928376 4.905771 2.6301827 -7.7835793 2.2882016
0.023305029 1.5289979 2.9565365 -1.2002765 1.559543 -0.056087635 0.25372708 5.32763
-5.409953 -7.696391 6.2827754 -3.1371527 1.4368666 0.11144709 0.8327453 -3.9688377

8.bias f4 [20]
00000000: b99d a6be dafb af40 025c fc3f c761 2dbe
00000010: bf10 1740 7ac2 0fc0 e2b0 0341 c24b 943f
00000020: fe69 24bf 0d06 dbbb be85 af3f d0b6 13c0
00000030: a4ce 2442 6772 ee3f 8d90 fa3e 1543 f43f
00000040: 1fe3 1a40 f8b8 7840 480a a6bf 59ae 86c0
-0.32542208 5.4994936 1.9715579 -0.1693183 2.360397 -2.246245 8.230684 1.158562
-0.6422423 -0.006684071 1.371269 -2.308033 41.201797 1.8628663 0.48938408 1.9082972
2.4201124 3.8862896 -1.2971888 -4.2087827

11.weight f4 [20]
00000000: bd6a a33f 8ed7 343f 2c51 8e3f a51d c73f
00000010: 4366 c63f 66c6 f63c ecb8 603f 36d3 aa3f
00000020: 7503 a03f e165 9f3f e9c7 8f3f fd1d 803f
00000030: 77c4 ac3f 0d79 c03f 8033 733f 23a6 583f
00000040: e3a9 8a3f 640a 853f e5f2 87bf 9b63 933f
1.2766949 0.7064141 1.1118522 1.5555922 1.5499958 0.0301239 0.8778217 1.3345706
1.2501055 1.2452966 1.1232883 1.0009152 1.3497456 1.5036942 0.9500046 0.84628505
1.0833095 1.0393796 -1.0621 1.1514772

11.bias f4 [20]
00000000: 8656 9dbf f68e af3d 331a a13f 1c16 bd3e
00000010: 4d9a 20be 3a36 d53c 89aa 3f40 4ec8 0dbf
00000020: 2a03 eebd 245c 4d3d ac58 8dbd 4111 083e
00000030: d972 4740 29ce 6ebe 7a89 3ac0 6786 2b40
00000040: ccf2 333d 57ce 0e40 63b1 183c ea29 9d3c
-1.229203 0.085721895 1.258612 0.3693093 -0.15683861 0.026026834 2.9947836 -0.55383766
-0.11621697 0.0501367 -0.069016784 0.13287832 3.1163847 -0.23320831 -2.914641 2.6800783
0.04393272 2.231344 0.009319636 0.019185025

11.running_mean f4 [20]
00000000: d830 e542 0361 0642 131f ad42 02c3 cf42
00000010: 91a3 bb42 3886 6140 b11b 8c43 5ad3 b342
00000020: 920a a642 db09 a042 bfc5 bf42 1512 cf41
00000030: 7b15 e443 f851 d042 9404 1443 b56d f142
00000040: 9a5f ad42 399f de42 d09e cc41 a6d0 1342
114.5954 33.594738 86.56069 103.880875 93.819466 3.523817 280.21634 89.912796
83.020645 80.01925 95.88622 25.88383 456.16782 104.160095 148.01788 120.71427
86.68672 111.31098 25.577545 36.95376

11.running_var f4 [20]
00000000: 7501 a546 4c6f 3b45 f74c 3a46 9b01 d246
00000010: 0db4 2146 b9d1 0844 cb5c 8547 083e 3e46
00000020: 40a6 f545 7d28 e545 e579 5646 3a9d 0745
00000030: 20e8 a747 931c 3746 19eb 1947 07eb c146
00000040: 66da 6146 f144 e246 32c4 1745 71fb 6b45
21120.729 2998.956 11923.241 26880.803 10349.013 547.2769 68281.586 12175.508
7860.7812 7333.061 13726.474 2169.8267 85968.25 11719.144 39403.098 24821.514
14454.6 28962.47 2428.2622 3775.715

12.weight f4 [1, 20]
00000000: 9bf6 67bf 0b06 eb3d b135 683f e9ea 103f
00000010: ae90 f2be fa8c 583d 3637 1840 f633 06bf
00000020: 128a a6be 56c3 ab3e 6dd9 8dbe d828 7e3e
00000030: 56ce 1a40 ff47 d6be a455 0ec0 18ca fe3f
00000040: 1d94 a23e 58c1 d23f 9581 ac3e bab3 cd3e
-0.90610665 0.11475762 0.90706927 0.56608444 -0.47376007 0.05286882 2.3783698 -0.52423036
-0.32527214 0.33547467 -0.27704945 0.24820268 2.4188437 -0.41851804 -2.223977 1.9905424
0.31753626 1.6465254 0.33692613 0.40176183
