main_app/deep_model_strength/torch_model_params.pkl (torch_old, 38419 bytes, 19 tensors)

0.weight f4 [80, 39]
-0.008488702 -0.12200178 -0.082038954 0.018062724 0.37736624 -1.1496944 0.018919822 0.03340438
-0.011247186 0.010990257 -0.018708799 0.24714255 -0.38429773 -0.14624234 -0.11554648 -0.30488524
0.37903348 2.4266396 -0.055425487 -0.013066299 -0.063774265 0.01891449 -0.16168378 2.5407935e-05
-0.08543265 0.6279578 0.44444898 -0.32061043 0.21573251 0.15402313 0.09284573 0.05462616
-0.07295993 -0.040123552 0.006440219 0.00347636 -0.05956484 -0.41337174 0.1964314 0.87965655
1.2529608 -0.062099583 -0.16788103 -0.052508138 0.7804617 -0.05817892 -0.07418311 -0.04792823
0.07817487 0.059300818 -0.8373764 0.062907696 0.11704141 -0.87641156 1.2226475 -0.9445264
-2.5008695 0.2863737 -0.13430479 0.0037538512 0.5388682 -0.09725431 -0.14245531 -0.082711846
0.5268487 0.20466171 -1.4147117 0.26512456 -1.0450311 -0.02742384 -0.065286934 -0.33992296
0.025801515 -0.28557926 0.0011152871 0.03607621 -0.3183309 0.113565505 0.20474666 -0.43095517
0.9861911 -0.39446828 -0.2261486 0.2444658 -0.0761864 0.16609503 -0.002379801 -0.14608659
0.020215582 0.06415148 -0.64215916 0.51504356 0.23368026 1.3908609 -0.7957084 -1.4707947
0.23411252 -0.10420207 0.16859663 -0.20644733 0.020755908 -0.072844625 0.13083313 0.2868411
-0.5512396 -1.1506169 0.17449676 -0.44793028 0.015160499 -0.069244556 0.7042613 -0.106113054
0.025277898 0.032822195 0.19769248 -0.5204596 -0.2069924 0.6447672 -0.34018007 0.7769254
-0.11821735 -0.18566698 -0.598471 -0.2277577 0.5582045 0.16085531 0.0034821946 -0.09513113
-0.021913176 0.05609228 0.30614865 -0.23414811 -0.005375693 -0.17274867 -0.8246264 -0.6264167
-0.10138313 0.0319872 0.5935415 -0.0027929605 0.22423407 -0.049600374 0.8270893 1.443127
0.053356476 0.59718645 -1.5321709 -0.085001424 -0.13756129 -0.0009015964 -0.020546587 -0.1888047
-0.13929711 0.25998133 0.38634044 -0.124659605 0.15202518 -0.80299664 -2.9166543 0.09991616
0.19858707 -0.53707033 0.012727875 -0.005216049 -0.0019017917 -0.03597285 -0.027551524 1.5666778
-0.85654575 -0.96102685 -0.8732982 -1.4060314 0.9314145 1.5148954 -0.30313706 -0.0034494495
0.15784182 -0.16397873 0.15830241 0.03409095 0.30772135 -0.08327566 -0.129192 -0.74197805
-0.09164964 0.18026784 -0.049172457 -0.00019572033 0.34093815 -0.110068545 -0.06998206 0.23133534
-0.22422303 0.11668921 0.046695556 -0.62193733 -0.79430854 -0.08514969 0.06300179 0.034997057
0.48592827 -0.17525734 -0.06962384 0.1498434 -0.23150876 -0.17913167 0.15896513 -0.18748118
-0.38247916 -1.5032963 0.51511586 -0.58811814 -1.472117 -0.15036514 0.100563504 0.2077127
0.5075789 -0.022335226 -0.027657652 0.06360951 0.9962354 0.699361 0.8366962 1.1807892
0.98757434 0.0077728317 -0.18934427 -2.111989 0.095654055 -0.23343284 -0.01562383 0.06670923
-0.8629492 -0.095853664 2.1121423 1.7089229 -3.4984174 0.24507411 -0.16309543 -0.2607972
0.37114224 0.079730675 -0.3565741 -0.42366078 0.3049678 -0.98884946 0.38347384 -1.0608578
0.14503923 0.032036994 -0.09731221 5.3253946 -0.24621321 -0.083321415 0.44564962 0.14237832
00000000: 3214 0bbc 12dc f9bd 0a04 a8bd 47f8 933c
00000010: 2636 c13e 3029 93bf befd 9a3c 08d3 083d
00000020: 1e46 38bc 7b10 343c 3243 99bc f012 7d3e
00000030: acc2 c4be 8dc0 15be a2a3 ecbd eb19 9cbe
00000040: ad10 c23e 104e 1b40 d605 63bd 0814 56bc
00000050: 159c 82bd 8ff2 9a3c 6f90 25be 2023 d537
00000060: 50f7 aebd d8c1 203f d18e e33e 0d27 a4be
00000070: fce8 5c3e 3db8 1d3e e725 be3d aebf 5f3d
00000080: 046c 95bd 9858 24bd 7908 d33b a5d3 633b
00000090: 43fa 73bd 76a5 d3be 5025 493e 2c31 613f
000000a0: 0561 a03f 225c 7ebd 01e9 2bbe c612 57bd
000000b0: 57cc 473f 054d 6ebd 50ed 97bd 6450 44bd
000000c0: 251a a03d 6ae5 723d 4d5e 56bf c0d5 803d
000000d0: 68b3 ef3d 825c 60bf b77f 9c3f 7bcc 71bf
000000e0: 3f0e 20c0 939f 923e 3287 09be 2c03 763b
000000f0: 44f3 093f 452d c7bd cedf 11be d464 a9bd
00000100: 8edf 063f d792 513e 4615 b5bf 68be 873e
00000110: 94c3 85bf f6a7 e0bc 28b5 85bd 620a aebe
00000120: b35d d33c 7237 92be d32e 923a a6c4 133d
00000130: 45fc a2be 0895 e83d 1ca9 513e 28a6 dcbe
00000140: 0577 7c3f bff7 c9be 8093 67be 3e55 7a3e
00000150: 9e07 9cbd d114 2a3e 6ff6 1bbb b997 15be
00000160: 269b a53c da61 833d 8b64 24bf e5d9 033f
00000170: e149 6f3e bb07 b23f 8cb3 4bbf 0043 bcbf
00000180: 31bb 6f3e e567 d5bd 98a4 2c3e ee66 53be
00000190: 4b08 aa3c 902f 95bd 1ff9 053e d6dc 923e
000001a0: 0a1e 0dbf 6a47 93bf 47af 323e 1e57 e5be
000001b0: be63 783c 17d0 8dbd 784a 343f cd51 d9bd
000001c0: 9813 cf3c 9170 063d e66f 4a3e d73c 05bf
000001d0: d1f5 53be 770f 253f 152c aebe 95e4 463f
000001e0: f01b f2bd 7c1f 3ebe 6535 19bf 5139 69be
000001f0: 7de6 0e3f 41b7 243e 8835 643b 1cd4 c2bd
00000200: 4383 b3bc 05c1 653d 84bf 9c3e 86c4 6fbe
00000210: 9526 b0bb 07e5 30be b71a 53bf d85c 20bf
00000220: f5a1 cfbd 0305 033d 56f2 173f 1a0a 37bb
00000230: 9e9d 653e c329 4bbd 20bc 533f 63b8 b83f
00000240: 528c 5a3d 36e1 183f 2d1e c4bf 3a15 aebd
00000250: dedc 0cbe 1c59 6cba 5151 a8bc 0556 41be
00000260: e7a3 0ebe 461c 853e 6ace c53e 894d ffbd
00000270: 7dac 1b3e 3091 4dbf 77aa 3ac0 d8a0 cc3d
00000280: 695a 4b3e 717d 09bf 9488 503c 64eb aabb
00000290: 8a45 f9ba 4458 13bd bcb3 e1bc e688 c83f
000002a0: 9546 5bbf db05 76bf 7990 5fbf d6f8 b3bf
000002b0: 2e71 6e3f 18e8 c13f c834 9bbe 2910 62bb
000002c0: 49a1 213e 0aea 27be 071a 223e f4a2 0b3d
000002d0: a78d 9d3e 6e8c aabd e84a 04be 46f2 3dbf
000002e0: ceb2 bbbd 2298 383e 0f69 49bd 473a 4db9
000002f0: 728f ae3e 9e6b e1bd c152 8fbd 2ce3 6c3e
00000300: b99a 65be c1fa ee3d d743 3f3d 4937 1fbf
00000310: ce57 4bbf f662 aebd 1507 813d 1359 0f3d
00000320: 97cb f83e a976 33be f296 8ebd 8c70 193e
00000330: a210 6dbe 4b6e 37be c1c7 223e 11fb 3fbe
00000340: 4fd4 c3be 036c c0bf a2de 033f e98e 16bf
00000350: 546e bcbf 52f9 19be 3df4 cd3d a3b2 543e
00000360: b1f0 013f 5df8 b6bc 4d92 e2bc b445 823d
00000370: 4809 7f3f 5309 333f b931 563f 1a24 973f
00000380: acd1 7c3f 3db3 fe3b 77e3 41be d42a 07c0
00000390: 46e6 c33d 0509 6fbe 18fb 7fbc d99e 883d
000003a0: 3dea 5cbf ed4e c4bd 572d 0740 fcbd da3f
000003b0: 12e6 5fc0 b5f4 7a3e 7d02 27be 3687 85be
000003c0: 5b06 be3e d649 a33d e190 b6be 11ea d8be
000003d0: bd24 9c3e 3d25 7dbf af56 c43e 30ca 87bf
000003e0: 2a85 143e 3939 033d a04b c7bd a269 aa40
000003f0: 511f 7cbe 6ba4 aabd 302c e43e 9fcb 113e

0.bias f4 [80]
0.2285316 -0.10610143 -0.12233167 -0.18585509 0.16192243 -0.062000107 -0.044352584 0.20674247
0.1922593 -0.20351128 -0.11583856 -0.09954272 0.14229551 0.08579829 -0.19425356 0.35957837
0.12886325 -0.23681581 -0.053249355 0.20341316 -0.13323644 -0.18488407 0.12691131 -0.092768885
0.31357917 -0.014710411 -0.018132245 0.007864117 -0.17692447 -0.22109322 0.037386954 0.053864077
-0.03509532 -0.30572355 -0.07470458 0.25622818 0.34166744 -0.007164544 -0.11083495 0.27275583
0.17089513 -0.15932298 0.21792549 -0.245572 -0.026546543 0.103936896 0.15180646 0.051797118
0.1953954 -0.00583474 -0.19529098 0.08433581 -0.047674876 -0.17359556 0.093177944 0.1303818
0.10231501 -0.20582019 -0.01294606 -0.19014846 -0.27570555 0.063382134 0.08390749 -0.12038935
-0.00026260942 0.10260626 -0.22545883 -0.2493714 -0.080561556 0.09247827 0.03680761 0.38821846
-0.055572852 -0.22405721 -0.081895284 -0.12198899 0.035622463 -0.19306582 0.16167884 0.015338004
00000000: 3004 6a3e b54b d9bd 0789 fabd cc50 3ebe
00000010: fece 253e d3f3 7dbd 0eab 35bd 4cb4 533e
00000020: 9fdf 443e 4365 50be c43c edbd 0edd cbbd
00000030: eab5 113e 04b7 af3d 68ea 46be a81a b83e
00000040: baf4 033e d87f 72be ff1b 5abd 8a4b 503e
00000050: 226f 08be 4052 3dbe 0af5 013e 9dfd bdbd
00000060: 738d a03e f003 71bc 138a 94bc 7fd8 003c
00000070: b02b 35be 4366 62be 1023 193d 94a0 5c3d
00000080: 1cc0 0fbd cc87 9cbe b7fe 98bd 5730 833e
00000090: 09ef ae3e 8dc4 eabb 6ffd e2bd a7a6 8b3e
000000a0: 22ff 2e3e 9025 23be dc27 5f3e 3a77 7bbe
000000b0: 2378 d9bc dedc d43d 2773 1b3e 3729 543d
000000c0: bb15 483e 5931 bfbb 5cfa 47be 41b8 ac3d
000000d0: bb46 43bd 09c3 31be 14d4 be3d ce82 053e
000000e0: 888a d13d 87c2 52be b61b 54bc 47b6 42be
000000f0: 4729 8dbe 7ece 813d b1d7 ab3d b18e f6bd
00000100: d7ae 89b9 3b23 d23d aede 66be 375b 7fbe
00000110: 75fd a4bd 3f65 bd3d 94c3 163d 92c4 c63e
00000120: 5ca0 63bd 416f 65be b7b8 a7bd 5dd5 f9bd
00000130: dce8 113d 0cb3 45be 238f 253e 404c 7b3c

3.weight f4 [80]
1.2851866 1.0000545 0.09555147 1.2525377 1.1547346 0.86615413 0.9339189 0.5803312
1.0611224 0.14104588 0.32982576 0.96304715 1.0095898 1.2378012 0.42512918 0.73518014
1.248981 1.1677532 0.686458 1.1622483 1.0302929 0.35211527 1.0155889 1.1197951
1.1335853 0.4718329 1.0311166 1.5313994 0.5478945 1.0967851 1.0671093 1.2204355
0.4270176 0.7103893 0.5798507 1.0493468 1.1888254 0.7008306 0.93742746 1.0353986
1.2216762 0.7826022 1.1023531 0.72621244 1.1959369 0.32940516 0.98749036 0.6858863
0.5061432 1.07031 0.90028936 1.1623075 1.6551546 1.3023915 0.70822096 1.2141979
1.1954187 0.8180114 0.74361306 1.190376 1.1346253 0.7676239 0.85484123 0.8810838
0.993025 0.35569662 0.7751833 0.9737047 0.82023823 1.1294804 0.42909154 1.3566937
0.7779719 0.648214 0.58735865 0.9586606 0.8774356 1.257217 1.1943858 1.0570346
00000000: ff80 a43f c901 803f 7db0 c33d 2853 a03f
00000010: 58ce 933f 47bc 5d3f 4f15 6f3f 9690 143f
00000020: dcd2 873f 556e 103e ecde a83e 428a 763f
00000030: 3d3a 813f 4570 9e3f 88aa d93e c434 3c3f
00000040: 9cde 9f3f f078 953f b6bb 2f3f 8dc4 943f
00000050: a3e0 833f 7448 b43e d1fe 813f 7255 8f3f
00000060: 5319 913f 1594 f13e a1fb 833f e504 c43f
00000070: d042 0c3f 7463 8c3f 0a97 883f 3b37 9c3f
00000080: 0da2 da3e 13dc 353f 1871 143f ff50 863f
00000090: 6e2b 983f a269 333f 3ffb 6f3f f187 843f
000000a0: e35f 9c3f 9e58 483f e819 8d3f 0fe9 393f
000000b0: 7614 993f cba7 a83e 2bcc 7c3f 3f96 2f3f
000000c0: 9a92 013f ebff 883f 5d79 663f 7ec6 943f
000000d0: 1bdc d33f c4b4 a63f f84d 353f d66a 9b3f
000000e0: 7b03 993f 3269 513f 6d5d 3e3f 3e5e 983f
000000f0: 673b 913f 0083 443f e0d6 5a3f b58e 613f
00000100: e336 7e3f de1d b63e 6a72 463f b644 793f
00000110: 22fb 513f d092 903f e3b1 db3e 24a8 ad3f
00000120: 2b29 473f 5af1 253f 235d 163f c86a 753f
00000130: 9f9f 603f 7dec a03f a2e1 983f e94c 873f

3.bias f4 [80]
-0.6678896 0.26500952 -0.04659873 0.115043215 0.48147777 -0.60075176 0.24920912 -0.60223716
0.58125305 -0.042105045 0.016649585 0.24626543 -0.009140149 -0.09965882 -0.0667824 -0.37385365
0.512743 0.6021192 0.06023619 0.81748176 -0.03910627 -0.24923658 0.41003287 0.0064977766
0.109035894 0.0952356 -0.02453044 0.47994742 0.107443124 -0.027135286 0.7820906 0.3915772
-0.09471802 -0.86738104 0.24584052 0.27002564 -0.57449067 0.59880406 0.15909876 -0.4683673
0.5642472 0.25749248 0.66268826 0.21285793 -0.106682144 0.1168667 0.7193294 0.24235837
-0.18702595 -0.07667886 0.15007326 0.74526 -0.06880515 0.5321463 0.293028 0.41479242
0.8565955 0.24274147 0.21942867 0.1527013 0.45864427 0.21350229 0.4607466 0.10980508
0.5227981 -0.07903528 0.48899418 0.3211603 0.30060467 0.69359565 0.09987574 0.3964089
-0.12218672 0.16745113 -0.18848073 -0.04865429 -0.3834328 0.7333594 0.7281368 0.6330843
00000000: d0fa 2abf 54af 873e 4fde 3ebd c79b eb3d
00000010: 4184 f63e deca 19bf ad30 7f3e 372c 1abf
00000020: 00cd 143f 5776 2cbd b664 883c 012d 7c3e
00000030: 90c0 15bc ec19 ccbd 36c5 88bd bf69 bfbe
00000040: 2043 033f 7c24 1a3f 39ba 763d 7c46 513f
00000050: e52d 20bd e037 7fbe d4ef d13e 4deb d43b
00000060: 364e df3d e20a c33d 10f4 c8bc abbb f53e
00000070: 240b dc3d d24a debc 1737 483f cf7c c83e
00000080: 85fb c1bd af0c 5ebf 9ebd 7b3e cd40 8a3e
00000090: d211 13bf 394b 193f c9ea 223e d7cd efbe
000000a0: 8172 103f 0ed6 833e f0a5 293f 6ef7 593e
000000b0: 2b7c dabd cf57 ef3d f925 383f cb2c 783e
000000c0: bb83 3fbe ce09 9dbd ceac 193e 5cc9 3e3f
000000d0: b7e9 8cbd bd3a 083f c407 963e ac5f d43e
000000e0: d849 5b3f 3891 783e e9b1 603e bb5d 1c3e
000000f0: 6cd3 ea3e 58a0 5a3e fae6 eb3e 7ce1 e03d
00000100: 19d6 053f 40dd a1bd 725d fa3e 1f6f a43e
00000110: dbe8 993e 7c8f 313f a78b cc3d 1bf6 ca3e
00000120: 083d fabd 4f78 2b3e 1801 41be b949 47bd
00000130: 4e51 c4be 71bd 3b3f 2c67 3a3f d011 223f

3.running_mean f4 [80]
11.930699 25.134365 -3.0034385 13.532428 12.292265 8.063114 4.710076 9.732109
8.44699 -3.8101442 4.423937 11.041692 1.8653233 11.538687 -0.8963365 12.336103
38.60679 15.117484 7.6942205 26.272787 8.156565 -2.2873876 19.649195 5.9237814
15.238404 -0.59962845 8.260145 60.023148 2.185968 2.9928653 4.3469286 31.95498
1.6783578 5.771685 10.517668 43.316624 3.0712273 17.268854 5.724408 3.863689
33.01127 10.8284025 24.21948 7.118593 9.641303 -3.7113097 32.826706 23.731169
4.022673 9.8749075 26.182955 94.716064 7.1107283 15.797524 2.0777476 7.3914957
35.588352 2.8674054 21.304544 12.681724 23.049158 4.541116 48.446632 7.165362
4.8330455 0.13801572 5.115902 21.4365 2.8200564 26.634394 -4.965223 25.415901
-0.3782845 3.3897884 8.907105 3.3158991 4.2446303 52.526363 30.54685 44.67729
00000000: 25e4 3e41 2e13 c941 5638 40c0 d384 5841
00000010: 1ead 4441 8402 0141 f1b8 9640 b8b6 1b41
00000020: df26 0741 67d9 73c0 e490 8d40 c5aa 3041
00000030: eac2 ee3f 769e 3841 4f76 65bf ae60 4541
00000040: 5a6d 1a42 37e1 7141 0e37 f640 ab2e d241
00000050: 4a81 0241 8f64 12c0 8d31 9d41 9e8f bd40
00000060: 81d0 7341 4081 19bf 8e29 0441 b417 7042
00000070: e6e6 0b40 1b8b 3f40 0a1a 8b40 cda3 ff41
00000080: 6ed4 d63f a5b1 b840 5e48 2841 3944 2d42
00000090: fd8e 4440 9d26 8a41 5a2e b740 ae46 7740
000000a0: 8a0b 0442 2341 2d41 7fc1 c141 84cb e340
000000b0: c742 1a41 1986 6dc0 8c4e 0342 6fd9 bd41
000000c0: bdb9 8040 9fff 1d41 b176 d141 a06e bd42
000000d0: 168b e340 a9c2 7c41 d1f9 0440 2287 ec40
000000e0: 795a 0e42 9283 3740 b56f aa41 57e8 4a41
000000f0: ad64 b841 d350 9140 5ac9 4142 a54a e540
00000100: 4fa8 9a40 fe53 0d3e 78b5 a340 f47d ab41
00000110: ce7b 3440 3d13 d541 1be3 9ec0 c453 cb41
00000120: 82ae c1be 4bf2 5840 8183 0e41 b137 5440
00000130: 03d4 8740 ff1a 5242 f35f f441 8cb5 3242

3.running_var f4 [80]
655.738 2280.802 1.5097034 1656.8539 357.9308 675.5273 409.9642 370.7503
829.3615 5.959365 1273.0355 274.2809 54.393597 1070.0239 0.18437739 430.88864
2353.3003 1550.8903 701.32745 979.90076 338.5356 1.8154087 971.32544 589.73376
843.31824 88.415016 1019.5155 2920.3918 177.51427 243.5879 376.1423 852.32465
159.97693 373.12387 305.17514 2468.2498 120.55993 1186.9164 637.1107 168.91359
1519.8274 364.30765 707.2413 579.5112 1600.9186 52.282024 1311.7642 1298.2811
186.13396 729.6494 1912.7936 4249.6587 447.17926 1534.4208 674.6089 421.4232
2134.604 229.36513 1998.299 652.7024 1528.1823 510.87445 1780.4937 410.76392
669.5342 181.11038 315.4957 1081.7745 174.78983 1240.1299 9.907251 1226.7163
645.864 97.1735 526.28766 318.88507 406.12067 3055.6064 727.9003 2089.819
00000000: 3bef 2344 d58c 0e45 f63d c13f 531b cf44
00000010: 24f7 b243 bfe1 2844 6bfb cc43 0a60 b943
00000020: 2357 4f44 1eb3 be40 2321 9f44 f523 8943
00000030: 0b93 5942 c4c0 8544 6dcd 3c3e bf71 d743
00000040: ce14 1345 7ddc c144 f554 2f44 a6f9 7444
00000050: 8f44 a943 505f e83f d4d4 7244 f66e 1344
00000060: 5ed4 5244 7dd4 b042 fee0 7e44 4586 3645
00000070: a783 3143 8196 7343 3712 bc43 c714 5544
00000080: 18fa 1f43 db8f ba43 6b96 9843 ff43 1a45
00000090: af1e f142 535d 9444 1647 1f44 e1e9 2843
000000a0: 7afa bd44 6127 b643 71cf 3044 b8e0 1044
000000b0: 651d c844 cb20 5142 74f8 a344 ff48 a244
000000c0: 4b22 3a43 9069 3644 6519 ef44 45cd 8445
000000d0: f296 df43 77cd bf44 f8a6 2844 2bb6 d243
000000e0: aa69 0545 795d 6543 91c9 f944 f42c 2344
000000f0: d505 bf44 ee6f ff43 cc8f de44 c861 cd43
00000100: 3062 2744 421c 3543 73bf 9d43 c938 8744
00000110: 32ca 2e43 2804 9b44 1a84 1e41 ec56 9944
00000120: 4c77 2144 d558 c242 6992 0344 4a71 9f43
00000130: 720f cb43 b4f9 3e45 9ff9 3544 1b9d 0245

4.weight f4 [50, 80]
-1.1335425 -0.07359212 0.22404955 -0.073711514 -0.3767145 0.008294473 -0.08058259 -0.64979017
0.15407135 0.28102994 -0.050956517 -0.25945038 -0.8697975 -0.06781295 0.32827136 -0.4552688
-0.25611505 0.08182614 0.28394502 -0.24205548 -0.08106123 0.31772092 -0.15401003 -0.3846862
-0.30896845 0.59485495 -0.18807821 -0.15026529 0.14574386 -0.47673684 0.27700478 -0.3389211
0.51266474 -0.012408168 0.35839918 -0.28899422 -1.061527 0.40299505 -0.07004325 -0.47827306
-0.29686102 0.082049385 -0.3043618 0.16124709 0.06351241 0.19225419 -0.07713443 0.39269093
-0.13058393 -0.3677952 -0.031607036 -0.08041422 -0.3005692 -0.11260589 -0.3754768 -0.66866636
-0.19503278 0.47362402 0.24976443 -0.32225773 -0.05706337 -0.4059411 -0.12582134 -0.3062576
0.23368768 0.3572202 0.36007506 -0.12062806 -0.05525669 -0.23869763 0.49580956 -0.36654726
-0.6884259 0.6154471 0.15849146 -0.2782754 0.0053026145 0.023245404 -0.2693997 -0.021465022
0.41681975 0.29783055 0.67250955 -0.43221372 0.2898813 -0.16722447 0.10621422 -0.0038492514
-0.03701135 -0.24826552 -0.11096616 0.5987609 0.09018707 -0.025791679 0.28456944 0.35867622
0.1582821 -0.21779546 -0.04066366 -0.6389218 -0.050998077 0.28428313 -0.26473022 -0.07142789
-0.31213 0.08839982 -0.16173914 -0.524161 0.07968845 0.2321216 0.11153081 -0.3189148
0.3352034 0.09879171 0.24401027 0.22829646 -0.0721652 0.076824486 -0.14793739 0.12021714
0.029047757 0.1041011 -0.37427858 0.35316774 0.9377153 0.18148987 -0.49678832 0.64979345
-0.14030291 0.25440907 0.11651999 -1.145964 -0.463658 0.006248498 0.012995732 -0.5425077
-1.1326486 0.34716883 0.2701954 0.1430712 0.12281514 0.37729657 -0.5390506 0.28825253
-0.0713468 -0.10100822 -0.05105509 -0.13826954 -0.15064126 -0.024637705 0.16844028 0.54129136
0.28575256 0.04757557 -0.32982665 -0.017043356 0.09316848 -0.77906305 -0.43958947 -0.1302198
-0.0007810121 -0.27724263 -0.10686753 0.15755092 0.4020821 0.67134815 0.48322174 0.50995433
-0.38300055 0.31346714 0.09990241 0.30972335 0.3645247 0.5026894 -0.013453163 0.25812462
0.53878474 -0.0047009564 0.4093951 -0.23195374 -0.7196465 0.32651886 0.2650501 0.20016867
0.42728308 0.07424793 0.42292228 0.09477321 0.34537375 0.016672503 -0.26893857 -0.0014798552
-0.028543198 0.13268138 -0.173159 0.24679421 0.29249126 -1.2080306 -0.1465274 0.18997888
0.07796786 -0.39190188 0.23517293 0.2646139 0.05513619 0.011375594 0.36076435 -1.6327914
0.45595154 -0.30231264 -0.21178961 0.016527656 -0.45117047 -0.03308866 0.18138228 0.2047202
-0.16491354 -0.065566465 0.034679532 0.265294 -1.4726913 -0.010419658 0.4262012 -0.80640215
0.33324596 0.049373485 -0.5567385 -0.7785152 -0.37371904 0.24678221 0.010342229 0.1504445
0.16871907 -0.34640837 0.47779143 -0.30240306 0.117750175 0.059025593 0.5385304 -0.04675293
-0.17210844 -0.9491463 -0.244294 -0.0032884679 0.02260327 0.105720975 -0.054856926 0.069119446
0.87025887 -0.10660932 0.39440557 -0.39882725 0.07423211 0.44305295 0.50591785 0.50206685
00000000: ec17 91bf 77b7 96bd 3f6d 653e 10f6 96bd
00000010: b9e0 c0be 8be5 073c 7c08 a5bd a658 26bf
00000020: e1c4 1d3e 28e3 8f3e c8b7 50bd aed6 84be
00000030: 0dab 5ebf 84e1 8abd 2f13 a83e fe18 e9be
00000040: 8321 83be 7794 a73d 3e61 913e 64dd 77be
00000050: 6e03 a6bd 51ac a23e ceb4 1dbe 97f5 c4be
00000060: 1d31 9ebe 6a48 183f 9397 40be 25df 19be
00000070: e13d 153e da16 f4be 92d3 8d3e 1187 adbe
00000080: ff3d 033f a14b 4bbc 1980 b73e 0df7 93be
00000090: 1ee0 87bf 5e55 ce3e d672 8fbd 35e0 f4be
000000a0: 2bfe 97be 8209 a83d 4fd5 9bbe f51d 253e
000000b0: cb12 823d 48de 443e a8f8 9dbd c90e c93e
000000c0: cbb7 05be a74f bcbe 6176 01bd 36b0 a4bd
000000d0: 35e4 99be eb9d e6bd 7f3e c0be b82d 2bbf
000000e0: acb6 47be d97e f23e 3fc2 7f3e f7fe a4be
000000f0: 48bb 69bd 83d7 cfbe 4fd7 00be cccd 9cbe
00000100: d34b 6f3e 91e5 b63e c25b b83e d80b f7bd
00000110: d754 62bd 276d 74be c0da fd3e 15ac bbbe
00000120: ae3c 30bf f18d 1d3f 964b 223e 1d7a 8ebe
00000130: 8ec1 ad3b 256d be3c c2ee 89be 6ad7 afbc
00000140: 6669 d53e 3f7d 983e 9629 2c3f 1e4b ddbe
00000150: 526b 943e e43c 2bbe d786 d93d b943 7cbb
00000160: 3799 17bd 5139 7ebe 3a42 e3bd 6548 193f
00000170: 00b4 b83d 1249 d3bc 16b3 913e 69a4 b73e
00000180: b414 223e c605 5fbe f08e 26bd 6190 23bf
00000190: 5ce3 50bd 8f8d 913e b88a 87be c948 92bd
000001a0: 81cf 9fbe f70a b53d f29e 25be 6a2f 06bf
000001b0: b333 a33d 49b1 6d3e 446a e43d cd48 a3be
000001c0: c89f ab3e 4f53 ca3d d4dd 793e 8cc6 693e
000001d0: 59cb 93bd 2856 9d3d e67c 17be 6734 f63d
000001e0: 90f5 ed3c f532 d53d 71a1 bfbe 67d2 b43e
000001f0: 1c0e 703f 7bd8 393e 0a5b febe dd58 263f
00000200: 91ab 0fbe e841 823e 08a2 ee3d f3ae 92bf
00000210: 9564 edbe 33c0 cc3b 0dec 543c c9e1 0abf
00000220: a1fa 90bf 1dc0 b13e 0d57 8a3e 4281 123e
00000230: 8186 fb3d 042d c13e 38ff 09bf d695 933e
00000240: 451e 92bd 66dd cebd 241f 51bd 8896 0dbe
00000250: b441 1abe 03d5 c9bc 9c7b 2c3e 1292 0a3f
00000260: 294e 923e 9ade 423d 0adf a8be 829e 8bbc
00000270: 1ecf be3d ad70 47bf df11 e1be 5758 05be
00000280: d6bc 4cba bff2 8dbe 5ddd dabd 0755 213e
00000290: b4dd cd3e 79dd 2b3f d768 f73e 5e8c 023f
000002a0: a618 c4be c47e a03e a299 cc3d 0f94 9e3e
000002b0: fba2 ba3e 41b0 003f a86a 5cbc e928 843e
000002c0: cced 093f 7b0a 9abb 3c9c d13e 4885 6dbe
000002d0: c13a 38bf 7b2d a73e a6b4 873e 04f9 4c3e
000002e0: d9c4 da3e 4c0f 983d 4589 d83e 7518 c23d
000002f0: d4d4 b03e c694 883c 51b2 89be b3f7 c1ba
00000300: 6dd3 e9bc a1dd 073e 9850 31be 9fb7 7c3e
00000310: 6ac1 953e bfa0 9abf 470b 16be d389 423e
00000320: 9dad 9f3d 5da7 c8be 2cd1 703e 797b 873e
00000330: 7cd6 613d b360 3a3c 1bb6 b83e 4fff d0bf
00000340: 7b72 e93e b9c8 9abe 60df 58be 0265 873c
00000350: d1ff e6be fa87 07bd 47bc 393e 2ca2 513e
00000360: 18df 28be b647 86bd 200c 0e3d 9dd4 873e
00000370: 2681 bcbf 37b7 2abc 0b37 da3e 5f70 4ebf
00000380: 379f aa3e da3b 4a3d 6a86 0ebf c64c 47bf
00000390: 1a58 bfbe 7ab4 7c3e 7472 293c 1f0e 1a3e
000003a0: b1c4 2c3e 705c b1be 14a1 f43e 93d4 9abe
000003b0: 0127 f13d d2c4 713d 21dd 093f 0080 3fbd
000003c0: 323d 30be 40fb 72bf 3528 7abe 5683 57bb
000003d0: 7e2a b93c 3d84 d83d a8b1 60bd 7f8e 8d3d
000003e0: 49c9 5e3f fd55 dabd 87ef c93e 1633 ccbe
000003f0: 0107 983d d6d7 e23e d583 013f 7487 003f

4.bias f4 [50]
0.96213126 -0.8120155 -0.95679164 -0.076262966 -0.17895345 -0.024315953 -0.6380615 -0.8999128
-0.42783546 -0.98722154 0.050487503 -0.4976799 0.49125147 -0.22269127 -0.26522002 -0.68862695
-0.27095553 0.09020837 -0.11247223 -0.76096845 0.25141758 -0.1353321 0.3162852 0.043867595
-0.58539903 0.1344565 -1.016372 -0.7419372 0.068387374 -0.31935477 -0.9414645 1.7640786
-0.44378486 -0.02838172 -0.5544698 -0.8768342 -0.6436362 -0.13992001 -0.34398177 1.122711
-0.29063857 -0.36853904 -0.08520881 -0.15972616 -0.7482726 0.051137302 -0.32054505 0.102041945
-0.31134567 -0.83962834
00000000: 3c4e 763f 3fe0 4fbf 4cf0 74bf c22f 9cbd
00000010: 933f 37be 4032 c7bc 0058 23bf af60 66bf
00000020: 400d dbbe 8dba 7cbf fccb 4e3d e6cf febe
00000030: 5085 fb3e 2e09 64be ebca 87be db49 30bf
00000040: afba 8abe 2abf b83d d757 e6bd d4ce 42bf
00000050: ceb9 803e 7f94 0abe 22f0 a13e 82ae 333d
00000060: b6dc 15bf f7ae 093e 7a18 82bf 99ef 3dbf
00000070: ae0e 8c3d 7882 a3be d103 71bf 54cd e13f
00000080: c537 e3be c880 e8bc bcf1 0dbf 3578 60bf
00000090: 58c5 24bf 3147 0fbe 611e b0be feb4 8f3f
000000a0: 94ce 94be 26b1 bcbe f581 aebd 418f 23be
000000b0: cb8e 3fbf 5975 513d 7b1e a4be 5efb d03d
000000c0: b368 9fbe e2f1 56bf

7.weight f4 [50]
1.2833816 0.6599194 0.9185123 1.2216023 1.2068651 1.0242628 1.1841488 0.7709192
0.7255878 0.66024625 0.8308217 1.024114 1.2762796 0.9340459 0.62959766 0.34649125
1.1083806 0.7397132 0.97644657 0.6520264 0.8459773 1.2582281 0.8647646 0.7420925
0.9638437 1.1463712 0.83344525 1.3144209 0.7401533 0.8900164 1.033653 1.0873752
1.0026395 0.9630792 0.93072855 0.7509124 0.668649 0.7845675 0.86509955 1.4897842
1.0965524 0.94014734 0.60829985 1.1554642 1.2684758 0.92237 0.86053556 0.86056435
0.44861823 0.88120264
00000000: d945 a43f 7af0 283f 9f23 6b3f 775d 9c3f
00000010: 8e7a 9a3f 0b1b 833f 3092 973f f65a 453f
00000020: 1fc0 393f e605 293f bbb0 543f 2b16 833f
00000030: 215d a33f a21d 6f3f 502d 213f 4d67 b13e
00000040: 6adf 8d3f d85d 3d3f 67f8 793f 34eb 263f
00000050: f891 583f 9e0d a13f 3661 5d3f c6f9 3d3f
00000060: 76be 763f 4bbc 923f ab5c 553f f23e a83f
00000070: b07a 3d3f 1dd8 633f be4e 843f 1c2f 8b3f
00000080: 7e56 803f 5c8c 763f 3a44 6e3f cc3b 403f
00000090: 952c 2b3f 6ad9 483f 2a77 5d3f 40b1 be3f
000000a0: d45b 8c3f 7fad 703f 8ab9 1b3f 40e6 933f
000000b0: 6a5d a23f 7120 6c3f 0f4c 5c3f f24d 5c3f
000000c0: 4ab1 e53e 7f96 613f

7.bias f4 [50]
0.9881788 -0.23343867 -0.49361113 0.42004836 0.41707382 0.31460774 0.17047043 0.11994173
-0.04309426 -0.4714583 0.57975805 -0.07433538 0.543123 0.24843007 0.18569145 -0.7315965
0.6809315 0.36454585 0.32640916 -0.2780006 0.40705308 0.17540723 0.5129958 0.17813042
0.46034834 0.1324835 -0.3504134 0.1864448 0.29658213 0.06976566 -0.2369771 0.62545115
0.04684736 0.3694616 0.61957043 -0.016907068 -0.19046937 0.44857305 0.15574971 0.82291377
0.74318427 0.18907323 0.28849536 0.64813393 0.48516792 0.47801438 0.22696921 0.18236919
-0.6409666 0.57384217
00000000: 49f9 7c3f 8c0a 6fbe 99ba fcbe 9410 d73e
00000010: b38a d53e 4414 a13e cd8f 2e3e 02a4 f53d
00000020: 9b83 30bd fb62 f1be 066b 143f 263d 98bd
00000030: 1c0a 0b3f 7464 7e3e e625 3e3e e949 3bbf
00000040: 8751 2e3f c1a5 ba3e 1a1f a73e 1856 8ebe
00000050: 4369 d03e f49d 333e b153 033f d267 363e
00000060: c7b2 eb3e c1a9 073e 6369 b3be 63eb 3e3e
00000070: 9dd9 973e 4ce1 8e3d 20aa 72be 911d 203f
00000080: 04e3 3f3d 122a bd3e 2b9c 1e3f b180 8abc
00000090: 670a 43be 5eab e53e da7c 1f3e 7aaa 523f
000000a0: 5341 3e3f 6a9c 413e aab5 933e 1bec 253f
000000b0: ee67 f83e 4dbe f43e 9e6a 683e fdbe 3a3e
000000c0: 6316 24bf 52e7 123f

7.running_mean f4 [50]
4.354994 0.44798043 1.3849515 3.3091855 1.473364 1.181567 1.1876324 0.5954785
0.1041719 0.24298169 3.335934 0.55125344 5.628912 3.1658545 0.41566724 0.29170838
2.147213 2.0814414 1.7630321 0.1356448 1.7538385 2.0577362 1.8756399 1.2336471
0.89185745 2.5749698 0.17336075 0.56110513 1.5836542 1.0610725 0.2453537 6.9314237
0.6453892 2.6076124 1.2631856 0.10594074 0.03316098 1.0254728 1.8270322 5.174905
1.693121 1.0968828 0.33051437 4.0421414 0.72800934 1.9916254 0.4151968 0.9484062
0.30936664 0.56881964
00000000: 1c5c 8b40 b15d e53e 1746 b13f b2c9 5340
00000010: 3197 bc3f 963d 973f 5704 983f 4771 183f
00000020: 1458 d53d 31d0 783e f17f 5540 f21e 0d3f
00000030: 0c20 b440 5c9d 4a40 56d2 d43e cd5a 953e
00000040: f06b 0940 5636 0540 09ab e13f 78e6 0a3e
00000050: c87d e03f f3b1 0340 f814 f03f 26e8 9d3f
00000060: c550 643f 4ecc 2440 7b85 313e 96a4 0f3f
00000070: 2eb5 ca3f 39d1 873f 003e 7b3e 39ce dd40
00000080: 3a38 253f 1fe3 2640 11b0 a13f 75f7 d83d
00000090: cfd3 073d b142 833f 31dc e93f d298 a540
000000a0: 30b8 d83f a866 8c3f 2e39 a93e 3959 8140
000000b0: d25e 3a3f 95ed fe3f ad94 d43e c0ca 723f
000000c0: 4e65 9e3e 2a9e 113f

7.running_var f4 [50]
13.964455 2.7415564 9.611774 19.145876 6.783562 4.1984015 4.925699 4.292479
0.64261633 0.7565264 13.149799 2.0728283 34.760494 18.2819 1.0082366 1.071245
12.151589 9.383989 11.26975 0.49906448 8.026041 11.098433 4.799975 3.2942863
5.78547 5.8361897 1.0342593 4.833403 4.744083 4.1118608 1.5358083 25.806034
4.9057293 11.297388 8.534595 0.5397258 0.21534657 3.9195635 5.0265565 24.874323
7.229885 6.09056 0.92692107 37.99088 7.376243 5.2401557 1.7555652 3.8157735
1.2998456 3.0492687
00000000: 686e 5f41 a975 2f40 d4c9 1941 c12a 9941
00000010: f112 d940 4e59 8640 549f 9d40 fd5b 8940
00000020: 8182 243f b7ab 413f 9465 5241 38a9 0440
00000030: bf0a 0b42 5541 9241 e60d 813f 8e1e 893f
00000040: e96c 4241 d224 1641 e550 3441 6185 ff3e
00000050: aa6a 0041 2e93 3141 6599 9940 96d5 5240
00000060: 9222 b940 11c2 ba40 9c62 843f 3dab 9a40
00000070: 87cf 9740 5d94 8340 5e95 c43f c272 ce41
00000080: bcfb 9c40 1ac2 3441 b38d 0841 782b 0a3f
00000090: d083 5c3e 21da 7a40 8dd9 a040 9dfe c641
000000a0: 385b e740 dee5 c240 b34a 6d3f a9f6 1742
000000b0: 2f0a ec40 5baf a740 5cb6 e03f a235 7440
000000c0: 5761 a63f 3827 4340

8.weight f4 [20, 50]
-0.06415542 0.30664593 0.028586753 -0.02975795 -0.23438393 -0.87798345 -1.0104069 0.23793785
0.3048653 -0.24026543 -0.20437258 -0.2222097 -0.03772207 -0.18901451 -0.081682324 0.41693994
-0.16482924 -0.6046759 -0.79397243 0.06326632 0.39143607 -0.88714516 -0.17381477 0.17501472
-0.08198044 -0.62191147 0.09092145 0.13903707 -1.182539 -0.69194764 0.09846481 -0.1082034
0.064045504 -1.3157994 -0.14371495 -0.106330715 0.27288294 -0.24444939 -1.158962 -0.063898854
-0.18580285 -0.035559423 -0.48735794 -0.016194502 0.0877872 -1.7139049 0.17024852 -0.94493586
0.23076154 -0.028627109 -0.013717897 -0.63278306 0.3390181 0.02560984 -0.1981433 0.09871117
0.19688925 -0.708229 0.27173918 0.21950671 -0.18817422 -0.42109695 -0.00770288 -0.15009242
0.3542086 0.14984055 -0.2016582 0.009518776 0.14160798 -0.4810424 -0.027958088 0.123261526
-0.30892915 -0.19835554 -0.8037624 -0.21666217 -0.72806597 -2.4056058 0.038676806 0.03641234
-0.97418797 -0.016652789 -0.73759645 -0.10116639 -0.5354152 -0.77015936 -0.57376987 0.29997495
-0.06304902 0.00023927078 -0.10855287 -0.4491757 0.32509863 0.16130742 -2.119167 -0.15340203
0.112332724 0.13481851 -0.37287796 -0.57022935 0.011241519 0.021533215 0.2544797 -0.10139869
-0.5951814 0.14838627 0.22701459 -1.1064332 0.15958002 0.23489423 -0.19359355 -0.8950872
-0.09047602 0.019573914 0.22521214 0.17881636 -0.3553031 -0.03621056 0.33086616 -0.88626885
0.029687705 0.093931235 -0.22545825 -0.17476562 -1.2508544 -0.23959754 -0.7233348 -1.9177015
0.17122972 0.0441224 -0.74333704 -0.0057461895 -1.0683677 -0.13567129 -0.60339576 -0.71789014
-0.29372862 0.21821372 -0.16122429 0.031033479 -0.33814982 -0.8264443 0.25264904 0.09054693
-1.8662648 -0.09686545 -0.28743026 0.039899893 -0.3752873 -1.3059578 0.120511 0.010213505
0.2913135 0.02868041 -1.6371353 -0.0038213907 0.05312628 -0.34997305 0.46606165 0.15363467
0.012983026 -0.48278508 -0.5637585 -0.024545822 0.12501815 0.094910435 -1.1160277 0.06840362
0.14962585 -0.3124174 0.18584198 0.08595922 0.15533166 0.032894503 -1.6567315 0.03148621
-0.6188133 -1.7547425 -0.026299505 0.09242776 -0.71268433 -0.021452622 -0.8412813 0.09652208
-0.78010267 -0.25665474 -0.39799905 0.2504873 -0.036672525 0.008996219 -0.7509821 -0.9696913
0.1777274 -0.8337002 -1.8743333 -0.10005731 -0.057445664 0.088711426 -0.32035214 -0.76979345
-0.23674664 0.41501087 -1.3672163 -0.20221138 -0.21141902 -0.9989024 -0.5619707 0.10150886
0.3944874 -1.139725 -0.044655737 0.014112666 -0.291968 -0.36561027 -0.26632318 -0.44965127
-0.078463584 -0.6094227 -1.1682212 0.026987981 -0.17935155 -0.49634954 -0.18078005 -0.32394046
0.30496883 -0.07215871 0.3220564 0.21519707 -0.047118604 -0.65797454 0.27221403 -0.16421358
0.24449116 -0.12218159 0.118496336 0.13004754 -0.2795395 -0.95012456 -0.19131626 -0.2814641
-0.00853145 -0.11407444 -0.23623367 -0.06235805 0.29931447 0.07891656 0.06115062 -0.5355581
0.1282243 0.51746607 0.51166826 0.055434484 0.5477201 0.0053575793 0.63449174 0.14937761
00000000: eb63 83bd b200 9d3e c42e ea3c f2c6 f3bc
00000010: 5702 70be 86c3 60bf 0355 81bf fba5 733e
00000020: 4e17 9c3e 2408 76be 0c47 51be f18a 63be
00000030: 7582 1abd 058d 41be 1049 a7bd 2779 d53e
00000040: ffc8 28be 0acc 1abf c741 4bbf c691 813d
00000050: 4f6a c83e f21b 63bf 80fc 31be 0f37 333e
00000060: 5ce5 a7bd 9735 1fbf 0635 ba3d bc5f 0e3e
00000070: 705d 97bf 7b23 31bf eba7 c93d bf99 ddbd
00000080: 4a2a 833d 1d6c a8bf 032a 13be ebc3 d9bd
00000090: 50b7 8b3e f150 7abe de58 94bf 67dd 82bd
000000a0: 1a43 3ebe c2a6 11bd fb86 f9be 55aa 84bc
000000b0: c7c9 b33d 3c61 dbbf a155 2e3e 51e7 71bf
000000c0: c14c 6c3e 6683 eabc 08c1 60bc 12fe 21bf
000000d0: c893 ad3e bacb d13c 14e6 4abe 1529 ca3d
000000e0: 569d 493e 7f4e 35bf 6621 8b3e 5ec6 603e
000000f0: beb0 40be 059a d7be 7168 fcbb d4b1 19be
00000100: d45a b53e cd6f 193e 7d7f 4ebe a4f4 1b3c
00000110: af01 113e 304b f6be 5c08 e5bc 8a70 fc3d
00000120: f62b 9ebe b71d 4bbe 5fc3 4dbf b0dc 5dbe
00000130: 8862 3abf 72f5 19c0 926b 1e3d 1b25 153d
00000140: 6264 79bf 6e6b 88bc 1fd3 3cbf 5330 cfbd
00000150: f810 09bf 2a29 45bf 95e2 12bf 5196 993e
00000160: d81f 81bd c3e4 7a39 f850 debd 5bfa e5be
00000170: 5473 a63e c62d 253e 6fa0 07c0 6c15 1dbe
00000180: b30e e63d dd0d 0a3e dce9 bebe 8dfa 11bf
00000190: 592e 383c 6d66 b03c 2a4b 823e 1eaa cfbd
000001a0: cf5d 18bf 92f2 173e 8376 683e 9a9f 8dbf
000001b0: f268 233e 1d88 703e 633d 46be 6f24 65bf
000001c0: 7e4b b9bd 7959 a03c 039e 663e a31b 373e
000001d0: 4aea b5be 8651 14bd 4a67 a93e 84e2 62bf
000001e0: a133 f33c 055f c03d 87de 66be c2f5 32be
000001f0: ff1b a0bf 0f59 75be 782c 39bf 3e77 f5bf
00000200: d856 2f3e b1b9 343d 564b 3ebf 884a bcbb
00000210: 46c0 88bf 6aed 0abe 2578 1abf a6c7 37bf
00000220: 9963 96be 6b73 5f3e fb17 25be ec39 fe3c
00000230: f921 adbe db91 53bf 375b 813e ab70 b93d
00000240: c4e1 eebf 6561 c6bd 0f2a 93be 126e 233d
00000250: a825 c0be a029 a7bf 79ce f63d 8b56 273c
00000260: 0b27 953e 2ef3 ea3c a68d d1bf 4c70 7abb
00000270: f19a 593d ab2f b3be a29f ee3e 6852 1d3e
00000280: c2b6 543c 9b2f f7be 7a52 10bf 5214 c9bc
00000290: c204 003e 6760 c23d ffd9 8ebf 3217 8c3d
000002a0: 8537 193e 2cf5 9fbe 5c4d 3e3e 630b b03d
000002b0: 430f 1f3e 63bc 063d c70f d4bf aff7 003d
000002c0: 8c6a 1ebf 679b e0bf 0f72 d7bc c44a bd3d
000002d0: 7b72 36bf 69bd afbc 365e 57bf 5ead c53d
000002e0: cfb4 47bf 4068 83be 88c6 cbbe df3f 803e
000002f0: ee35 16bd e164 133c 5d40 40bf b03d 78bf
00000300: 2cfe 353e 606d 55bf 27ea efbf d9ea ccbd
00000310: 254c 6bbd 56ae b53d 3205 a4be 2f11 45bf
00000320: b66d 72be 4e7c d43e f200 afbf 8010 4fbe
00000330: 3a7e 58be 11b8 7fbf 50dd 0fbf e1e3 cf3d
00000340: 41fa c93e 82e2 91bf efe8 36bd d038 673c
00000350: d47c 95be 4531 bbbe 835b 88be b138 e6be
00000360: 84b1 a0bd 2003 1cbf 4688 95bf e615 dd3c
00000370: efa7 37be 8721 febe 681e 39be 86db a5be
00000380: e024 9c3e f2c7 93bd 94e4 a43e 9f5c 5c3e
00000390: 70ff 40bd 0571 28bf a35f 8b3e 9b27 28be
000003a0: e45b 7a3e 573a fabd 35ae f23d 2f2b 053e
000003b0: cd1f 8fbe 5d3b 73bf 69e8 43be 101c 90be
000003c0: 7fc7 0bbc dc9f e9bd 3de7 71be 286b 7fbd
000003d0: bf3f 993e 019f a13d 1379 7a3d 561a 09bf
000003e0: 3b4d 033e a878 043f b1fc 023f 450f 633d
000003f0: 6237 0c3f a28e af3b 0d6e 223f 72f6 183e

8.bias f4 [20]
-0.4346788 -0.041802913 0.0357655 -0.15057017 0.26829308 -0.041432895 -0.021159524 -0.47243613
-0.08537759 -0.019686798 -0.067491464 -0.75221807 -1.3035716 -0.70784825 -0.22525421 -0.9999285
-0.24558593 -1.0236369 -0.67630124 -0.2556413
00000000: 388e debe 8839 2bbd d87e 123d 112f 1abe
00000010: b65d 893e 8ab5 29bd bd56 adbc 26e3 f1be
00000020: 72da aebd 3546 a1bc f738 8abd 5d91 40bf
00000030: 6fdb a6bf 8b35 35bf 0aa9 66be 50fb 7fbf
00000040: e17a 7bbe 8906 83bf 1422 2dbf 6be3 82be

11.weight f4 [20]
0.45283598 0.37685066 0.38384476 0.346269 0.37576038 0.37077513 0.3595301 0.49453685
0.41983745 0.35684025 0.3446281 0.4217229 0.35079527 0.5068095 0.39170665 0.46169674
0.39138168 0.47841486 0.39994997 0.45629424
00000000: 1eda e73e 92f2 c03e 4d87 c43e 2c4a b13e
00000010: aa63 c03e 3dd6 bd3e 5414 b83e ef33 fd3e
00000020: eff4 d63e c4b3 b63e 1873 b03e 10ec d73e
00000030: 709b b33e 44be 013f c68d c83e 8463 ec3e
00000040: 2e63 c83e cbf2 f43e 3ec6 cc3e 669f e93e

11.bias f4 [20]
1.195371 -1.3904777 -1.3418446 -1.2331061 1.0875795 1.1421977 -1.291538 1.4152435
1.2220169 1.0647365 1.047196 1.1314865 -1.140754 1.3710397 1.1138941 -1.2979742
-1.2959409 -1.4364858 -1.1642804 1.3103002
00000000: eb01 993f 2cfb b1bf 90c1 abbf 6cd6 9dbf
00000010: ce35 8b3f 8933 923f 1e51 a5bf b326 b53f
00000020: 0d6b 9c3f 4949 883f 850a 863f 8dd4 903f
00000030: 3a04 92bf 3b7e af3f 1594 8e3f 0524 a6bf
00000040: 64e1 a5bf c4de b7bf 2407 95bf ebb7 a73f

11.running_mean f4 [20]
0.6094388 1.5552812 1.5710047 1.6230055 1.7150853 2.8978548 1.5618379 1.479251
3.0193622 2.8108501 3.0715945 0.6473844 0.86849517 0.3756589 1.3380413 0.27483168
1.2286111 0.10069167 0.32086894 2.080768
00000000: 2e04 1c3f 7413 c73f af16 c93f a5be cf3f
00000010: ea87 db3f 7476 3940 4eea c73f 1958 bd3f
00000020: 3b3d 4140 f8e4 3340 0195 4440 fcba 253f
00000030: b355 5e3f 5d56 c03e f044 ab3f bdb6 8c3e
00000040: 2143 9d3f 6f37 ce3d ef48 a43e 4e2b 0540

11.running_var f4 [20]
2.348708 4.3643484 5.1272573 5.6698146 8.7205305 24.648918 4.8066297 6.10444
25.68744 22.532162 25.545536 3.8371217 3.3215446 1.0611231 6.567763 0.7183863
3.5870297 0.310183 0.86534005 12.383346
00000000: 3b51 1640 bea8 8b40 7e12 a440 1f6f b540
00000010: 4b87 0b41 fc30 c541 e9cf 9940 9357 c340
00000020: e17f cd41 de41 b441 425d cc41 6793 7540
00000030: 3094 5440 e2d2 873f 1d2b d240 2ae8 373f
00000040: e591 6540 4ed0 9e3e ed86 5d3f 2f22 4641

12.weight f4 [1, 20]
1.6169053 -1.4044702 -1.4230382 -1.5464419 1.8518343 1.722061 -1.48787 1.3599796
1.5149304 1.9165558 1.9657212 1.7194096 -1.7238222 1.3990618 1.7281668 -1.4681365
-1.4718047 -1.3925297 -1.6684906 1.4843936
00000000: c1f6 ce3f aec5 b3bf 1e26 b6bf cff1 c5bf
00000010: e808 ed3f 7f6c dc3f 8672 bebf d013 ae3f
00000020: 3de9 c13f b351 f53f c19c fb3f 9d15 dc3f
00000030: 35a6 dcbf 7514 b33f 9234 dd3f e6eb bbbf
00000040: 1964 bcbf 6a3e b2bf 1a91 d5bf 9c00 be3f
