main_app/deep_model_strength/torch_model_params.pkl (torch_old, 15772 bytes, 5 tensors)

0.weight f4 [60, 40]
000000 7c 11 8e 40 06 39 68 3f e9 0d 35 bf 0b 01 08 40
       4.4396343 0.9071201 -0.7072435 2.1250637
000010 ff 1e 5c be c6 16 cb 3e 3e 44 a5 40 fe d4 c4 bf
       -0.21496199 0.39665812 5.1645803 -1.53775
000020 ad 95 10 40 bf 05 21 3e f2 64 21 3e 3f 83 48 bf
       2.2591355 0.15724848 0.15761164 -0.78325266
000030 8e b9 5a 3f 45 0e a9 3f 03 5e 9a 3f 6e 65 c9 3f
       0.85439384 1.320748 1.205994 1.5734079
000040 e2 78 98 3f ed ac 74 c0 e0 f9 9d be c3 cc 50 bf
       1.191189 -3.8230546 -0.30854702 -0.8156244
000050 b5 1b 3b bd 2e fe ea 3e 74 3d 42 3f 8b c4 a2 bd
       -0.04568072 0.4589705 0.7587502 -0.07947644
000060 c6 5a 2e 3f ce 04 3e bd fa 25 de be 7d bd 10 bf
       0.6810726 -0.0463913 -0.4338835 -0.56539136
000070 cc 45 9a bf 9a c6 be 3e 62 65 00 3f 5a 05 46 3f
       -1.205255 0.37260896 0.501547 0.77351916
000080 f0 10 07 bd 1e b0 a3 40 10 86 bb bd 0c 4a 4e bf
       -0.032975137 5.1152487 -0.0915643 -0.80581737
000090 19 fc d3 3f c9 b2 b4 3f 5a be 76 3f 52 d5 d6 3d
       1.6561309 1.4117061 0.96384203 0.10489906
0000a0 68 e1 fa c0 9a 40 32 3f ad d2 e3 3f b2 63 14 3f
       -7.8400154 0.69629824 1.7798668 0.5796462
0000b0 e5 31 81 bf 5f 0c 16 bf c6 72 e1 c0 cd 56 44 bf
       -1.0093352 -0.58612627 -7.0452604 -0.7669495
0000c0 1b 33 c9 bf 24 4e 8d bc 15 3b 32 3e 07 5b 23 bf
       -1.5718721 -0.017249174 0.1740535 -0.6381077
0000d0 d1 59 57 3d f0 81 47 c0 47 ab 78 bf 00 81 0e 40
       0.05257589 -3.1173058 -0.9713635 2.2266235
0000e0 77 39 92 3f 8c a3 46 40 d7 b9 ad 3f 65 f0 0c 3d
       1.1423787 3.103732 1.3572339 0.034408946
0000f0 2a fa 80 40 0c f8 e4 3f 0f f2 8a 3f 21 ea 1b 3e
       4.0305376 1.7888198 1.085512 0.15226032
000100 5f 03 bc 3f d4 0e 20 be bd 57 87 c0 4a 48 f2 bf
       1.4688529 -0.15630656 -4.2294602 -1.8928311
000110 12 3d 3c bf 4e 31 22 40 e9 54 7a bf 36 1d da 3f
       -0.73530686 2.5342593 -0.9778581 1.7040164
000120 c2 e7 d2 bd cd 54 ee be c8 eb a4 3f 9c 89 1e bf
       -0.102981105 -0.46549073 1.2884455 -0.61928725
000130 07 df c3 3d 4b a1 49 3f 89 ef 0b 40 82 d6 66 bd
       0.095640235 0.7876174 2.186495 -0.056356914
000140 1d 8d a0 40 26 4c 08 3f 08 8e 23 c0 25 ca 22 40
       5.0172257 0.53241193 -2.555544 2.543588
000150 8c a5 bf bf a3 90 f5 3f 92 c5 d2 40 0e 68 0b c0
       -1.4972396 1.9184765 6.5866175 -2.178226
000160 77 ad 03 3f b0 26 c9 bf 42 86 16 3f dd 3f 6d bd
       0.5143656 -1.5714931 0.5879861 -0.057922233
000170 73 11 5a 3f 91 b0 65 bc 5b f0 da 3f cc 0b 98 b9
       0.85182875 -0.0140191475 1.7104601 -0.0002900049
000180 b5 91 b7 3f 4c 34 7c bf 61 79 ec be 2b a4 a0 3d
       1.4341341 -0.985173 -0.46186355 0.078438126
000190 62 1c c0 3d 5b f9 90 bd 80 f1 ad 3e 0f cc 08 3e
       0.093804136 -0.07078811 0.33973312 0.13359092
0001a0 5f a3 22 3e e0 7e 68 bc a7 22 0f c0 3f ef f8 bf
       0.15882634 -0.014190406 -2.23649 -1.9448012
0001b0 aa 22 91 bf eb 9c 98 3e 73 13 cf 3f 97 22 95 3f
       -1.1338704 0.2980722 1.617781 1.1651181
0001c0 cf 99 19 3e b1 20 94 40 0f 08 90 bf 48 79 0e bf
       0.1500008 4.6289907 -1.1252459 -0.5565381
0001d0 9e d8 b7 3f e1 55 09 3f 68 40 05 40 70 8f 4c bd
       1.4362981 0.53646666 2.082056 -0.04994148
0001e0 f8 3d a4 40 64 a1 2b 3f a9 ce e0 bf 8c 6b 45 40
       5.1325645 0.6704314 -1.7563068 3.0846891
0001f0 81 c8 d6 bd c9 8a 80 3f af 17 ab 40 f6 89 2d c0
       -0.10487462 1.0042354 5.346641 -2.7115455
000200 33 74 82 3f a1 53 bb bf c9 bb c9 3e ce 41 2a bf
       1.0191711 -1.4634897 0.3940108 -0.6650666
000210 39 f0 14 be 3c 82 20 3f d3 ee 67 3f 5b 6e 33 3f
       -0.14544763 0.6269872 0.9059879 0.70090264
000220 7b 42 fa 3f da e0 1a c0 39 f5 eb be 6d 2d 26 be
       1.9551538 -2.4199739 -0.46085528 -0.16228266
000230 d4 58 69 be 01 82 f0 be 63 07 cf bd 80 1e 3f 3d
       -0.22787791 -0.46974185 -0.10108831 0.046659946
000240 3a e2 2c be f8 dc f3 bc 1c ab f3 3e f2 07 bd 3e
       -0.16883174 -0.029768452 0.47591484 0.36920124
000250 73 f3 17 c0 14 25 52 bd 11 ad be 3d bc 4f 9a 3f
       -2.374234 -0.05130489 0.093103535 1.2055583
000260 98 1e ae bc 9c 1e bc 40 50 37 c7 bf 8e 7f c2 bf
       -0.021254823 5.8787365 -1.5563755 -1.5195177
000270 65 ec 00 40 78 88 6c 3f a7 4b de 3f 74 d1 29 3d
       2.0144284 0.92395735 1.7366837 0.041459516
000280 03 f8 9e 40 8e 07 f0 be bc 61 76 bf 65 0a 86 3f
       4.967775 -0.46880764 -0.9624288 1.0471922
000290 fd e5 87 3e 9f 2e 40 3f 0b 4e b9 40 f9 94 c5 3f
       0.26542655 0.7507114 5.7907767 1.5436088
0002a0 3e eb ee be fd 32 d8 bd 74 de 69 bf ae 64 87 be
       -0.4666385 -0.105566 -0.9135506 -0.26444
0002b0 e6 50 c3 3f 31 9e 89 3f fc d8 b6 3f dd 17 43 3f
       1.5259063 1.0751401 1.4284968 0.7620829
0002c0 6b a8 f8 3e 3f 7c 83 c0 a4 e9 73 c0 5a d7 f6 be
       0.48565993 -4.1089168 -3.8111353 -0.48211175
0002d0 d7 35 81 3f 4e ea 8a 3f 07 69 d3 3f d6 74 8e 3d
       1.0094556 1.0852754 1.6516427 0.069558784
0002e0 f9 27 a9 3f 79 e3 90 bd c5 94 dc bd cd 6f 4c bf
       1.3215324 -0.07074637 -0.10770563 -0.79858094
0002f0 ac 21 56 bf 8b 46 e3 3c b2 e4 5b 40 6d a3 75 bc
       -0.8364513 0.027743598 3.4358335 -0.014992577
000300 b9 df 93 bd 5e 2a 30 40 9e 44 78 3e 61 71 16 40
       -0.07220406 2.752586 0.24244925 2.35067
000310 a5 10 69 3f 2d d6 59 3f 58 2c fe 3d a0 dd d8 3b
       0.9104102 0.8509243 0.12410802 0.0066182166
000320 27 b3 0a 40 66 2a cb 3e f9 51 11 c0 4e c5 06 40
       2.1671846 0.39680785 -2.2706282 2.1057925
000330 b7 13 ab 3e a4 da e3 3d de 17 4d 40 5c 3d 91 bd
       0.3341348 0.11125687 3.2045817 -0.070917815
000340 f4 90 d7 3f 02 d6 97 bd 3b f9 62 bf 95 56 60 be
       1.6841111 -0.074138656 -0.88661546 -0.21908028
000350 3a 3f ae be dc 56 95 bf 75 aa 12 40 8e 87 32 bf
       -0.34032613 -1.1667132 2.2916539 -0.6973809
000360 7d e8 08 be 62 58 a0 c0 bf 20 0c c0 b9 ca 40 be
       -0.13369937 -5.010789 -2.1894987 -0.18827333
000370 af 21 c2 be 60 fb a9 3e cc d4 06 3f 4b 3c 07 be
       -0.37916324 0.33199596 0.5266845 -0.13206594
000380 17 52 8c 3e 08 ec 42 bd 05 eb 5f 3f 3a 8a 88 3e
       0.2740638 -0.04758838 0.87467986 0.26667958
000390 f6 ad 27 c0 5c 30 43 be 2c 8b 81 3f dc a0 07 3f
       -2.6199927 -0.19061416 1.0120597 0.52979827
0003a0 b8 70 89 3c d7 6a 11 40 2c fe 25 3e ba da 8a 3f
       0.016777381 2.272146 0.1621024 1.0848
0003b0 b0 8c 83 3f a4 75 52 3f 5b 2c d0 3e c7 ef 0f 3e
       1.027731 0.82210755 0.4065884 0.14056312
0003c0 a1 d3 00 c1 3f d3 77 3f 04 90 37 40 48 b6 55 c0
       -8.051667 0.9680671 2.868165 -3.3392506
0003d0 17 07 23 3e 63 01 af bc 97 e4 e5 c0 20 1b 77 3e
       0.15920673 -0.021362966 -7.184154 0.24131441
0003e0 a1 3d 61 c0 9a a3 e1 3f 3a fa e1 3e 74 6c a5 bf
       -3.5193865 1.7628052 0.4413622 -1.2923722
0003f0 ea 7c 74 3f cb 64 62 c0 f4 1e a5 bf d2 64 93 3e
       0.95503104 -3.537402 -1.2900071 0.28787857

0.bias f4 [60]
000000 db 0a a7 c0 cc cd 8f 3e 65 de 8f c0 1a d4 be c0
       -5.220075 0.28086698 -4.495898 -5.9633913
000010 1d b2 33 c0 4a 2b 5f c0 0e 75 53 40 12 2a c2 3f
       -2.8077462 -3.4870172 3.3040195 1.5169089
000020 65 e8 ae 3f bd f9 ad c0 28 17 ac 3f 2d c5 26 40
       1.3664671 -5.4367356 1.3444567 2.6057847
000030 a7 14 56 c0 82 93 9c c0 ed 4b 09 c0 82 56 92 c0
       -3.3450105 -4.8930063 -2.1452591 -4.57306
000040 33 51 1c c0 22 bd 87 bf 34 5c 8b c0 36 88 52 c0
       -2.442456 -1.0604594 -4.3550053 -3.2895637
000050 6f 37 ab 3f cb 51 ce bf 11 08 bc c0 fc 69 df 3f
       1.3376292 -1.6118711 -5.8759847 1.7454219
000060 fa c9 ba c0 82 94 d0 3f 5d 37 54 be 4c 65 e5 3f
       -5.8371553 1.6295321 -0.20724244 1.7921538
000070 3c 62 25 40 77 02 83 c0 cb 4d 25 c0 ba a3 96 c0
       2.5841208 -4.094051 -2.582873 -4.707486
000080 ca 92 51 c0 a0 5b 85 40 59 68 86 3f 14 7b b3 c0
       -3.2745843 4.1674347 1.0500594 -5.608774
000090 47 af a6 3e 52 47 01 c0 16 db 2a c0 4e f0 39 c0
       0.325556 -2.019978 -2.669622 -2.905292
0000a0 b4 5c ca bf db e8 89 c0 e0 a2 0b c0 f6 4c c2 c0
       -1.5809541 -4.3096747 -2.181816 -6.0718946
0000b0 1f ca c4 3f 04 1b 8d bf 99 0a 87 c0 a0 57 b5 bf
       1.5374182 -1.102387 -4.2200437 -1.4167366
0000c0 3f 7d 9b c0 cf d8 a9 c0 3c ce b6 3f 90 af ad c0
       -4.859039 -5.307716 1.4281688 -5.427681
0000d0 86 83 06 40 e3 61 84 3f 22 0c 25 40 42 45 98 c0
       2.1017776 1.0342373 2.5788655 -4.7584543
0000e0 24 38 48 c0 1b 2b 43 c0 9a 9a 6e c0 8d 34 40 c0
       -3.1284266 -3.049506 -3.7281861 -3.0032074

2.weight f4 [20, 60]
000000 46 b3 b8 3f 68 2d 3f c0 17 40 3c 3f 2b 30 ae 3f
       1.442971 -2.9871464 0.73535293 1.360845
000010 a8 ba 04 40 96 d0 cf 3f ef 5c 13 c0 fc 08 b3 3f
       2.0738926 1.623553 -2.3025472 1.3987117
000020 3e 0d 18 bf 93 a6 24 3e 91 f4 19 c0 34 a3 2a 40
       -0.59395206 0.16079168 -2.4055521 2.6662111
000030 af e9 8b 3f ec b3 c9 3e 39 2b ed 3f 11 be 10 3e
       1.093069 0.39395082 1.8528816 0.14135005
000040 e7 30 83 3f d7 e2 d8 be 20 1c 88 be 1c 9f c5 bf
       1.0249299 -0.42360565 -0.26583958 -1.5439181
000050 f7 56 f4 3f e4 9c bf 3f a7 16 ee 3e 1a f1 a2 3f
       1.908904 1.4969754 0.46501657 1.2729828
000060 10 f3 77 3f de 99 50 40 38 d5 ca 3e a3 36 53 40
       0.9685526 3.2593913 0.39615798 3.3002098
000070 a2 0c 1e 40 a9 aa e1 3f 3d df b0 be 66 06 0b 3e
       2.469521 1.7630206 -0.34545317 0.1357666
000080 70 b5 1f bd c6 00 20 40 68 e3 2a c0 58 08 bc 3e
       -0.03899139 2.5000472 -2.6701298 0.36725116
000090 10 82 3e 40 6d e2 d3 be b7 69 17 40 63 0f f2 3f
       2.9766884 -0.41383687 2.3658273 1.8910946
0000a0 43 db c1 3f 3d da 8f 3f 09 4c 07 c0 9b d9 1a 3f
       1.5145038 1.1238476 -2.1140158 0.6048829
0000b0 c5 35 8c 3f 03 fb 47 40 64 84 0e 40 51 e4 1b c0
       1.0953909 3.1246955 2.2268305 -2.4358103
0000c0 ab 38 ea 3f 0d 33 2c 3f ac 9a 76 bf 1c a0 4a bf
       1.8298544 0.672654 -0.9632976 -0.7915056
0000d0 8f 45 d8 3f 74 5a 83 3f 3b 79 09 be 5f 7f 0c 40
       1.6896228 1.0261979 -0.13425152 2.195274
0000e0 ff 34 d4 3e 56 3e 35 40 32 fa 84 3f d3 c9 1b c0
       0.41446683 2.8319297 1.0388854 -2.4341934
0000f0 4e 0f f0 3e 64 77 41 bf e8 ab 4f 40 b0 23 80 be
       0.46886677 -0.755728 3.2448673 -0.25027227
000100 7c 7c ae 3f c4 59 ae 3f 58 00 22 bf 93 6b 0b 40
       1.363174 1.3621144 -0.63281775 2.1784408
000110 b6 2d f9 bf 12 0d 03 bf 8a bd fd bf f7 f9 4b 40
       -1.9467075 -0.5119182 -1.9823468 3.1871316
000120 7f 1c 3d 40 30 66 13 3f 0a ae 03 40 90 f5 eb 3f
       2.9548643 0.575778 2.0574975 1.8434315
000130 3d 7c 4a 3e 23 ae 15 3f 75 90 df 3f 82 bd d8 be
       0.19773956 0.58468837 1.746596 -0.42332083
000140 cd e1 15 40 3e 91 69 c0 e6 03 09 3f e8 7d d0 bf
       2.3419068 -3.6494899 0.53521574 -1.6288424
000150 67 e7 6d 3f 7c 89 6b 3f 9e da cd 3e 5e 37 ac 40
       0.92931217 0.9200666 0.40205854 5.3817587
000160 b8 38 f9 3f ff 31 f5 3f 72 01 81 3e ba 02 e5 bd
       1.9470434 1.9155883 0.25196415 -0.11182161
000170 2f 3c 76 3f 94 5f 40 c0 b2 0f 69 bf 85 be dd be
       0.9618558 -3.0058336 -0.91039574 -0.43309417
000180 37 41 86 3f 61 c1 9f 3f 88 9e 2f 40 d3 98 b2 40
       1.0488652 1.248089 2.744051 5.5811553
000190 24 e1 d6 3f 01 2e a9 40 b1 25 90 bf f5 fe 87 3f
       1.6787457 5.2868657 -1.1261503 1.0624682
0001a0 dd 08 e6 3e 97 2b fb 3f e9 5d a9 3f bb 20 a9 bf
       0.44928637 1.9622678 1.3231784 -1.3213114
0001b0 33 ca bf 3f c0 a5 e5 3f bb d5 1e 3f 0f 4d 08 3f
       1.4983581 1.7941208 0.62044877 0.5324258
0001c0 af de 25 40 40 f7 8e 3f 23 5b f8 3f 94 5e e7 3f
       2.5917165 1.1169205 1.9402813 1.8075738
0001d0 53 32 9d 3f 0d c9 40 40 02 22 d3 be 63 3e ae bf
       1.2280983 3.0122712 -0.41236883 -1.3612789
0001e0 61 bc c1 be f4 49 de be 20 37 33 be e0 84 69 be
       -0.37839034 -0.43415797 -0.17501497 -0.22804594
0001f0 ee df 00 3e bb 47 67 be 97 fa c6 be 4a 24 c7 3d
       0.12585422 -0.22585957 -0.3886306 0.097237185
000200 e9 f8 ad bd 4b 8f bc be 0c f0 cf be bf 5e cc be
       -0.084947415 -0.36828074 -0.4061283 -0.39916036
000210 af 46 b6 be 91 f1 bb be 4f 02 22 be e4 bf ca be
       -0.35600802 -0.36707738 -0.15821193 -0.39599526
000220 f3 06 2c bf 1c 6e e6 bd 61 77 03 be 3a 13 da be
       -0.67198104 -0.112514704 -0.12838508 -0.42592794
000230 54 b6 1a bf 93 4a 76 be f1 ee 0a 3b 53 df 33 be
       -0.6043446 -0.24051885 0.002119955 -0.1756566
000240 30 0c 8a be 31 ea 0a bf 91 5c 7b be 76 96 37 be
       -0.26962423 -0.542636 -0.2454703 -0.1792849
000250 91 40 b7 be c4 3c 84 be af 0c 57 bd bb 56 07 be
       -0.35791448 -0.2582761 -0.05250233 -0.13216679
000260 b8 41 a9 be 06 b5 02 bf 26 bc 10 be 98 74 84 bd
       -0.33057952 -0.5105747 -0.14134273 -0.06467551
000270 75 05 32 bf 76 30 e3 be fa da 84 be 7e 91 7d be
       -0.69539577 -0.4437291 -0.25948316 -0.24762532
000280 20 8a c5 be 72 60 ed 3a c1 fa fc 3d 06 49 ac be
       -0.38581944 0.0018110408 0.12352515 -0.33649462
000290 c8 c9 d2 be 99 ab b1 be 03 bd 15 be 4a f8 5a 3d
       -0.41169572 -0.3470123 -0.14622883 0.053459443
0002a0 8d 0c 5b be 0c 43 1d be 9e 12 ab bd 3a ca d1 bd
       -0.21391506 -0.15357608 -0.0835316 -0.1024365
0002b0 6d 3a cd be 38 51 20 bf ec 82 b3 be fe 83 9c be
       -0.40083638 -0.6262393 -0.35060823 -0.30569452
0002c0 36 73 b6 be 2f 88 08 bd 04 f8 e9 be 96 c5 e3 3d
       -0.35634774 -0.033333 -0.45697033 0.11121671
0002d0 90 61 bd 3d ca 4d 03 3e eb 7e 37 3e 66 87 77 3e
       0.09247124 0.12822643 0.17919509 0.24172744
0002e0 ed e4 f0 3d bd 56 61 3e a8 b5 ae 3e da 87 94 3e
       0.11762414 0.22005744 0.34122968 0.29009897
0002f0 fe e6 07 3e 48 f1 6d 3e 49 c2 10 3c 26 4d 82 3e
       0.1327171 0.23236573 0.008835384 0.25449485
000300 71 da 97 3e e1 19 3b 3e e6 8d d9 3d 86 e4 20 3e
       0.29658845 0.18271591 0.10622768 0.15712175
000310 fa 0a 63 3d 41 f7 c2 3d 28 24 88 3d 7a 29 3b 3c
       0.05543039 0.09519816 0.06647521 0.011423463
000320 2d 5c 8f 3e 6e af 2a 3e 69 18 1b 3e b2 2f 98 3e
       0.28000012 0.16668484 0.1514603 0.2972389
000330 46 63 fd 3d 9d 9e 91 3e 1b b1 29 bc 5d 04 85 3e
       0.123724505 0.28441325 -0.010357167 0.2597989
000340 c4 a4 a3 3e 2c eb 4b 3d b1 35 8c bd b2 a3 f4 bd
       0.31961644 0.049784824 -0.06846178 -0.11945285
000350 9f e0 0f 3e 75 7d cf 3e c3 24 9d 3e 20 dc 13 3e
       0.1405053 0.40525404 0.3069211 0.1443944
000360 81 a1 d5 3e 45 e0 1d 3e 73 10 5c 3e e4 28 01 3b
       0.4172478 0.15417583 0.2149065 0.001970821
000370 6a b0 39 3e 3e 26 8a 3b 57 14 cb bd 9f 56 80 3e
       0.18133703 0.0042159846 -0.09915989 0.25066087
000380 6e 99 3c 3e dd 94 bd 3d a6 60 77 3d 10 31 f2 3c
       0.18417904 0.09256909 0.060394906 0.02956441
000390 d9 ae 88 3e 08 ea 0f 3c 5b 32 97 3e ff d6 b8 3d
       0.26695898 0.008783825 0.29530606 0.09025382
0003a0 6a 97 8d 3e 77 af 60 3e ff a0 4b 3e a9 40 c3 3d
       0.27654582 0.21941935 0.19885634 0.09533817
0003b0 5b f4 64 3e 3a 71 df 3d ab 53 76 3e 64 8a a1 bd
       0.22358839 0.10910268 0.24055354 -0.07887724
0003c0 75 5c 06 c0 4a e8 5e 40 b3 78 29 be df d8 f5 bf
       -2.0993931 3.4829278 -0.1654995 -1.9206809
0003d0 86 e3 e9 bf 6f e4 9a bf a6 a3 83 40 8f e7 23 c0
       -1.827256 -1.2100962 4.1137266 -2.5610082
0003e0 a9 ee b3 3f d9 6f 81 3e 7e 49 76 40 c5 79 70 bf
       1.4057208 0.25280645 3.8482356 -0.93935806
0003f0 de e6 20 c0 8c e2 f5 3e 22 85 1b bf 60 13 82 bf
       -2.514091 0.48024404 -0.6075002 -1.0162163

2.bias f4 [20]
000000 8d d9 6a 40 f6 6e a0 3f 70 2b 92 bf 15 c1 48 3f
       3.6695282 1.2533863 -1.1419506 0.7841962
000010 2c 50 cb bf 71 67 33 3f 06 27 a4 c0 b8 43 da 3d
       -1.5883842 0.70079714 -5.1297636 0.106574476
000020 24 f5 a0 c0 59 12 5f bf d2 be 2b 3f 90 d1 b0 bf
       -5.0299244 -0.8713737 0.67088044 -1.3813953
000030 aa 07 aa be c8 b7 2e 3f 99 b1 12 3d 7c ab 91 bf
       -0.33208972 0.6824918 0.0358139 -1.1380458
000040 3c ef 4c 3f e4 25 5b bf 0f 80 1d bf 6d 77 3b 3f
       0.8005254 -0.8560469 -0.61523527 0.73229104

4.weight f4 [1, 20]
000000 4e 63 71 40 73 5e 80 40 ba 9c 88 c0 3a 84 8a 40
       3.771686 4.0115294 -4.2691317 4.328641
000010 35 f8 44 c0 5c 04 8a 40 5f e7 af 40 b1 24 92 3f
       -3.0776494 4.313032 5.4969935 1.1417447
000020 d3 ae e6 3f a2 12 89 c0 6e 17 8c 40 de 59 86 c0
       1.8022102 -4.2835245 4.37786 -4.19847
000030 b4 5d 26 40 0c c3 fd bf c9 f9 03 bf d6 ed 86 c0
       2.5994692 -1.9825149 -0.51553017 -4.2165327
000040 18 59 89 40 fc fb 88 c0 f0 04 8c c0 36 89 8b 40
       4.2921257 -4.28076 -4.3756027 4.3604994
