main_app/deep_model_strength/torch_model_params.pkl (torch_old, 38373 bytes, 19 tensors)

0.weight f4 [80, 39]
000000 36 e5 0e bf 21 3a d5 bf 6c 92 37 c0 60 96 ee 3d
       -0.558185 -1.6658365 -2.868312 0.116497755
000010 c2 8b cc 3e 96 e2 ee 3f bf a5 e5 be cf 4f 0c 3e
       0.39950377 1.8662899 -0.44853017 0.1370232
000020 e2 7e a0 3e 8d 05 3b 3e be 50 b7 3e 76 0f 87 c0
       0.31346804 0.18263836 0.3580379 -4.2206373
000030 84 78 06 3e 96 50 7b 3c 41 fd 79 3f a8 a1 93 be
       0.1313191 0.015339037 0.9765206 -0.2883427
000040 b5 89 dd be c5 d1 06 c0 13 49 f4 3f a0 99 5c be
       -0.43269125 -2.1065533 1.90848 -0.21542978
000050 5b 22 f3 3e 0b 4c 98 bc 21 d6 b2 bd d6 fa 57 3d
       0.4748715 -0.018590948 -0.08732248 0.05272945
000060 ec 51 66 be e7 a8 09 c0 63 e7 31 c0 dc ce af 3e
       -0.22492188 -2.150934 -2.7797477 0.3433751
000070 ae 46 9d bf a6 c6 80 3f 4b 7a d0 3d ab 88 bf 3c
       -1.2287195 1.0060623 0.101795755 0.023380598
000080 bf 81 df be e7 79 33 3d 4a 16 18 3b 60 fc 1a bb
       -0.43653676 0.043817427 0.0023206645 -0.0023648962
000090 69 71 18 3e 92 5f ae bd 7f a7 83 3e f2 75 d1 3f
       0.14887013 -0.08514322 0.25713727 1.6364119
0000a0 ee f3 22 40 52 e0 01 c1 d5 d7 02 c0 c1 1f ae bf
       2.5461383 -8.117266 -2.0444233 -1.360344
0000b0 e8 01 1d bf 1f bb 32 3c c5 89 74 bd bd cc c0 3d
       -0.61331034 0.010908871 -0.0597017 0.09414051
0000c0 89 79 47 be cb 07 2d be 3f 39 6f c0 af 66 5d bf
       -0.19479956 -0.16897504 -3.737869 -0.8648481
0000d0 91 7d 17 c0 d0 54 b9 be 87 ab 0c bf 76 ee a3 bf
       -2.367039 -0.3619752 -0.5494923 -1.2807148
0000e0 a1 6c 21 41 e8 81 00 3f d2 c1 c2 bd f3 47 74 3c
       10.089021 0.5019822 -0.095096245 0.014909732
0000f0 bf 60 8d be 62 be 49 3e 2d 39 c8 3d c6 2e 00 bc
       -0.27612874 0.19701532 0.097765304 -0.007823652
000100 76 78 e4 bf 05 32 63 3f d5 c5 9e 3e 9d 81 d1 bf
       -1.7849262 0.887482 0.3101031 -1.636768
000110 68 da c9 3f 29 d0 40 3d 84 93 ab bd 03 44 72 3f
       1.5769777 0.047073517 -0.08377746 0.9463503
000120 0c 15 a0 bb f9 c8 a1 3e 9a 5b e8 3d 57 55 5d bc
       -0.0048853215 0.31598642 0.113455966 -0.013509116
000130 8a 08 35 3f 49 0a d9 be 8b 85 32 c0 75 f4 9c bf
       0.70716155 -0.4239066 -2.7894008 -1.2262102
000140 e2 b1 03 41 c1 58 8a 3f 62 31 d0 3e a6 4f 95 3e
       8.230928 1.0808336 0.40662676 0.2916233
000150 2a 87 13 3e 14 9a 68 3e 73 7f 41 3e 22 ce c7 be
       0.1440703 0.22715026 0.18896274 -0.39024454
000160 24 55 b7 be fd d7 02 c0 34 e1 11 3e 0c 30 56 c0
       -0.35807145 -2.0444329 0.14246064 -3.3466825
000170 30 f5 66 3f eb 1a 09 40 43 d9 ab 3f d7 fc d5 c0
       0.90217876 2.142268 1.3425678 -6.6871142
000180 e3 f8 c1 3f 60 10 46 3e 40 4f db bd 8b f2 c2 3e
       1.5154079 0.19342184 -0.10708475 0.3807567
000190 23 f5 e0 3c 75 e3 22 be 2e ca 93 3e 1d 56 4e 3e
       0.02746064 -0.1590708 0.28865188 0.20150037
0001a0 3c 45 2d c0 ae 72 03 bf ac 9d 3e bf 2b 39 8b c0
       -2.7073507 -0.5134686 -0.7445934 -4.3507285
0001b0 49 57 10 3e e0 15 65 3e 3d 90 da be ac 67 a2 3d
       0.14095797 0.22371626 -0.4268817 0.0792993
0001c0 17 56 20 3e 35 ad 0c 3e 30 2c b7 3c 54 0d 45 3e
       0.1565784 0.13737948 0.022359937 0.19243366
0001d0 3c e9 5b be 89 bb 54 c0 76 5b b9 bd b1 84 03 41
       -0.2147569 -3.3239462 -0.09050648 8.219895
0001e0 4c 07 42 bf 7f 27 07 bf 69 b3 32 3f 78 97 4a be
       -0.75792384 -0.5279464 0.6980501 -0.19784343
0001f0 bc d1 1b be 35 b6 12 be 1c c6 aa be e4 53 70 be
       -0.15216726 -0.14327319 -0.3335427 -0.23469502
000200 f5 75 bc bf 20 85 d8 3e 69 f1 cb 3f 3f 3a 20 3f
       -1.4723498 0.42289066 1.5933048 0.62588876
000210 64 29 06 3f 37 5a c5 3f 68 2a 67 c1 db c1 29 40
       0.5240691 1.5418156 -14.447853 2.652457
000220 57 d8 69 3d b1 37 4b 3e 90 1d 73 3e 25 f6 2e bc
       0.057091083 0.19845463 0.23741746 -0.010678803
000230 24 c5 95 3c ef 5b 86 3d cc 85 d4 3d 7c 47 10 c0
       0.01828248 0.06560504 0.10377082 -2.254363
000240 b6 9d e3 bd 6e f5 c9 3e e7 9b b2 bf 4f 11 b4 3d
       -0.11114065 0.3944506 -1.3953828 0.08792364
000250 84 23 59 be 46 b1 33 be bb 11 56 be 67 80 f4 3d
       -0.21204954 -0.17548093 -0.20905201 0.11938553
000260 94 d4 e4 bd 41 f6 9a 3d 88 0b 17 3f d6 ed 1c bd
       -0.111733586 0.075665005 0.5900197 -0.038312756
000270 b1 45 1c bf 89 68 84 3f 06 ed 50 3d d9 2e 13 be
       -0.6104384 1.0344402 0.051007293 -0.1437334
000280 6c c2 e3 3e 42 c7 49 3f 45 9a 22 3e 8b 95 bf bc
       0.4448427 0.7881967 0.15879162 -0.023386737
000290 3b 18 6f be 4a a1 e9 bd 5c 53 1a be 61 06 9b 40
       -0.23349087 -0.114077166 -0.15070862 4.8445287
0002a0 b3 2d f8 bc 97 25 93 3f 3d 99 2d bf 40 c0 2f 3f
       -0.030295229 1.1495847 -0.6781195 0.68652725
0002b0 b0 07 d6 c0 dc 9d e3 c0 3d 3d 81 3f 90 0b e1 bd
       -6.6884384 -7.11302 1.0096813 -0.109885335
0002c0 30 52 1e 3e 2a b9 55 3d d5 0d f0 bd 03 37 f7 bd
       0.1546104 0.05217854 -0.11721388 -0.120710395
0002d0 30 00 1a 3e 98 34 bf 3f 46 39 98 3f ce e9 3d c0
       0.15039134 1.4937925 1.1892478 -2.9673953
0002e0 21 cf 08 3f 94 7d a1 bf d2 b4 80 3e 43 72 ff 3c
       0.53441054 -1.2616448 0.25137955 0.031182414
0002f0 e1 11 18 bf dd b2 73 3e 31 ca 79 3d 2f e4 62 3e
       -0.5940228 0.237987 0.06098384 0.22157358
000300 71 c0 22 be 90 ed fa 3e a2 e0 f3 bd 0d 5a 3c be
       -0.15893723 0.4900937 -0.1190808 -0.18393727
000310 b6 15 14 40 24 73 86 3f 0d 7f 38 3d b9 bf 1b be
       2.3138251 1.0503888 0.04504304 -0.15209855
000320 87 37 24 bf 6f 87 16 bc 53 89 c6 bf 0f 1c 18 3d
       -0.6414723 -0.009187563 -1.5510658 0.037136134
000330 56 83 b0 be 32 12 02 bf 4a f4 bb be 4a 30 89 bf
       -0.344752 -0.50809014 -0.36709815 -1.0717862
000340 61 db 17 3e ae 46 95 3f cf ce 57 3c f7 4d 5f 3e
       0.1482978 1.1662195 0.013171866 0.21807085
000350 1e ae a9 3f c9 62 25 bf 21 44 98 bc 66 c2 3e 3f
       1.3256261 -0.6460386 -0.018587174 0.7451538
000360 86 e0 ab 3e a5 ed 58 bd 0c d5 5d 3f 00 e6 a6 3c
       0.33569735 -0.05296101 0.8665321 0.020373344
000370 1f 46 e0 be eb 69 b8 be 39 45 21 bf 16 5f 12 bf
       -0.43803498 -0.3601831 -0.6299625 -0.5717634
000380 33 d8 64 be c6 f3 44 bd a7 d8 23 3d 66 c1 22 3e
       -0.22348098 -0.048084043 0.040001538 0.15894088
000390 1e be b6 3d ce b1 be 3c fc bb e2 bd 6f ff 01 be
       0.08922981 0.023278143 -0.110710114 -0.12695096
0003a0 69 f7 b3 be 11 dc 0a be 51 db 07 bf e8 a1 05 c0
       -0.35149696 -0.13560511 -0.53069025 -2.088007
0003b0 18 07 8a 40 73 00 13 bf d3 02 e0 3e dd 6c 3a bf
       4.313366 -0.5742256 0.43752155 -0.7282236
0003c0 61 86 20 be 59 b0 bb bd 4b 05 d0 bc 48 de d5 be
       -0.15676261 -0.09164495 -0.025393149 -0.4177115
0003d0 79 b8 9c be 54 b1 a6 40 c9 53 bb bf 54 12 a1 bf
       -0.3060949 5.2091465 -1.4634944 -1.2583718
0003e0 8e 02 c0 bf c9 0b b1 3d dc e8 12 c0 80 90 49 c1
       -1.500078 0.08644826 -2.2954626 -12.597778
0003f0 51 0f 8f bf ae 57 6e 3e f9 d3 57 3e 50 8d d7 3e
       -1.1176549 0.23275635 0.21076955 0.421

0.bias f4 [80]
000000 5e 2f be bb 5f 00 ca be 22 72 23 3e aa 43 ba be
       -0.0058039865 -0.39453408 0.15961507 -0.3637975
000010 08 a8 7e 3d af 34 02 be 5e c7 74 3d 46 e0 75 be
       0.062171966 -0.1271541 0.059760444 -0.24011335
000020 1b 06 92 3e cb d9 5d 3d 3e 59 76 be 41 d2 3c be
       0.28520283 0.05416278 -0.2405748 -0.1843958
000030 de 25 22 bf 8d 1d 00 be 3d 35 b8 be 63 e1 f9 bd
       -0.6333903 -0.12511273 -0.35978118 -0.12201192
000040 b2 f4 fd be 70 6d 20 be 79 94 f8 be 66 61 c1 be
       -0.4960075 -0.15666747 -0.48550776 -0.37769622
000050 18 84 3a be 42 db ed be 56 b5 e5 be 86 f9 33 be
       -0.18214452 -0.46456343 -0.4486491 -0.17575654
000060 71 f0 05 be b2 03 18 bc 5f fe 17 3e cf cd 09 3f
       -0.13080002 -0.009278225 0.14843129 0.53829664
000070 f8 27 99 be bb 46 4b bd 8d 2e 0f be b0 81 c4 bd
       -0.29913306 -0.049628 -0.13982601 -0.095950484
000080 0a 1e 94 be 0f 0b 52 3d ff 70 da bb 66 4c ed be
       -0.28929168 0.051280078 -0.006666302 -0.4634735
000090 b2 e3 9f be d5 f9 a9 bd 9f cd ad 3e b0 cf 04 be
       -0.31228405 -0.08299605 0.3394594 -0.12969851
0000a0 9e 7f 51 bd 67 5d 3e be 92 72 f2 be b5 0b c5 be
       -0.051147096 -0.18590318 -0.47353035 -0.38485494
0000b0 be 58 e5 be dc 52 c1 be 76 94 af be b7 f3 6a bd
       -0.44794267 -0.3775853 -0.34292954 -0.05736133
0000c0 49 4e b0 bc 40 9a 9b be 63 da 6d 3c a1 2d 8c be
       -0.021521704 -0.3039112 0.0145173995 -0.27378562
0000d0 07 f2 a1 be 61 90 a3 be 4c 93 a4 3e 84 49 a6 be
       -0.31629965 -0.3194609 0.3214363 -0.32477963
0000e0 18 ea 0c bf e2 3c ac be 24 3f 54 be 03 38 7d 3c
       -0.550447 -0.336402 -0.20727211 0.015455249
0000f0 83 a0 bb 3e 5c 38 2a be 67 8e cf 3d 89 87 9a bd
       0.36645898 -0.16623062 0.10134583 -0.075453825
000100 95 cc 9a 3e 3a af fc be 47 59 fc 3d 4b 4c 04 be
       0.3023421 -0.49352437 0.12321716 -0.12919728
000110 4e 3b e1 bc 39 2f 36 bd 6a 63 b5 be 56 b9 89 be
       -0.027494099 -0.04447863 -0.3542741 -0.26899213
000120 42 2d e8 bd 0a ec b0 3e a5 6b 5f be b8 f3 8f be
       -0.11336757 0.34555084 -0.21818407 -0.2811563
000130 6c ac 06 bf 15 18 14 bb 0f 45 af 3d ca 2d d0 3c
       -0.52606845 -0.0022597362 0.08558094 0.025412459

3.weight f4 [80]
000000 87 cd b6 3d d2 53 75 3f 27 7b 2c 3f ae 7d 93 3f
       0.0892592 0.95831025 0.67375416 1.1522729
000010 36 f8 97 3f 5e 80 fb 3c 0f 5c 34 3f 30 75 68 3f
       1.1872623 0.030700859 0.7045297 0.90803814
000020 cc 78 18 3f 64 45 a1 3f 7d a5 2e 40 54 19 a7 3e
       0.5955932 1.2599301 2.7288506 0.3263651
000030 bb 0b bc 3f 68 cc 3a 3f 45 68 b4 3f 67 24 91 3f
       1.469108 0.7296815 1.409432 1.1339234
000040 28 25 67 3f 82 4a 82 3f 9d 44 53 3f 5b 2e ad 3e
       0.9029107 1.0178988 0.8252657 0.3382443
000050 57 f6 5f bb 13 54 48 3f 65 22 2f 3e 3b 6a b1 3f
       -0.003417393 0.7825329 0.17102964 1.3860544
000060 8a 03 a5 3d b9 da 48 3f 24 43 43 3f 3a 6a 0a 3f
       0.08057316 0.78458744 0.76274323 0.5406834
000070 a1 35 8f 3f 6e 79 db 3f d0 f5 62 3f 44 53 c7 3f
       1.1188241 1.7146432 0.8865633 1.5572286
000080 a9 10 e9 3f cf 2f 15 40 15 b3 72 3f 8e 05 20 3f
       1.8208209 2.331043 0.9480451 0.62508476
000090 62 5c d1 3f a9 a3 55 3f 1e 75 82 3e e9 e6 cc 3f
       1.6356318 0.8345285 0.25479978 1.6007968
0000a0 2c 6b 1c 3f 2d f4 65 3f 2b 7b e3 3e 11 90 21 bb
       0.6110103 0.8982571 0.44429907 -0.002465252
0000b0 7d b9 03 40 89 47 9c 3f f7 8a 8b 3f bf 4f 0c 3f
       2.0581963 1.2209331 1.0901784 0.5480918
0000c0 00 06 41 3f 89 e1 ff 3d f5 2d 97 3f 6c 5f 04 3f
       0.7539978 0.12494189 1.18109 0.517081
0000d0 12 dd 07 40 f9 36 e7 3f 73 6a 5f 3f 8f 15 81 3f
       2.122868 1.8063651 0.87271804 1.0084704
0000e0 52 0a 08 3e 1f c6 1b bd 8e ec 21 3f d4 d8 78 3f
       0.13285187 -0.03803074 0.6325158 0.97205853
0000f0 ce b4 0f 3f d8 56 5f 3f c8 d7 2e 3f 8e cd 8a 3e
       0.5613526 0.8724189 0.68298006 0.2710995
000100 5f 6c 24 3f 52 64 d0 3f ec b0 9c 3f 7b 6a 2a 3f
       0.6422786 1.6280615 1.2241492 0.66568726
000110 5b 55 32 3d 4e 81 ca 3f 22 34 c7 3f 59 0b 9c 3f
       0.043538433 1.5820711 1.5562785 1.2190963
000120 dc 10 4f 3f 87 48 8b 3f 04 10 21 3f 61 ba cc 3f
       0.808851 1.0881509 0.6291506 1.5994378
000130 35 8c ce 3f 5a e1 87 3f ae f6 8e 3f e4 30 3e 3f
       1.6136538 1.0615647 1.1169031 0.7429335

3.bias f4 [80]
000000 4b 78 a1 bd 64 27 84 3e 89 e8 8f bd cd 8a 09 3e
       -0.07884272 0.25811303 -0.070267744 0.13431855
000010 2b ce 81 be 73 18 a6 3d 89 96 2f 3f ed b0 99 bd
       -0.25352606 0.08110132 0.68589073 -0.07504449
000020 f8 8f dd be d9 3f 5b bf b9 5a fd 3e e9 e8 07 3f
       -0.43273902 -0.856443 0.49483278 0.5308977
000030 77 30 c7 3c 6e 31 3e 3f 11 d6 b9 bc 95 3e 69 3e
       0.024315102 0.74294174 -0.022685083 0.2277778
000040 ef 74 4e 3e 56 1c 3b be e2 18 e1 3e 38 03 d8 3e
       0.20161794 -0.18272528 0.43964297 0.42189956
000050 5c 74 b2 bd 9e 5e c1 3c d0 aa d9 3e 6b e6 4c bd
       -0.087136 0.023604687 0.42513132 -0.05002443
000060 f3 76 4e 3d bc cd 87 bd fb d2 2e 3c 81 92 e2 3e
       0.050406408 -0.066310376 0.010670419 0.442524
000070 33 0f 1b 3d c0 35 df bd c9 0c 10 3e c0 28 44 3f
       0.037856292 -0.10898924 0.14067377 0.7662468
000080 98 ac 87 3d d9 2e 1b 3f 76 a0 59 be 16 7e e0 be
       0.066247165 0.6061836 -0.21252617 -0.43846196
000090 3f ae 2e 3e 51 f5 b3 bd e4 ff 07 3f f6 5b 6f 3a
       0.17058657 -0.08787025 0.53124833 0.000913083
0000a0 f9 41 03 bf 6b 9c b0 bd 42 eb 47 3f fd aa c8 3c
       -0.5127254 -0.08623584 0.7809335 0.024495596
0000b0 45 31 cc bc 6a f1 96 be 37 71 46 3f c5 5b e9 be
       -0.024925837 -0.2948106 0.775165 -0.45577827
0000c0 53 07 d6 be 96 ff ee ba b6 9f cd bd f6 7e ac 3e
       -0.41802463 -0.001823413 -0.10040228 0.33690614
0000d0 6e dd ef 3e 23 c4 33 3c 61 65 07 be e0 0b 01 3f
       0.46848625 0.010972056 -0.13222267 0.50408745
0000e0 c7 0a 52 be 4e 4b b5 3c 63 45 d8 be 11 12 ab 3e
       -0.20511924 0.022130635 -0.42240438 0.3341222
0000f0 74 6a ac 3d 0e c6 73 3e 5d e5 f8 3e 16 b1 96 3e
       0.08418742 0.2380602 0.4861249 0.2943198
000100 de ad ea be dc cc 9e be 0f 8b 65 bd af 96 1e 3e
       -0.45835775 -0.3101567 -0.05604082 0.15487169
000110 27 4b 94 be 24 7d 87 be 5a 45 99 3e b1 32 bc 3d
       -0.28963587 -0.26462662 0.29935724 0.09189356
000120 13 36 5c be 0e 27 3b bf 66 1d f3 be d4 c5 63 bd
       -0.21505003 -0.7310647 -0.47483367 -0.055608585
000130 95 2a f0 bc f7 cf 52 be 0a 7a 8f be 4d a6 ad be
       -0.02931718 -0.20587145 -0.28022796 -0.3391594

3.running_mean f4 [80]
000000 9c 33 92 44 2e d4 a8 c1 94 94 fa 43 8f 6b 2c c0
       1169.6128 -21.103603 501.16077 -2.6940649
000010 d4 ea 0a c1 6f 20 4f c1 6c d2 2e c1 ef db 13 c1
       -8.682331 -12.945418 -10.926373 -9.241195
000020 d6 2b 36 44 e0 47 0a 43 17 4c 3e 43 57 d1 2e c1
       728.68494 138.28076 190.29723 -10.926108
000030 16 2f ae 42 bf 7e df c0 18 6d d0 43 e6 d7 de 42
       87.091965 -6.984222 416.8523 111.42168
000040 79 93 0d c1 fa 94 e9 c0 7e be ce 42 5e 7f 1a c1
       -8.848504 -7.2994356 103.372055 -9.6560955
000050 82 fa 64 40 0a 79 38 c0 7f e1 fb c0 cf 8c cc c0
       3.5777898 -2.8823876 -7.8712764 -6.3921885
000060 76 59 08 c1 8e 8b c3 43 b2 55 10 44 ee ac 0f 44
       -8.521841 391.09027 577.339 574.702
000070 29 bb 2b c1 8c 6b e2 42 06 d2 47 43 7a 5b 02 43
       -10.733193 113.21005 199.8204 130.35733
000080 7c f0 52 43 22 7a e9 c0 4c ff dc c0 39 21 d9 c0
       210.93939 -7.296159 -6.906164 -6.7853055
000090 fc 37 85 c0 ae 3e 10 c1 a1 b8 e9 44 c4 84 02 44
       -4.163084 -9.015303 1869.7697 522.07446
0000a0 5f e7 8e c0 e7 97 55 c1 ff 5e c3 c0 f5 0a 11 c1
       -4.4657435 -13.349586 -6.105346 -9.065175
0000b0 ad d1 a2 c0 48 da d9 c0 33 11 91 c0 8c 55 cf c0
       -5.088095 -6.8078957 -4.5333495 -6.4791927
0000c0 b7 88 09 c1 6c 4c 4b c1 3f 81 a4 c0 20 59 db c0
       -8.595878 -12.706158 -5.140777 -6.8546295
0000d0 c9 7d 45 43 71 16 1b 43 60 c0 06 44 1c 2f f4 c0
       197.49135 155.08766 539.00586 -7.6307507
0000e0 56 f1 df c0 7f 27 b2 c0 22 db 42 c1 9f b6 b7 c0
       -6.99821 -5.5673213 -12.178499 -5.7410426
0000f0 25 52 06 44 0f 7e 51 c1 5e 4e 96 43 cb fc aa c0
       537.2835 -13.093276 300.61224 -5.3433585
000100 63 e0 9b 44 47 16 72 43 0d 50 12 44 c6 b5 02 c1
       1247.0121 242.08702 585.2508 -8.169378
000110 49 a7 ce 42 4f 0a 8c 42 2d 5f 2c 43 88 46 f7 c0
       103.32673 70.020134 172.37178 -7.72736
000120 19 8d 48 c1 aa d8 7a 43 55 49 bf c0 b0 34 4d 43
       -12.534448 250.84634 -5.9777017 205.20581
000130 b0 90 2e c1 b8 71 19 44 0b a3 b9 44 0c d2 ca c0
       -10.910324 613.77686 1485.0951 -6.3381405

3.running_var f4 [80]
000000 f9 bc bf 46 37 0e fe 3e 43 93 e8 45 f1 29 8c 3e
       24542.486 0.4962022 7442.4077 0.2737575
000010 be 0d c8 3f d7 e6 c0 41 48 11 6e 3e 87 c3 1d 3f
       1.5629194 24.112715 0.2324878 0.61626476
000020 61 ac 81 46 3a 77 68 46 d5 15 d0 46 ac 20 99 40
       16598.19 14877.807 26634.916 4.7852383
000030 9d f0 03 46 e3 71 73 40 e3 e0 41 46 e4 48 73 46
       8444.153 3.803826 12408.222 15570.223
000040 f2 9a a2 3f 44 f5 05 40 da be 39 46 3e 65 34 40
       1.2703536 2.0930948 11887.713 2.8186793
000050 5c b5 90 45 ff 73 eb 3e 69 8e 7f 40 b0 e9 0f 3f
       4630.67 0.45986935 3.993067 0.56215954
000060 67 12 70 41 d0 b2 e4 45 6f 46 66 46 9b 0f 20 47
       15.004493 7318.3516 14737.608 40975.605
000070 24 08 29 3e 25 e4 22 46 1a e5 9c 46 7f 2b ac 46
       0.16507012 10425.036 20082.55 22037.748
000080 88 fd de 46 d8 32 a6 40 f2 49 a2 3f e5 cf b9 3e
       28542.766 5.1937065 1.2678816 0.36291423
000090 e4 f8 23 40 96 05 ca 3e 16 21 8b 47 96 b7 67 46
       2.562066 0.39457387 71234.17 14829.896
0000a0 35 9b 64 3f 15 b8 63 3e 5d a4 4e 40 c5 32 07 41
       0.8929933 0.2223819 3.228782 8.449895
0000b0 40 ef a6 3e d7 0a 2a 3f 18 61 38 3f df 88 a2 3f
       0.32604408 0.6642279 0.72023153 1.269802
0000c0 9c 81 9b 3f 36 5f 83 41 f8 d9 5b 40 24 f9 25 40
       1.2148929 16.42149 3.4351788 2.5933313
0000d0 fb 46 d2 46 32 7e a5 46 7d f6 6d 46 a9 bf 09 40
       26915.49 21183.098 15229.622 2.152323
0000e0 2d 03 1e 40 ca 77 ad 40 bb 3e 32 40 98 90 4d 3f
       2.4689438 5.4208727 2.7850788 0.8029876
0000f0 34 b4 5e 46 75 d4 e1 3f da 67 9c 45 f5 59 e7 3f
       14253.051 1.7642962 5004.9814 1.8074328
000100 f4 f5 a9 45 d3 51 11 47 4d 26 c5 46 20 9d 4c 40
       5438.744 37201.824 25235.15 3.1970901
000110 21 ea a3 46 87 3d 87 46 61 7c d5 46 fb 03 4e 3e
       20981.064 17310.764 27326.19 0.20118706
000120 94 cf a2 3e 26 67 5a 47 e8 0e 94 3f 48 88 ee 46
       0.31798995 55911.15 1.1567049 30532.14
000130 99 10 02 3f 52 69 e0 45 74 08 72 46 3e 4f 40 3f
       0.50806576 7181.165 15490.113 0.75120914

4.weight f4 [50, 80]
000000 91 d8 08 be 0b bf b6 3d 29 84 16 be 10 1c 44 bf
       -0.13363864 0.08923157 -0.14698853 -0.7660532
000010 b0 a9 0a 3e 84 4b 83 3e 64 4a d7 3e 1b 48 be be
       0.13541293 0.2564355 0.42048943 -0.37164387
000020 25 b1 90 be d0 bd c4 3f 8e 0f 6c c0 70 c2 8f 3e
       -0.2826015 1.5370426 -3.6884494 0.28078032
000030 81 17 78 3d 9c eb 01 bf 6a e3 a4 bb 93 0d 80 3e
       0.06056929 -0.50750136 -0.0050319927 0.25010356
000040 23 ef 18 3e d4 18 1a 3f 4c 49 14 bf 11 a0 98 be
       0.14934973 0.60194135 -0.5792434 -0.2980962
000050 c7 8b ac 3e 9b 0d 65 3e e3 4c 98 3d 68 27 c3 3e
       0.33700392 0.22368471 0.0743654 0.38116002
000060 74 07 ba 3d b3 76 0c 3f 06 63 80 be fa d0 88 bf
       0.09083453 0.5486862 -0.2507555 -1.0688775
000070 f6 41 94 3f d9 60 92 3e 8b 55 21 bf 15 87 3b bd
       1.158263 0.28589514 -0.63021153 -0.04578312
000080 0e d8 84 bf 1f bb fe 3e de 1c 54 3e 3d b4 d9 bd
       -1.0378435 0.49752137 0.20714137 -0.10630081
000090 9d d6 99 bf 6e 50 30 3e 13 ae 11 bf 6f 83 3c bf
       -1.201862 0.17218181 -0.5690624 -0.7363805
0000a0 96 ac 3f be 63 87 2f 3f f0 d0 cc bd bc 17 d6 bd
       -0.1871818 0.6856596 -0.10000789 -0.10453746
0000b0 91 13 f4 3e 22 91 9a be a7 c3 82 3e a0 e9 76 3e
       0.47671178 -0.30188853 0.25539896 0.24112558
0000c0 7b 83 8f 3e f0 82 c7 be 26 0f 5c be 9f ac 3c 3f
       0.2803 -0.38967085 -0.21490154 0.737009
0000d0 8a d2 11 3f f7 13 3d be 4a ee 88 3e b7 0e 10 be
       0.5696188 -0.18464647 0.267443 -0.14068113
0000e0 44 47 2a 3d 54 71 e2 3d 9e ae e4 3e 42 dc ef 3e
       0.04157187 0.11056772 0.44664472 0.4684773
0000f0 33 51 ae bc 58 03 97 bd 49 11 05 bf 38 26 ee 3e
       -0.021278953 -0.07373685 -0.519795 0.46513534
000100 96 cd c0 be 43 57 09 3d aa 6e 3a 3e 54 2e 91 3f
       -0.3765685 0.033530485 0.18206277 1.1342263
000110 7c de b0 3e ae 86 0f 3f bf 0b 22 3f 81 76 af 3e
       0.34544742 0.5606488 0.63299173 0.342701
000120 aa 1b 44 3f 04 4f b0 3e 8d 01 3f be 7d 4b 82 3e
       0.7660471 0.34435284 -0.18652935 0.25448218
000130 94 d6 83 3e 3d 2f 84 3e 8e 75 38 bf cd 2d 2d 3f
       0.25749648 0.2581729 -0.72054374 0.6764801
000140 3c 0a 00 3f a4 27 7b be 87 27 9c 3c c9 ba 3e bd
       0.50015616 -0.2452684 0.019061817 -0.04656485
000150 9f 80 17 bf 44 5b 8f 3d 89 ab cb bf 7f 74 0a 3e
       -0.59180635 0.069998294 -1.5911723 0.13521002
000160 29 a4 1a 3e b2 b6 73 3f 2e a4 43 3e e0 76 18 bf
       0.15101685 0.95200646 0.19105598 -0.5955639
000170 72 4f 43 be da da 37 bf 44 05 13 3f 5c f7 1f 3e
       -0.19073275 -0.71818316 0.5742991 0.15621704
000180 da 17 0c be 5b f5 e9 3e ca f4 ad bd 0f 7c ae 3e
       -0.13680974 0.45695004 -0.084939554 0.34079024
000190 88 4e 30 3e 99 f7 7a 3f 06 65 ed be 6d d3 40 3f
       0.17217457 0.98034054 -0.46366137 0.7532261
0001a0 a2 a1 32 bf cc 36 84 3f 98 08 84 be 0e bf 80 be
       -0.6977788 1.0329223 -0.25787807 -0.25145763
0001b0 71 8e 8c 3d 5a 51 1b 3f 3b f6 08 bf 9b 42 e5 bf
       0.06863106 0.6067101 -0.5350072 -1.7910951
0001c0 95 bf 3b 3d af be a1 be ca c5 a7 be 92 22 c3 3e
       0.045837004 -0.31590793 -0.3276809 0.38112313
0001d0 03 fd 1e bf 45 d0 81 bc 12 bc 74 bf 6d c1 0b be
       -0.62104815 -0.015846381 -0.9559947 -0.13648005
0001e0 e5 58 87 be 4b 71 0e 3f dc 7f 96 bf 92 23 bd be
       -0.2643501 0.5564162 -1.175777 -0.369412
0001f0 de c7 63 3e 35 3f 00 bf dd 64 c1 3e 66 10 eb 3e
       0.22244212 -0.50096446 0.37772265 0.4591095
000200 be e5 3b 3f 54 eb 92 3d 2f 8e a3 3d 76 03 01 3f
       0.73397434 0.071737915 0.07986104 0.50395906
000210 5c 17 8f bf a2 64 bb 3e 34 dd 18 be 8e 8e 3c be
       -1.1179004 0.36600214 -0.14928132 -0.18413755
000220 99 ba 5b 3d ed ee 0c bf bc 5c 33 3f ed 3f 35 3f
       0.05364475 -0.5505207 0.70063376 0.7080067
000230 58 54 31 3f d1 49 87 be 20 e9 02 bf 53 c3 96 3d
       0.69269323 -0.26423505 -0.5113697 0.07361474
000240 00 50 38 3f b8 b7 81 bf cf f3 80 3e 7d 50 ff 3d
       0.7199707 -1.0134192 0.2518601 0.12466524
000250 16 37 e9 3e ed a4 5a bf e0 80 09 be ec d9 8e bf
       0.4554984 -0.85407907 -0.13428068 -1.1160254
000260 ee b1 d7 3e e3 1c 68 bf da ae e9 3e f5 02 99 bf
       0.42127937 -0.9066908 0.45641214 -1.1954027
000270 fe 49 00 bf 29 da 80 3f ce 2a ad bf 73 7e 75 bd
       -0.50112903 1.0066577 -1.3528688 -0.059935044
000280 36 18 25 bd 84 c7 35 be 63 74 c0 3e 74 de 28 3f
       -0.040306292 -0.1775189 0.37588796 0.65964437
000290 55 5f 2e 3f e0 67 66 3e f9 85 aa 3d 11 e3 4f 3e
       0.68114215 0.22500563 0.083263345 0.20301463
0002a0 70 1f bc 3d 57 7c 98 3e 44 01 00 bf 4b a3 fe 3d
       0.09185684 0.29782364 -0.5000193 0.124334894
0002b0 e6 55 a5 3e bb dd 01 bf 27 41 bc bc d2 ec 08 3f
       0.32292098 -0.5072896 -0.022980286 0.5348636
0002c0 20 bd 45 3e a7 3e 38 bd 48 54 3f be 99 71 34 be
       0.19310427 -0.044981625 -0.18684494 -0.17621459
0002d0 7e 2c e0 bd e1 0e b2 3e 48 e3 2e 3e c9 98 be be
       -0.10945986 0.34776977 0.17078888 -0.3722594
0002e0 b2 e2 22 be 73 c6 30 be 82 39 0a bf 66 15 a1 3e
       -0.1590679 -0.17263202 -0.53994 0.31461638
0002f0 10 c8 ec 3e 5b ed 01 3f d4 c8 53 3e 26 04 24 3f
       0.46246386 0.507528 0.20682079 0.6406883
000300 a4 46 66 c0 22 27 f1 3f eb ac 3d bf 7f 8e 97 3d
       -3.5980616 1.8840067 -0.74091977 0.07400226
000310 c2 71 2f 3f dd 1f 6d 3e e0 ee ef bc 83 5a c0 bf
       0.68532956 0.23156686 -0.02928871 -1.5027622
000320 d0 9e 3b 3e f3 38 42 be 87 e4 16 be 1d 61 07 3e
       0.18322301 -0.18967037 -0.14735614 0.1322064
000330 51 7d 77 3e 10 6b 7c 3e 23 7a 0d 3f f9 af ae 3e
       0.24168898 0.24650216 0.5526449 0.3411863
000340 3f e8 30 3e 69 b5 21 3e 97 17 91 3f fa 4d 3b 3d
       0.17276095 0.15791859 1.1335324 0.04572866
000350 61 18 49 3f 0c b1 5c be f7 83 e6 3e d6 05 4c bd
       0.78552824 -0.21551913 0.45022556 -0.049810253
000360 a0 9f c9 bd e1 0e 49 3e 7a c9 88 be d1 9f 01 3f
       -0.09844899 0.19634582 -0.26716214 0.50634485
000370 b3 b2 61 bd 51 ad 23 3f 54 ab 8e 3e 42 3b 4c be
       -0.05510206 0.63936335 0.27865088 -0.1994448
000380 82 34 10 bf 41 81 fe be d6 b0 b5 be ce 26 f5 bd
       -0.5633012 -0.49707988 -0.35486478 -0.11970292
000390 2e bb 68 bd 35 81 80 3e 81 a8 39 3e b5 fc a7 be
       -0.056819133 0.25098577 0.18130685 -0.32809988
0003a0 5f b2 b4 3e 68 68 ae 3e 1d bc 20 3f 36 6b f0 3e
       0.35292336 0.3406403 0.6278704 0.46956795
0003b0 df 68 e0 3d 19 8d 87 be b3 3c 27 3d 2a 2b 97 3e
       0.109575026 -0.26474836 0.04082937 0.2952512
0003c0 a7 5f 9d be 67 25 af 3d e1 9b bf 3e d9 66 8a 3e
       -0.3073704 0.08552056 0.37423614 0.27031592
0003d0 a6 e3 18 3f 6c 56 17 be af 48 86 be f7 38 3b 3e
       0.59722364 -0.14779061 -0.26227328 0.18283449
0003e0 07 17 60 be bb f1 91 3e a5 99 f9 be e7 c7 64 3f
       -0.21883784 0.28504738 -0.48750034 0.89367527
0003f0 55 b4 b9 bf 92 2e f7 3d fa 59 a4 bd 24 2b f8 3e
       -1.4508158 0.120694295 -0.08024974 0.48470414

4.bias f4 [50]
000000 e2 05 76 be 53 89 8a bf 8f 10 b8 be 1e 8e 8c 3f
       -0.24025682 -1.0823158 -0.35950133 1.0980871
000010 04 c5 69 3f b5 69 1f 3f 2f 87 e3 be db 9f 13 40
       0.91316247 0.6227067 -0.44439074 2.3066318
000020 6d 31 78 bf 5c 14 55 3e 55 e2 b7 3e 6c 56 dd 3d
       -0.9695042 0.20808548 0.35914865 0.10807499
000030 06 b4 11 bf 05 ff d2 3f 75 30 57 be 1a ec 89 3f
       -0.5691532 1.6484076 -0.21014579 1.0775177
000040 08 23 52 bf a5 8b 0f 3f 0a 2f fc be 13 39 13 bf
       -0.82084703 0.56072456 -0.49254638 -0.57508963
000050 b6 85 ab be 92 38 81 3c 7a 62 51 be ec 95 85 3f
       -0.3350045 0.015774045 -0.20447722 1.0436378
000060 27 10 ee be d0 d4 16 bf 64 74 d4 40 86 62 96 be
       -0.46496698 -0.58918476 6.639208 -0.29372042
000070 f9 ca e0 3f 25 12 e7 bd 22 f6 83 be 04 e2 3d bf
       1.7561942 -0.11282758 -0.25773722 -0.74173
000080 19 b7 da bf 44 29 63 3e 8a a3 2d 3e 3d 60 21 bd
       -1.7087127 0.2218371 0.16956916 -0.03939842
000090 46 79 e5 be 0e b2 a6 3e b9 e0 51 be 03 7e 8d bd
       -0.44819087 0.3255772 -0.20495881 -0.069088005
0000a0 37 6c 01 40 7b a0 99 3f dc ad 49 3e 92 3b 03 bf
       2.02223 1.20021 0.19695228 -0.5126277
0000b0 7e f6 72 3f e4 a3 5b bf 47 10 bf 3f 28 1d 20 bf
       0.9490737 -0.8579695 1.4926842 -0.6254449
0000c0 bc ec f7 3e c3 76 a2 3d
       0.48422801 0.07932808

7.weight f4 [50]
000000 34 b1 b8 3f 10 b4 5f 3f c1 f0 d4 3f 94 1f 7f 3f
       1.4429078 0.8738413 1.6635972 0.9965756
000010 04 b8 80 3f 26 49 c2 3f 4a 4b 4b 3f a9 65 9c 3f
       1.0056157 1.5178573 0.79411757 1.2218524
000020 fc 2e a2 3f a5 ff 9e 3f 1f 98 8d 3f b7 02 83 3f
       1.2670588 1.2421767 1.1062049 1.0235204
000030 3b 1f 9f 3f 90 e1 8a 3f be b0 6a 3f c7 a2 d9 3f
       1.2431406 1.0850086 0.9167594 1.7002801
000040 29 af c6 3f 6d 1c a3 3f 4a bc 8b 3f 1f 7e 40 3f
       1.5522205 1.274305 1.0916836 0.75192446
000050 b0 4b 3d 3f 90 4b cd 3f e9 73 da 3f f8 c6 a7 3f
       0.73943615 1.6038685 1.7066623 1.3107595
000060 bf c8 c2 3f f7 bf be 3f e0 bb f3 3f 59 7a 88 3f
       1.5217513 1.4902333 1.904171 1.0662338
000070 5b af b0 3f e5 aa ad 3f 52 5f 86 3f f8 53 d0 3f
       1.3803514 1.3567778 1.049784 1.6275625
000080 95 40 e9 3f 84 8c 8a 3f 6b 39 6f 3f bb 21 4a 3f
       1.8222834 1.0824132 0.9344699 0.7895772
000090 9a ff 59 3f d3 38 79 3f a3 3b 4b 3f 66 3e 71 3f
       0.8515564 0.9735233 0.79387873 0.9423584
0000a0 6b c6 89 3f 1c 3b 84 3f dd 02 8a 3f d0 48 61 3f
       1.0763677 1.0330539 1.0782124 0.8800173
0000b0 1d 8e 5a 3f 1d 88 82 3f cc 1d c1 3f d9 24 87 3f
       0.853731 1.0197788 1.5087218 1.055812
0000c0 54 93 a6 3f 6a 08 84 3f
       1.3013711 1.0315068

7.bias f4 [50]
000000 d0 99 e2 3e b3 d0 38 3f 4f 0c 30 3e ed 90 bd be
       0.44257975 0.7219345 0.17192195 -0.37024632
000010 a3 a8 85 3e 90 87 10 3f 48 98 32 3f 1a ac 48 3f
       0.26105222 0.5645685 0.6976361 0.78387606
000020 c6 bd 73 3d 67 37 86 bd fc 1e 16 be 2e f2 ee bd
       0.059507154 -0.06553536 -0.14660257 -0.11667286
000030 52 9e 5b be 23 c5 ee be c8 4b 4f bd 03 bd b1 bd
       -0.21447113 -0.46634778 -0.05060938 -0.08678629
000040 18 00 41 3e b5 85 2e 3d 3f 0b 0d bd 7c e1 5b be
       0.18847692 0.04260798 -0.034434553 -0.21472734
000050 b6 7d ad 3e b8 46 7c be 2b dc 4b 3f 1e 7b e9 3d
       0.33884972 -0.24636352 0.79632825 0.11400436
000060 14 a2 2c 3f ef 1c c5 3e 29 f9 b6 3e be 74 8f 3b
       0.6743481 0.38498637 0.3573697 0.0043779304
000070 7e 35 be 3e c2 5c 29 3f 41 60 f3 3d e5 9e 11 3f
       0.37150186 0.6615716 0.11883593 0.5688308
000080 87 ae fa 3d 42 2a b4 3d 63 dd 4a 3c 02 8e 16 3e
       0.1224032 0.087971225 0.012381884 0.14702609
000090 66 4c 86 3e 82 f9 2c 3d 0e ad 1c 3f da c1 6c bd
       0.26230162 0.042230137 0.6120156 -0.05780206
0000a0 b0 ba 87 3d f7 a5 62 3e 1b 5e 4b be 63 41 33 3f
       0.06627405 0.22133623 -0.19860117 0.7002165
0000b0 07 06 90 3d 1f bb 4c 3d e2 63 a2 3d 57 44 ee bd
       0.070323996 0.04998314 0.079292074 -0.116341285
0000c0 86 cc 12 3c ff 92 c3 be
       0.008959895 -0.38198087

7.running_mean f4 [50]
000000 08 1d 8c 40 a6 70 cb 3f be 63 d1 40 00 8a 9f 40
       4.378544 1.5893753 6.5434256 4.9855957
000010 f5 7f bd 40 5a 4d bc 40 8a c4 2d 40 1e 1e 63 41
       5.9218698 5.8844423 2.7151208 14.194853
000020 ab f4 4b 40 97 c3 8a 40 f9 3e b9 40 ea 9d a8 40
       3.1868083 4.3363757 5.788937 5.2692766
000030 ae 13 19 40 de 50 c2 40 60 8f 40 40 4e af 28 41
       2.3918262 6.0723715 3.008751 10.542799
000040 77 4b 72 40 e5 68 b7 40 c5 80 93 40 08 6d cd 3f
       3.785856 5.7315545 4.609469 1.6048899
000050 98 ca 1a 40 f7 15 cd 3f 0c 48 be 40 35 02 28 41
       2.4186153 1.6022328 5.946295 10.500539
000060 ba db 81 40 7e 33 4b 40 1e 77 9d 41 a6 17 71 40
       4.058072 3.1750178 19.683163 3.7670684
000070 ef df 11 41 23 b7 cb 40 34 5a b5 40 5f af ee 3f
       9.117171 6.3661056 5.667261 1.8647269
000080 4e 18 61 40 dd af f5 40 7f 0d b5 40 43 19 53 40
       3.5171084 7.6777177 5.6578975 3.2984169
000090 bb 4c 35 40 56 57 89 40 4b 4f 01 40 d5 ad 9a 40
       2.8328083 4.291911 2.0204647 4.8337197
0000a0 e8 45 e0 40 7d 1d 2f 41 0f 5d b2 40 78 31 58 40
       7.0085335 10.944699 5.5738597 3.3780193
0000b0 d5 e9 b0 40 17 38 2d 40 a6 e7 47 41 52 57 ee 3f
       5.528544 2.7065485 12.494055 1.8620398
0000c0 ec b5 0f 41 e9 2e 59 40
       8.9819145 3.3934882

7.running_var f4 [50]
000000 1b 46 47 42 da 76 60 41 37 92 7c 42 86 cb 30 42
       49.818462 14.0290165 63.142788 44.198753
000010 dc ea f4 41 b9 b6 81 42 ee e2 6a 41 9b ba 89 42
       30.614677 64.85688 14.680403 68.86446
000020 1c 84 fa 41 1c 1c 5b 42 88 c1 e3 41 84 89 21 42
       31.314507 54.77745 28.469498 40.384293
000030 c7 c6 f0 41 af d0 2b 42 bf 71 94 41 93 47 e3 42
       30.09706 42.953793 18.55554 113.63979
000040 4c f5 08 42 68 c0 fc 41 50 ab 57 42 54 d5 3e 41
       34.239548 31.593948 53.917297 11.927082
000050 df 3c b6 41 74 20 24 41 18 79 9a 42 76 23 c0 42
       22.779722 10.257923 77.23651 96.06926
000060 a9 d9 25 42 27 12 03 42 9d 81 e5 42 d2 3f d3 41
       41.46256 32.767727 114.75315 26.406162
000070 18 46 4a 42 40 e4 82 42 81 3e 53 42 ce 84 8a 41
       50.56845 65.4458 52.81104 17.314846
000080 57 82 1a 42 ed d2 84 42 f5 46 75 42 41 a9 04 42
       38.627285 66.411964 61.319294 33.165287
000090 65 6e c8 41 f3 36 fd 41 22 d1 4f 41 f7 c1 0f 42
       25.053904 31.65183 12.988558 35.93942
0000a0 66 16 2e 42 6f 91 a1 42 bb 02 20 42 90 41 a0 41
       43.521873 80.78405 40.002666 20.032013
0000b0 29 fa 38 42 73 b8 a8 41 42 f9 85 42 df ae 64 41
       46.244297 21.090063 66.98683 14.292693
0000c0 ee 35 8a 42 c1 4e 01 42
       69.10533 32.32691

8.weight f4 [20, 50]
000000 4b 0c 01 3d b6 17 93 bd 70 41 fd bd df a1 dd 3e
       0.031505864 -0.07182257 -0.12365997 0.4328756
000010 6e 08 83 3c a6 e6 07 3f 86 e8 25 3e 42 83 a9 3e
       0.01599523 0.53086317 0.16201982 0.33107954
000020 2f 49 6c bf 9e 8c bc 3e 4b 3d 85 3f 52 60 28 bf
       -0.9229917 0.36826032 1.040933 -0.65771973
000030 4f 1d 22 3e 59 28 08 bf 10 e0 b7 be b5 c8 ea bd
       0.15831493 -0.53186566 -0.35913134 -0.11464063
000040 84 79 06 bf eb 6d b4 bf ed 06 c2 3e 75 4c fa bf
       -0.5252917 -1.4096044 0.3789591 -1.9554583
000050 0f 5b 95 3d 92 b7 60 3e 13 51 8f 3f 10 5a 7a be
       0.07292759 0.21945027 1.1196617 -0.24448419
000060 d8 b8 b9 bd 05 09 e0 bd ad 52 97 3e a5 38 5b be
       -0.09068459 -0.1093922 0.29555264 -0.21408327
000070 1b 3e be 3e 54 b5 0b 3f b8 51 b9 3f 67 e8 63 3e
       0.37156758 0.5457356 1.4478064 0.22256623
000080 95 31 8e bd 69 8f 2f 3f 71 cc 4d 3f 70 64 0d 3f
       -0.06943051 0.685782 0.8039008 0.5523138
000090 e9 62 5e 3d dd 1b 7e 3e 16 60 9d 3e 58 1a bb be
       0.054293547 0.24815316 0.3073737 -0.36543536
0000a0 a6 0f ec be 2f 4b c8 3c 33 19 15 be c0 13 95 3f
       -0.4610569 0.024449913 -0.14560394 1.1646652
0000b0 0b c3 a2 bf d1 38 b3 bd 65 a5 73 bf 71 58 f6 bf
       -1.2715772 -0.08751071 -0.9517425 -1.924574
0000c0 9f 05 e8 bd 9f f3 28 be 2e 77 fe be de e6 98 3e
       -0.11329197 -0.16499184 -0.49700302 0.29863638
0000d0 8b cd a6 3e c9 1d 29 bf 6c 65 63 be 44 2e 11 3f
       0.32578692 -0.66061074 -0.22206658 0.5671122
0000e0 c9 ae 82 3e ea e9 14 3f 34 64 20 bd fc 6f c3 bd
       0.25523975 0.58169425 -0.03915806 -0.09542844
0000f0 92 42 ad 3d 75 1a b8 3e dc 80 f2 be ef 2b aa 3c
       0.08459963 0.35957685 -0.47363937 0.020772902
000100 df 9e 37 3d 55 e5 02 40 9a ee 79 3f 7e 7c 58 3e
       0.044829246 2.0452473 0.976297 0.2114124
000110 2e 5c ac bd 60 44 d5 bd 59 e5 58 3e f3 92 30 3f
       -0.084160194 -0.10413432 0.21181239 0.68974227
000120 3f dc ed be 7a 99 18 3f cd 12 5f bb bb 6a b6 3e
       -0.46457097 0.59609187 -0.0034038306 0.35628304
000130 45 07 02 3f 30 3c 01 3d e7 1d 80 3e b4 9f 9e 3e
       0.5079234 0.03155154 0.25022814 0.3098122
000140 1e 8c 18 3f 18 86 8a be 8b a0 0f 40 b1 2d be 3c
       0.595888 -0.2705543 2.2441738 0.023215147
000150 0b 94 38 3e a7 18 f3 bd 11 5a df be 44 e5 6f bd
       0.18025224 -0.118699364 -0.43623403 -0.058568254
000160 83 d7 03 be 16 7f c5 bf f5 a8 20 3d 8c b0 25 3e
       -0.1287518 -1.5429409 0.03922363 0.16180629
000170 ae 01 97 3d 92 d6 e6 3e c5 65 47 3f 36 b1 2f 3f
       0.07373367 0.4508558 0.77889663 0.6862978
000180 64 f5 f7 3e d5 8e e6 3e 97 c2 ae 3f fa 9b 0b 3e
       0.48429406 0.45030847 1.3653134 0.13633719
000190 e4 25 1d 3f 60 fb 45 be b2 7c 8c 3e ce ae 87 bd
       0.6138594 -0.19334173 0.27438885 -0.06625138
0001a0 f2 45 4b be b7 11 0c 3e 91 43 a6 3e 9d f5 04 bf
       -0.19850901 0.13678633 0.32473424 -0.51937276
0001b0 eb 3e e9 bf d0 61 fe 3e 1d be 86 bf c3 0f 3c bf
       -1.8222326 0.49684 -1.0526768 -0.7346155
0001c0 3c b7 81 3f 1e f5 95 3e 21 9b b6 bf c8 4e 91 3e
       1.0134044 0.29288572 -1.4266092 0.28380418
0001d0 03 d8 cf 3e f5 1b 74 3f a3 8a f8 be 5a 9d 03 3f
       0.4059449 0.9535516 -0.4854327 0.51411974
0001e0 db f3 e7 bf cb 6d 1d 3f 8f 2e c1 3f 46 46 25 be
       -1.8121294 0.61495656 1.5092334 -0.16140088
0001f0 0c b6 e6 3e 2b 84 b0 3e 1f d5 02 3f c8 96 b8 3e
       0.45060766 0.34475836 0.51106447 0.36052537
000200 ad 91 2b 3e b7 e4 90 3e 43 aa 73 be ec 05 b1 be
       0.1675479 0.28299496 -0.23795418 -0.3457483
000210 b0 c4 1d 3f d7 d6 98 3f b0 78 aa be 5f 15 43 bf
       0.61628246 1.1940564 -0.33295202 -0.76204485
000220 c0 9e 0f bf 3b c0 c2 bd 25 d6 67 3f 9d f0 db 3e
       -0.5610161 -0.09509321 0.90561134 0.4295701
000230 5d de 47 bd a2 dd 7e bf 21 60 21 bf ae 5f fa 3d
       -0.048796047 -0.99556935 -0.63037306 0.12225281
000240 4c c1 c7 3e c6 ea c5 be b8 e9 f2 bd b1 36 fb 3e
       0.3901466 -0.3865568 -0.118609846 0.49065164
000250 52 dc 33 be ed c3 81 be 2e c1 a0 3e f6 61 b0 3e
       -0.17564514 -0.25344792 0.31397384 0.34449738
000260 2d f6 f1 3e 67 6c 26 3f 2b 53 53 3e 0a de 12 40
       0.4725813 0.6500916 0.20637195 2.2948022
000270 74 c3 1f 3f eb 4b 75 3e ee 48 95 bf 89 a6 c0 be
       0.6240761 0.23954742 -1.1662881 -0.37627056
000280 4a 5e 14 be 40 ff 1e bf 91 74 d9 bd 35 a6 db be
       -0.14489093 -0.6210823 -0.106179364 -0.42900243
000290 23 04 31 3d 27 b3 9f bf e3 35 0d bf be dd 67 3d
       0.043216836 -1.2476548 -0.5516035 0.056607954
0002a0 9e e5 2e 3e 70 7b c3 be cb 8f 55 be 89 19 1e 3d
       0.1707978 -0.38180113 -0.20855634 0.03859857
0002b0 d2 d7 c6 3e d7 34 55 bf d3 c2 14 3f ce 9f 30 bf
       0.38836533 -0.8328375 0.5810978 -0.6899384
0002c0 4a 6f 89 3d df 17 c4 be 7f 78 01 40 39 e4 d0 3e
       0.0671068 -0.38299462 2.0229795 0.4079912
0002d0 79 77 86 3e 6b 70 b9 3e 88 09 db bd 42 d3 fb bd
       0.26263025 0.3621858 -0.10695177 -0.122961536
0002e0 30 50 c4 3e 30 57 c5 3c f4 97 07 3f ac 6c 1e bd
       0.38342428 0.024089426 0.5296624 -0.038677856
0002f0 01 2a ef 3e f5 e9 35 3f ea 1a 44 3c 88 2b f2 bd
       0.46711734 0.71060115 0.011969307 -0.11824709
000300 cd 56 35 be 34 a8 ac 3e 1b 27 2e 3e 17 81 a6 be
       -0.17708893 0.3372208 0.17007105 -0.32520363
000310 55 b7 88 be 0b 64 37 3e c7 33 cf bf 7b e6 eb be
       -0.2670237 0.17909257 -1.6187676 -0.4607428
000320 d4 f7 99 be 4d 26 ed bb af 3c a2 be 74 32 5e bf
       -0.3007189 -0.007237232 -0.31686923 -0.86795735
000330 b0 d8 f2 3e 5f c5 14 bd 7a 2a 53 3e 42 0e f1 3d
       0.47430944 -0.03632104 0.20621672 0.117702976
000340 ee 64 27 3d 5d 39 d7 bf 12 67 6c 3e dd 02 39 3e
       0.04086774 -1.6814381 0.23086193 0.18067499
000350 d7 eb 92 be 01 b8 38 3f 66 97 b6 3e 07 eb 00 bd
       -0.28695557 0.7215577 0.35662383 -0.03147414
000360 0e ef fe bd 3d bd cf 3b d7 e0 8c 3b f2 e9 dc 3e
       -0.1244794 0.0063396976 0.004299264 0.43147236
000370 ea 75 2d 3f da a4 26 3f 8a d7 a5 3f 8f 18 20 3f
       0.6775805 0.65095294 1.2956402 0.62537473
000380 c5 1c db 3f 06 72 a0 3f 02 95 ab bf b4 4b dc 3e
       1.7118155 1.2534797 -1.3404849 0.43026507
000390 c8 42 d7 be 18 dc c2 3d ff 0d 66 be ad d7 70 3e
       -0.42043138 0.09514636 -0.22466277 0.23519774
0003a0 97 3c ca bd 50 6b 13 bf 5b 5b 17 3f d8 8d 46 3f
       -0.09874838 -0.5758562 0.5912377 0.77560186
0003b0 cd e8 f1 3e 2f de 10 3f 0b 6b 55 3f 2f ae 58 3f
       0.47247925 0.56589025 0.8336646 0.84640783
0003c0 87 4a 35 3f 87 7c 5c be cd a7 43 bd 81 3e c5 3e
       0.70816845 -0.21531878 -0.04776745 0.3852425
0003d0 d0 43 9b bf 36 d4 d2 3e 3f 9b 57 3f 25 70 99 3f
       -1.213007 0.4117753 0.8422126 1.1987349
0003e0 fb 6b d5 be 29 47 87 3e 14 a5 87 3e 3f 56 2a bf
       -0.41683945 0.26421478 0.26493132 -0.6653785
0003f0 a0 01 74 3e a6 ab c3 bd 28 29 45 3e 11 bf 9f be
       0.23828745 -0.09554224 0.19253981 -0.3120046

8.bias f4 [20]
000000 50 7d 2d 3f e0 c5 09 be 1a 63 d7 bd 9c e8 38 3f
       0.67769337 -0.1345439 -0.10516949 0.72229934
000010 c4 43 03 3f fa a7 0d 3f 2b 0d bd 3e 36 90 08 3f
       0.5127528 0.55334437 0.3692411 0.5334505
000020 c1 0f c2 bd b6 53 79 3f 12 61 fa bd c0 8f f6 3e
       -0.09475661 0.9739336 -0.12225546 0.48156548
000030 0f 38 82 3f 2e 27 2f 3f 06 0c 7d 3f 50 99 0c 3f
       1.0173358 0.6841916 0.9884647 0.54921436
000040 01 d5 08 3f 63 67 a0 3e 1e b4 9f 3e e1 a3 b0 bd
       0.5345002 0.31328878 0.31192106 -0.086250074

11.weight f4 [20]
000000 c5 19 28 3f de 31 6a 3f fb 55 01 3f 44 a9 9b 3f
       0.6566432 0.9148234 0.5052182 1.2161031
000010 6e 1b 27 3f f7 79 cb 3e 95 f6 1b 3f 5e 26 00 3f
       0.6527623 0.3974149 0.6092313 0.50058544
000020 a0 42 1a 3f 5f d6 92 3f ac 59 41 3f 60 06 1d 3f
       0.6025791 1.1471671 0.75527453 0.6133785
000030 b5 5b 4d 3f 4b 2d ec 3e 36 03 08 3f f1 6f 26 3f
       0.8021806 0.46128306 0.531299 0.6501456
000040 ad 1a 83 3f e6 11 37 3f 34 33 95 3f 60 65 12 3f
       1.0242516 0.71511686 1.1656251 0.57185936

11.bias f4 [20]
000000 16 40 a8 bf 34 15 99 bf 7d 21 99 3f 24 a3 9f 3f
       -1.3144557 -1.1959596 1.1963345 1.2471662
000010 b5 db 9f bf 55 2c aa 3f 9c 8c b2 3f dc 0d 8c bf
       -1.2488924 1.3294779 1.394916 -1.094173
000020 3d 7d a4 3f ba 20 96 3f 64 22 bf 3f 1e b4 c2 bf
       1.285072 1.1728737 1.493237 -1.5211217
000030 35 74 93 3f 47 5c 9c 3f 1c 47 b7 3f 04 d2 a6 bf
       1.1519839 1.2215661 1.4318576 -1.3032842
000040 e7 b2 b5 bf fd f0 96 3f 48 92 a9 bf c8 24 a9 3f
       -1.4195222 1.1792294 -1.3247766 1.321435

11.running_mean f4 [20]
000000 8c 73 d1 40 5a 31 8e 40 ab 56 83 40 73 2d fb 40
       6.545355 4.4435244 4.1043296 7.849298
000010 3d a5 c6 40 99 6b c8 40 20 a3 4d 40 92 e7 de 40
       6.2076707 6.2631345 3.2130814 6.965768
000020 a5 f5 6e 40 fb 5d 0d 41 2b b1 23 40 72 34 b3 40
       3.733743 8.835444 2.5576885 5.600152
000030 06 1b e4 40 68 f9 bf 40 1b b6 a0 40 26 fa 88 40
       7.1282988 5.999195 5.0222297 4.2805357
000040 19 67 ba 40 16 be b5 40 b6 e9 e7 40 d1 cf 8d 40
       5.825085 5.679454 7.247279 4.431618

11.running_var f4 [20]
000000 fd bc 09 42 c4 b0 4e 42 8c d3 ea 41 e9 ad 88 42
       34.43456 51.672623 29.353294 68.33967
000010 e0 b1 54 42 f5 24 5e 42 81 c9 8a 41 2d 06 36 42
       53.173706 55.53609 17.34839 45.50603
000020 3d f8 d4 41 e5 79 b6 42 f5 61 96 41 2c 78 15 42
       26.62121 91.238075 18.79783 37.367355
000030 19 bc 94 42 4a dc 42 42 80 a4 75 42 ad 47 03 42
       74.36738 48.715126 61.410645 32.819996
000040 52 5c 7d 42 02 59 82 42 24 bc 9b 42 99 cd 5c 42
       63.340157 65.17384 77.86746 55.20078

12.weight f4 [1, 20]
000000 f8 43 b4 bf c4 0f e0 bf ef 20 c5 3f 9c 24 d3 3f
       -1.4083242 -1.7504811 1.5400676 1.6495547
000010 02 3d bf bf 8d a5 a3 3f 82 44 a7 3f af 4e 03 c0
       -1.4940493 1.2784897 1.3067782 -2.0516775
000020 4f d2 ae 3f 3d 96 e4 3f 98 cb a8 3f 8d f9 a0 bf
       1.3657931 1.7858349 1.3187132 -1.2576157
000030 20 91 dd 3f 08 48 c6 3f 2f 26 a5 3f c5 8e b4 bf
       1.7309914 1.5490732 1.2902278 -1.410607
000040 32 c7 b5 bf f9 13 d4 3f a4 b2 ca bf 9d 2f aa 3f
       -1.4201415 1.6568595 -1.5835767 1.329578
