main_app/deep_model_strength/torch_model_params.pkl (torch_old, 38373 bytes, 19 tensors)

0.weight f4 [80, 39]
-4.1225886 -11.470761 -4.5283604 -5.1544333 -3.9683096 -3.4702673 -2.136537 -2.463705
-0.40171677 2.3357084 6.504934 -9.091504 4.588914 -0.38741374 -5.2521133 -7.3034554
-9.494907 -24.56588 -11.194367 0.107776575 4.0329847 6.299302 -0.026814241 3.9597323
-0.30410603 -0.8313618 0.47250858 -5.80476 -1.3002256 -5.075302 0.15593316 0.20533107
1.4813724 -0.23752356 0.06960968 0.049228564 -0.15315866 -1.7178859 0.124807954 -7.957348
18.209532 -5.811995 7.9181886 1.8838928 0.39216134 3.4657109 2.114706 -2.6040409
-0.20624982 -0.27256757 -11.16536 11.500074 -5.8480344 1.4486105 10.367229 12.059072
8.017458 5.9494963 0.13887635 9.514374 5.841133 -0.26701853 10.546829 0.0592018
3.8320053 -8.640356 -2.3841145 2.3473322 3.1294587 0.06042758 0.0871305 -5.0328975
-0.13207932 -0.019501675 -0.030826231 0.10183738 -8.217271 0.14220972 2.959663 4.0384865
-6.9163327 4.3218822 0.046718884 -0.45036316 7.037495 0.15608436 -0.43239826 6.4250116
-2.9378235 -1.6552595 2.7968621 -3.8610291 3.0333145 -0.29719076 2.2626617 6.802335
0.39113203 -0.04094998 2.3494794 1.8943723 -0.16351321 2.1966407 0.17801946 -2.5662796
-2.9526572 -1.3919781 -2.047132 -3.794645 0.07697002 -0.0066442983 -6.4470506 0.3600912
-0.2166385 0.032048833 0.31849074 -1.9852092 -0.041182343 1.056709 -0.62899 2.4071832
0.73175687 -1.1437113 -7.0544734 -2.1927526 -0.69119203 2.8781805 -5.644302 6.1531577
3.7161317 -2.6060903 2.6329486 0.44776118 0.3317999 2.9577823 6.6094604 -9.127917
-0.1690319 -4.1841044 -3.0854201 -0.018275212 -3.948574 0.03705518 -1.5683271 1.214352
2.5763896 -2.1809056 -4.6086664 0.23646764 -0.057857852 0.8599458 -0.055237412 0.028153902
0.2583431 -0.014223696 -1.1306734 0.25125942 -6.612042 -26.11763 -14.453848 1.528857
-5.237454 5.5341525 -1.7343907 1.2993698 1.9117007 -0.92673737 -0.6115238 18.751066
6.2276144 0.016307388 -17.91994 -4.948288 -0.93649596 -57.07229 -6.766451 0.13746925
-3.0206254 -1.0029327 0.042711675 -5.0447206 -0.17070656 -11.35008 -25.831966 6.950422
-8.764641 -6.0772347 0.020516967 0.17655422 0.055562317 0.029135639 -0.07687248 0.23533939
-0.054887835 -0.22708276 0.021221532 -4.1454806 0.8349982 1.2085534 -0.22872607 1.730662
3.521244 0.38249943 -1.8565788 5.076313 4.56639 -7.3004894 3.8396606 1.2776729
4.532014 -6.2516246 -4.4450517 1.730014 2.6242054 0.36664414 0.044552583 2.2441554
2.9560187 0.034523673 2.5954382 -0.1542034 2.3788893 3.8598022 5.8952723 2.522896
3.8278959 -0.06712558 0.07001673 -0.8606379 -0.104034916 -0.19408552 0.12517513 -0.03681131
-2.3940485 0.14069933 0.7932295 22.186495 16.48138 1.3506114 0.9280863 -3.1328251
1.6309845 0.5733748 0.027522169 -8.263792 3.3296177 19.270414 -5.611359 -2.1341507
2.3300683 -3.840519 9.458954 35.53945 -4.392942 0.0057289386 -2.7679846 -2.5383835
00000000: 3fec 83c0 3d88 37c1 54e8 90c0 1ef1 a4c0
00000010: c9f8 7dc0 dc18 5ec0 06bd 08c0 58ad 1dc0
00000020: d2ad cdbe 3f7c 1540 6b28 d040 cd76 11c1
00000030: 62d8 9240 185b c6be 5011 a8c0 e8b5 e9c0
00000040: 24eb 17c1 ec86 c4c1 211c 33c1 f7b9 dc3d
00000050: 360e 8140 e293 c940 8aa9 dbbc 416c 7d40
00000060: c9b3 9bbe 20d4 54bf a5ec f13e 98c0 b9c0
00000070: cb6d a6bf e068 a2c0 f1ac 1f3e 4f42 523e
00000080: 9c9d bd3f 6039 73be 858f 8e3d e4a3 493d
00000090: a0d5 1cbe afe3 dbbf 509b ff3d 98a2 fec0
000000a0: 1fad 9141 ddfb b9c0 cd61 fd40 6623 f13f
000000b0: 5fc9 c83e 35ce 5d40 5857 0740 9ba8 26c0
000000c0: 2733 53be fa8d 8bbe 51a5 32c1 4e00 3841
000000d0: 1923 bbc0 126c b93f 2ce0 2541 f5f1 4041
000000e0: 8247 0041 4662 be40 9a35 0e3e e03a 1841
000000f0: 90ea ba40 a7b6 88be d0bf 2841 967d 723d
00000100: 933f 7540 e63e 0ac1 5595 18c0 b13a 1640
00000110: 0d49 4840 e982 773d 7a71 b23d 7f0d a1c0
00000120: cd3f 07be fac1 9fbc 4b87 fcbc 1e90 d03d
00000130: f179 03c1 6d9f 113e 1e6b 3d40 483b 8140
00000140: 9952 ddc0 dc4c 8a40 4d5c 3f3d 0096 e6be
00000150: 2933 e140 94d4 1f3e 4e63 ddbe b299 cd40
00000160: 4d05 3cc0 8bdf d3bf caff 3240 1a1b 77c0
00000170: d321 4240 6329 98be 73cf 1040 baac d940
00000180: 7542 c83e 2bbb 27bd df5d 1640 cb7a f23f
00000190: 0270 27be c395 0c40 bc4a 363e ed3d 24c0
000001a0: 56f8 3cc0 572c b2bf 3604 03c0 77db 72c0
000001b0: 75a2 9d3d 6ab8 d9bb 3d4e cec0 e05d b83e
000001c0: 7cd6 5dbe a345 033d 3811 a33e 561b febf
000001d0: d1ae 28bd 3e42 873f 7d05 21bf 4a0f 1a40
000001e0: 6b54 3b3f 2265 92bf 3fbe e1c0 0f56 0cc0
000001f0: f6f1 30bf 1c34 3840 1f9e b4c0 abe6 c440
00000200: 1ad5 6d40 2fca 26c0 3b82 2840 f440 e53e
00000210: ade1 a93e 4e4c 3d40 b380 d340 f30b 12c1
00000220: b316 2dbe 2fe4 85c0 8677 45c0 e6b5 95bc
00000230: 70b5 7cc0 2cc7 173d f1be c8bf e36f 9b3f
00000240: 91e3 2440 f593 0bc0 327a 93c0 9324 723e
00000250: 5bfc 6cbd 6825 5c3f a040 62bd 03a3 e63c
00000260: 8c45 843e 810a 69bc e8b9 90bf 13a5 803e
00000270: d995 d3c0 e8f0 d0c1 f642 67c1 96b1 c33f
00000280: 3999 a7c0 c717 b140 8400 debf c051 a63f
00000290: 9cb2 f43f a93e 6dbf d38c 1cbf 2f02 9641
000002a0: 9e48 c740 1297 853c 0a5c 8fc1 6058 9ec0
000002b0: 33be 6fbf 064a 64c2 c486 d8c0 bdc4 0c3e
000002c0: ed51 41c0 1960 80bf 70f2 2e3d 5a6e a1c0
000002d0: b3cd 2ebe ed99 35c1 dea7 cec1 db69 de40
000002e0: f83b 0cc1 b578 c2c0 3313 a83c a1ca 343e
000002f0: 5095 633d ddad ee3c 526f 9dbd cffc 703e
00000300: 11d2 60bd 6288 68be c7d8 ad3c c7a7 84c0
00000310: 71c2 553f e1b1 9a3f 2b37 6abe 5586 dd3f
00000320: 105c 6140 f7d6 c33e 60a4 edbf 2871 a240
00000330: de1f 9240 9c9d e9c0 00bd 7540 c98a a33f
00000340: 4206 9140 4f0d c8c0 dd3d 8ec0 1971 dd3f
00000350: fbf2 2740 c8b8 bb3e c57c 363d 3ea0 0f40
00000360: 692f 3d40 b268 0d3d a91b 2640 7fe7 1dbe
00000370: b93f 1840 0007 7740 12a6 bc40 2177 2140
00000380: 3ffc 7440 2379 89bd ee64 8f3d c452 5cbf
00000390: 4210 d5bd 5bbe 46be e92d 003e 75c7 16bd
000003a0: 1738 19c0 7c13 103e 1711 4b3f f17d b141
000003b0: ded9 8341 d6e0 ac3f 1097 6d3f 3580 48c0
000003c0: 1ac4 d03f b1c8 123f 2c76 e13c 7e38 04c1
000003d0: 7518 5540 cf29 9a41 4190 b3c0 ed95 08c0
000003e0: d71f 1540 10cb 75c0 e057 1741 6628 0e42
000003f0: fb92 8cc0 d2b9 bb3b a926 31c0 e074 22c0

0.bias f4 [80]
-3.041034 1.621654 0.5665721 -1.004275 -5.357218 1.7493849 0.4094174 1.1183562
0.8079179 -2.8585482 -2.0573254 -2.2504175 -0.3018134 -2.8113785 -0.709969 -2.75507
-4.1277356 -3.551666 -1.6556067 4.30441 -1.8226174 -2.8023953 -0.17447692 -1.9209368
-1.6340028 -3.5551183 -1.7794448 -0.86064774 -0.9909582 5.072349 -1.2292669 0.93672216
-0.91389143 0.41935736 -0.27026963 0.73486733 0.46195358 -0.7688364 2.1919436 1.3929412
-0.29666817 -3.1709254 2.3157475 0.05242845 -1.4541302 -1.3472058 -0.6295686 -5.987548
-0.6733522 -0.006874823 0.038197566 -0.06842084 -3.9292152 0.6759918 -0.48808187 -0.10485616
-0.74123144 3.0805764 -2.0633948 -3.2384384 -2.5764594 -2.5059245 -1.3176998 -0.065161906
0.019067284 0.13125539 0.7815206 -0.21007754 -2.5770907 -0.5691743 -0.9412098 -0.96246225
-0.94054466 -2.490775 -0.46379685 0.6947683 -4.011433 -2.2009666 -1.438535 -1.9970039
00000000: 4da0 42c0 5c92 cf3f df0a 113f 158c 80bf
00000010: 546e abc0 d8eb df3f 289f d13e 4c26 8f3f
00000020: b5d3 4e3f 74f2 36c0 38ab 03c0 d706 10c0
00000030: 4987 9abe a0ed 33c0 87c0 35bf 1153 30c0
00000040: 6916 84c0 7f4e 63c0 ecea d3bf babd 8940
00000050: 874b e9bf 725a 33c0 14aa 32be 42e1 f5bf
00000060: 0127 d1bf 0f87 63c0 d9c4 e3bf 6953 5cbf
00000070: 70af 7dbf af50 a240 9e58 9dbf 06cd 6f3f
00000080: caf4 69bf 02b6 d63e c860 8abe 4420 3c3f
00000090: 2e85 ec3e 76d2 44bf ce48 0c40 e64b b23f
000000a0: e4e4 97be 71f0 4ac0 3535 1440 37bf 563d
000000b0: f020 babf 3d71 acbf 682b 21bf fe99 bfc0
000000c0: cf60 2cbf 3246 e1bb 0d75 1c3d 3a20 8cbd
000000d0: 4378 7bc0 cc0d 2d3f dee5 f9be d4be d6bd
000000e0: 58c1 3dbf 2a28 4540 a90e 04c0 9342 4fc0
000000f0: b6e4 24c0 1161 20c0 63aa a8bf 9b73 85bd
00000100: fe32 9c3c d067 063e bc11 483f 911e 57be
00000110: 0eef 24c0 68b5 11bf 20f3 70bf ed63 76bf
00000120: 89c7 70bf dc68 1fc0 c876 edbe 56dc 313f
00000130: a95d 80c0 a3dc 0cc0 ea21 b8bf d39d ffbf

3.weight f4 [80]
-0.12570116 2.5679953 -0.036998875 -0.01682547 4.071386 0.09568315 5.459776 7.7365413
-0.7080582 -0.11644999 -1.4614481 -2.2528827 -0.34729972 -0.13600548 2.0814724 8.542593
2.1010215 3.479713 0.004317713 -0.18375829 3.2728472 3.1962075 -2.5111337 3.2123146
0.8012659 5.187254 4.987809 5.6714892 4.476502 -0.097864866 4.349696 0.19060275
4.3356795 0.008793413 4.44168 4.694765 0.045376644 3.2847707 7.6202874 0.03640757
3.9641125 11.804596 0.04471596 4.548554 -0.14948604 3.163767 0.16689423 0.124543555
3.5853252 3.9976032 0.12573569 4.4054165 4.1674366 7.6221676 3.4430382 0.5779881
5.5460076 0.48512208 0.7835667 2.3678825 -0.006716197 0.42522284 0.0837953 6.3366156
3.4581838 6.8674407 3.905602 5.5702424 2.6292202 5.147054 1.7366256 3.1123753
2.580699 5.702793 -0.06219038 -2.5360894 7.571016 7.139728 4.7557206 4.425649
00000000: ceb7 00be 095a 2440 228c 17bd 91d5 89bc
00000010: cb48 8240 87f5 c33d 7cb6 ae40 bf91 f740
00000020: 4d43 35bf 557d eebd bb10 bbbf 3b2f 10c0
00000030: 45d1 b1be 0545 0bbe d836 0540 76ae 0841
00000040: 2377 0640 9eb3 5e40 9a7b 8d3b 222b 3cbe
00000050: 5476 5140 aa8e 4c40 6ab6 20c0 9096 4d40
00000060: c31f 4d3f fcfd a540 229c 9f40 d77c b540
00000070: 813f 8f40 606d c8bd b630 8b40 5e2d 433e
00000080: e3bd 8a40 3f12 103c 3e22 8e40 843b 9640
00000090: dcdc 393d af39 5240 65d9 f340 1b20 153d
000000a0: 05b4 7d40 a0df 3c41 1528 373d c18d 9140
000000b0: de12 19be 297b 4a40 52e6 2a3e b110 ff3d
000000c0: f875 6540 bbd8 7f40 dbc0 003e 2cf9 8c40
000000d0: a45b 8540 cce8 f340 bd5a 5c40 07f7 133f
000000e0: e578 b140 ec61 f83e d497 483f 638b 1740
000000f0: 8b13 dcbb cfb6 d93e df9c ab3d 8ec5 ca40
00000100: e252 5d40 13c2 db40 62f5 7940 6d3f b240
00000110: 2545 2840 abb4 a440 bf49 de3f 2831 4740
00000120: 2c2a 2540 487d b640 57bb 7ebd 4a4f 22c0
00000130: c345 f240 a778 e440 dd2e 9840 eb9e 8d40

3.bias f4 [80]
-0.15189554 -0.18328933 0.4055361 -0.043485288 -1.5769886 -0.27872935 0.8928423 -0.5986821
8.632535 0.35707366 -0.19203733 -0.17324398 -0.0646734 0.13574462 -0.57090974 -0.6083705
-0.021863587 0.01071051 0.09861658 -0.049163662 0.37900543 -0.41058257 0.035004698 1.2215096
1.7008009 -1.9340864 0.49662498 -0.22750497 -0.010990406 -0.18388745 -0.48279232 -0.13083899
0.06789385 0.034987703 2.8589408 0.89061564 0.08986089 -0.19714995 -1.6360552 -0.015927492
3.5546832 2.4106638 0.2281059 1.5959194 -0.23001865 -1.0366746 -0.07819628 -0.21668938
-0.20288186 2.4294167 0.0945318 0.6466602 0.43428767 0.56711835 1.0153347 0.88611805
0.31841436 -0.5212783 -5.0767756 0.8311021 -0.2225269 0.20716916 -0.32090655 1.4474366
1.3084956 -1.3663605 -2.708001 1.9248165 -1.2714802 2.142061 0.0047895284 -0.15844376
0.6601918 -2.0605235 -0.08690674 0.01598084 -0.06440136 0.7398832 0.29617235 0.66905665
00000000: 818a 1bbe 33b0 3bbe 6da2 cf3e a11d 32bd
00000010: c3da c9bf 9db5 8ebe 5091 643f 3b43 19bf
00000020: dd1e 0a41 5cd2 b63e 6fa5 44be df66 31be
00000030: 7d73 84bd a300 0b3e 2427 12bf 2bbe 1bbf
00000040: 441b b3bc 237b 2f3c 7df7 c93d d65f 49bd
00000050: 000d c23e e137 d2be 1661 0f3d 6d5a 9c3f
00000060: d8b3 d93f 2590 f7bf a145 fe3e 10f7 68be
00000070: 1b11 34bc fe4c 3cbe 8e30 f7be a8fa 05be
00000080: ee0b 8b3d 444f 0f3d e3f8 3640 63ff 633f
00000090: fc08 b83d ade1 49be 426a d1bf 5f7a 82bc
000000a0: ee7f 6340 5148 1a40 9894 693e 1647 cc3f
000000b0: 028a 6bbe c1b1 84bf 5f25 a0bd d2e3 5dbe
000000c0: 43c0 4fbe 907b 1b40 e399 c13d 868b 253f
000000d0: f45a de3e ab2e 113f 7df6 813f a2d8 623f
000000e0: 3507 a33e 7f72 05bf f274 a2c0 1bc3 543f
000000f0: 17de 63be 2724 543e dd4d a4be 9a45 b93f
00000100: c97c a73f e7e4 aebf e34f 2dc0 6360 f63f
00000110: ddbf a2bf 8717 0940 7af1 9c3b 153f 22be
00000120: 5402 293f 9edf 03c0 29fc b1bd 40ea 823c
00000130: dce4 83bd fc68 3d3f e7a3 973e 4c47 2b3f

3.running_mean f4 [80]
-20.67534 7671.6035 3266.1465 243.72585 -36.13638 1349.3038 1304.7208 792.0608
1947.0133 -88.96597 9.960462 491.33963 -51.13319 -130.5927 5043.497 1220.6816
-30.15461 -41.843754 -143.24039 245.43068 1788.1447 -25.862457 362.8502 -47.679615
131.65892 -13.566572 -60.894085 687.6417 601.57806 10187.826 -37.14841 13524.914
-27.454325 29.151941 1147.9984 3272.0198 6214.991 -53.83908 935.1087 128.33554
-70.996185 1293.8651 415.39313 -58.117683 -91.06208 -99.75143 -111.38748 -50.41022
-34.96026 958.6901 453.01193 -62.188305 848.3009 923.35254 -61.87758 -86.09133
-27.285494 4583.213 -54.403336 -41.569836 -48.39771 113.63613 -12.637879 5088.4854
-62.013966 845.93933 3204.4216 -91.84729 -46.205875 -42.05245 -63.7057 -46.31519
-46.29447 171.07072 -77.297 98.7986 -34.839603 -102.35906 912.8756 945.18427
00000000: 1967 a5c1 d4bc ef45 5822 4c45 d1b9 7343
00000010: a78b 10c2 b9a9 a844 1117 a344 e403 4644
00000020: 6d60 f344 94ee b1c2 0d5e 1f41 79ab f543
00000030: 6388 4cc2 bb97 02c3 fa9b 9d45 d095 9844
00000040: a43c f1c1 0160 27c2 8a3d 0fc3 416e 7543
00000050: a184 df44 50e6 cec1 d36c b543 edb7 3ec2
00000060: afa8 0343 ae10 59c1 8b93 73c2 12e9 2b44
00000070: ff64 1644 4e2f 1f46 f997 14c2 a853 5346
00000080: 75a2 dbc1 2d37 e941 f37f 8f44 5180 4c45
00000090: ee37 c245 385b 57c2 f5c6 6944 e655 0043
000000a0: 0cfe 8dc2 afbb a144 52b2 cf43 8278 68c2
000000b0: c91f b6c2 bb80 c7c2 64c6 dec2 11a4 49c2
000000c0: 4ed7 0bc2 2bac 6f44 8781 e243 d3c0 78c2
000000d0: 4213 5444 90d6 6644 a482 77c2 c32e acc2
000000e0: b148 dac1 b439 8f45 049d 59c2 8347 26c2
000000f0: 4197 41c2 b345 e342 c134 4ac1 e203 9f45
00000100: 4d0e 78c2 1e7c 5344 bf46 4845 d0b1 b7c2
00000110: d1d2 38c2 b535 28c2 a3d2 7ec2 c142 39c2
00000120: 8a2d 39c2 1b12 2b43 1098 9ac2 e298 c542
00000130: c15b 0bc2 d7b7 ccc2 0a38 6444 cb4b 6c44

3.running_var f4 [80]
2932.347 2.3667172e+06 3.0468558e+06 323775.3 83.115814 3.933377e+06 467239.2 1.3794659e+06
1.0129177e+06 317.76947 131319.45 367631.6 499.07397 478.8722 971744.4 1.1605938e+06
74.88004 190.40593 117.70046 2.519873e+06 943601.44 20.702763 401589.94 114.84467
817997.7 5.9789734 6.453203 380989.75 281935.97 4.589765e+06 40.314575 4.5801135e+06
31.6303 329989.12 511945.16 359108.0 6.377831e+06 55.687153 499825.1 898206.3
157.61539 1.332931e+06 784048.94 7.892672 117.467026 26.91784 114.98434 142.6737
38.48841 1.2512809e+06 877687.8 8.917309 202275.23 1.0871152e+06 23.794834 118.01409
16.20794 1.6022899e+06 128.28299 28.534678 388.48166 186888.47 140298.3 3.8813688e+06
15.666367 1.3724726e+06 1.3774211e+06 121.67198 31.152884 10.310991 76.37831 52.690166
182.50316 48158.35 426.9583 191364.62 177.77084 6.849832 760524.0 407632.7
00000000: 8d45 3745 f573 104a 1ff7 394a ea17 9e48
00000010: 4c3b a642 0413 704a e624 e448 4f64 a849
00000020: 5b4b 7749 7ee2 9e43 dd3d 0048 f381 b348
00000030: 7889 f943 a46f ef43 063e 6d49 8eac 8d49
00000040: 95c2 9542 eb67 3e43 a366 eb42 04cd 194a
00000050: 175f 6649 429f a541 be16 c448 79b0 e542
00000060: dbb4 4749 c053 bf40 a480 ce40 b807 ba48
00000070: ffa9 8948 8a11 8c4a 2042 2142 23c6 8b4a
00000080: db0a fd41 a420 a148 25f9 f948 8058 af48
00000090: cea2 c24a a5bf 5e42 230e f448 e549 5b49
000000a0: 8a9d 1d43 18b6 a249 0f6b 3f49 c590 fc40
000000b0: 1eef ea42 bc57 d741 fbf7 e542 78ac 0e43
000000c0: 22f4 1942 87be 9849 7d47 5649 4cad 0e41
000000d0: cf88 4548 5ab4 8449 d25b be41 3707 ec42
000000e0: dca9 8141 8f97 c349 7248 0043 0547 e441
000000f0: a73d c243 1e82 3648 9302 0948 63e6 6c4a
00000100: 70a9 7a41 c589 a749 6924 a849 0e58 f342
00000110: 1b39 f941 d2f9 2441 b2c1 9842 bbc2 5242
00000120: cf80 3643 5a1e 3c47 aa7a d543 28e1 3a48
00000130: 56c5 3143 d331 db40 c0ac 3949 160a c748

4.weight f4 [50, 80]
-1.2037846 9.697883 -0.5881397 -0.008450569 -1.6224066 -0.018625142 1.9189429 3.5608613
-3.8673239 -0.10917044 -6.621754 -5.710716 -1.6662828 0.2770513 1.3979216 -1.8125008
3.1260247 8.566871 1.4366102 -0.8753279 3.3764982 2.3149114 2.191434 0.5773081
6.1210494 3.8175056 -1.0477896 4.0361505 1.1773111 -3.663596 6.0504317 0.7366265
5.356866 -0.95993257 6.3393064 7.082993 0.3037931 0.10837019 -11.976371 0.05376035
-1.4132104 -4.760047 0.63327485 -4.379474 -2.554868 -2.6949 0.690256 0.55648214
0.12041763 3.0714757 -0.6975103 2.4135299 -7.483585 5.2105675 -0.23068628 -2.7074847
-2.421868 4.3240786 2.256275 -1.2198533 1.1692977 -0.97784716 0.09606199 0.030543685
-1.8894854 -3.678409 0.6681976 -1.0657234 9.037581 2.2027605 -1.3038206 2.293243
-2.1954813 0.8844183 -2.7379744 0.9829304 -3.9361181 -0.8851387 2.993511 -1.3335396
-1.42089 1.681641 0.35862476 -0.49808806 -3.1505682 -0.47799897 -3.2200632 0.73842585
-5.9684167 -0.93729573 -3.8027186 -4.20609 -2.880444 -0.54980236 6.8628163 1.940835
-5.6731277 15.2027855 2.190638 1.1909095 -2.190907 -5.130292 0.2715141 -2.0568962
-0.7631354 3.2660184 -3.5783591 -1.7161599 0.4133815 -1.5633224 7.290162 0.13028578
-3.5737834 0.38982818 5.3809614 8.133262 0.5920351 4.7352076 1.9586961 -1.7453668
-5.214478 1.4284103 -0.10634466 1.7375627 3.2373748 0.39116046 1.2988682 -0.50388885
8.461982 -7.2867374 -1.8842239 4.2335362 -1.5381812 -6.6958747 -6.88062 -4.052915
0.41677028 -1.5658475 7.704612 -8.974295 -0.5107319 -3.174633 1.2825301 0.83008647
-1.726267 -6.265864 3.5391073 3.819329 -0.53183866 -3.648889 1.9482464 5.827052
3.044219 -2.3063314 -0.54951483 -2.8875976 1.275508 -0.9420736 -1.7121931 -1.7063034
-1.7752032 -0.18648505 0.83208805 -1.2799078 12.576937 -1.9220694 -0.2329612 3.3993864
-5.2785287 1.4479445 0.46273124 -4.480305 -2.2547662 1.5606749 -3.1133182 -1.3567768
0.14926367 3.115981 -0.3436183 -0.19430512 -3.9485242 6.3321075 -1.5196583 -1.8194084
-0.89589006 2.7989223 -4.658701 5.4714246 -1.898917 0.51255625 3.7645454 0.080341436
2.4641125 -0.888542 4.254502 -8.636329 1.6833808 0.58655536 0.9942922 -0.24848159
0.92778903 -4.5187426 -0.04873881 5.1601996 -1.5190991 -3.918993 -0.5944827 0.19457059
5.428019 -0.95030063 0.1659604 -3.8385196 0.56836057 5.974415 -2.7478154 -1.2041945
-6.2078624 4.613846 6.335333 -0.414883 -0.82556903 0.6255569 0.022755189 -1.5638324
-1.3741232 4.2642303 0.16082521 -1.9168932 4.731492 -1.3579378 2.732362 -4.995312
-7.5410705 3.2907863 -1.0857321 0.30039942 -0.690522 -0.5607476 9.513428 6.650055
0.7618541 -1.4968733 0.30602518 -0.05110499 1.2674302 -0.24224678 0.57790655 -1.5319424
-3.6407592 -0.28759947 -0.49305624 -0.42450488 4.0461802 0.74138504 2.238506 -31.522997
00000000: 9d15 9abf 872a 1b41 5390 16bf 4174 0abc
00000010: 05ab cfbf c193 98bc ec9f f53f 27e5 6340
00000020: 3c82 77c0 c094 dfbd 69e5 d3c0 2fbe b6c0
00000030: c148 d5bf abd9 8d3e 18ef b23f 0700 e8bf
00000040: ca10 4840 e711 0941 d8e2 b73f 7d15 60bf
00000050: 8c18 5840 8227 1440 7440 0c40 77ca 133f
00000060: a3df c340 0352 7440 f81d 86bf 2528 8140
00000070: 21b2 963f 5b78 6ac0 239d c140 8e93 3c3f
00000080: 726b ab40 24be 75bf 99db ca40 e1a7 e240
00000090: c58a 9b3e 31f1 dd3d 379f 3fc1 d033 5c3d
000000a0: 14e4 b4bf 4e52 98c0 4d1e 223f a724 8cc0
000000b0: f582 23c0 3e79 2cc0 9eb4 303f 9d75 0e3f
000000c0: 859d f63d 0f93 4440 0990 32bf 4677 1a40
000000d0: 8779 efc0 f8bc a640 0639 6cbe 6e47 2dc0
000000e0: e3ff 1ac0 da5e 8a40 cf66 1040 2724 9cbf
000000f0: 8cab 953f 3154 7abf 26bc c43d c036 fa3c
00000100: a8da f1bf 0e6b 6bc0 ff0e 2b3f a069 88bf
00000110: ef99 1041 07fa 0c40 98e3 a6bf 7ec4 1240
00000120: c482 0cc0 3d69 623f f93a 2fc0 54a1 7b3f
00000130: 5ce9 7bc0 7398 62bf af95 3f40 6db1 aabf
00000140: b9df b5bf 0340 d73f aa9d b73e 6605 ffbe
00000150: e9a2 49c0 48bc f4be 8415 4ec0 7a09 3d3f
00000160: 45fd bec0 9df2 6fbf be5f 73c0 4a98 86c0
00000170: 3259 38c0 d9bf 0cbf 319c db40 486d f83f
00000180: 438a b5c0 9c3e 7341 6a33 0c40 b96f 983f
00000190: d237 0cc0 5a2b a4c0 e503 8b3e 30a4 03c0
000001a0: d75c 43bf 7206 5140 d603 65c0 21ab dbbf
000001b0: bda6 d33e f31a c8bf 0249 e940 a369 053e
000001c0: deb8 64c0 8f97 c73e d630 ac40 d721 0241
000001d0: 9d8f 173f d286 9740 8eb6 fa3f 2e68 dfbf
000001e0: 01dd a6c0 26d6 b63f 3bcb d9bd 7468 de3f
000001f0: 2631 4f40 2f46 c83e 5041 a63f dcfe 00bf
00000200: 4764 0741 f42c e9c0 402e f1bf 2179 8740
00000210: 1fe3 c4bf 9b44 d6c0 0a2e dcc0 7bb1 81c0
00000220: ea62 d53e b16d c8bf 2e8c f640 b696 0fc1
00000230: 53bf 02bf 302d 4bc0 f229 a43f 8c80 543f
00000240: 51f6 dcbf f581 c8c0 bc80 6240 e36f 7440
00000250: 9426 08bf 6687 69c0 2360 f93f 3677 ba40
00000260: 7cd4 4240 ef9a 13c0 01ad 0cbf 66ce 38c0
00000270: d943 a33f bc2b 71bf 2529 dbbf 2668 dabf
00000280: dc39 e3bf f0f5 3ebe b903 553f 05d4 a3bf
00000290: 223b 4941 5f06 f6bf 618d 6ebe 8c8f 5940
000002a0: b5e9 a8c0 3f56 b93f 1ceb ec3e a95e 8fc0
000002b0: 174e 10c0 32c4 c73f 9b40 47c0 ddaa adbf
000002c0: 93d8 183e 3c6c 4740 bdee afbe ecf7 46be
000002d0: 9fb4 7cc0 a0a0 ca40 2a84 c2bf 60e2 e8bf
000002e0: 0d59 65bf 8b21 3340 1414 95c0 e915 af40
000002f0: b60f f3bf e336 033f 50ee 7040 0d8a a43d
00000300: 05b4 1d40 7d77 63bf e124 8840 672e 0ac1
00000310: 0679 d73f 7e28 163f ef89 7e3f f571 7ebe
00000320: 9583 6d3f 8a99 90c0 59a2 47bd 5b20 a540
00000330: d771 c2bf c8d0 7ac0 0530 18bf 833d 473e
00000340: 55b2 ad40 e746 73bf 86f1 293e 4eaa 75c0
00000350: 1480 113f 682e bf40 35dc 2fc0 0c23 9abf
00000360: cfa6 c6c0 a0a4 9340 0cbb ca40 8b6b d4be
00000370: 7e58 53bf 7f24 203f 1769 ba3c a92b c8bf
00000380: 45e3 afbf 9374 8840 5daf 243e c25c f5bf
00000390: 6268 9740 e8d0 adbf 05df 2e40 99d9 9fc0
000003a0: 7350 f1c0 3e9c 5240 45f9 8abf f4cd 993e
000003b0: 0dc6 30bf 288d 0fbf 0037 1841 40cd d440
000003c0: df08 433f 8b99 bfbf 55af 9c3e 7753 51bd
000003d0: 273b a23f 8a0f 78be aff1 133f b016 c4bf
000003e0: 3302 69c0 3d40 93be de71 fcbe b458 d9be
000003f0: 4f7a 8140 69cb 3d3f af43 0f40 192f fcc1

4.bias f4 [50]
-0.2242153 -6.8502645 -4.304659 -3.1797655 0.2796528 -2.3050416 -1.1857481 0.7504957
1.2759584 2.524497 0.31571445 -3.0335066 85.14946 35.343933 -1.9201769 -0.5732076
0.3731393 0.038677387 -1.0285255 -4.815317 47.263397 -0.26211745 -1.067463 2.3725183
-4.3864837 4.8100863 6.7778554 -1.282766 -2.4545288 -1.6758295 1.6128994 15.661862
-3.53025 -3.3556008 -1.1076286 -3.5642767 -0.39718828 -4.3778768 3.8569376 7.8608623
5.558678 5.188412 -2.9490178 1.8056922 1.0332779 -1.7838862 1.5824957 -1.2091534
-7.935277 -2.3420272
00000000: b298 65be 5e35 dbc0 c4bf 89c0 4781 4bc0
00000010: a72e 8f3e cd85 13c0 98c6 97bf 7c20 403f
00000020: 9b52 a33f 5c91 2140 53a5 a13e f924 42c0
00000030: 864c aa42 3060 0d42 5bc8 f5bf bcbd 12bf
00000040: 1d0c bf3e 2e6c 1e3d b9a6 83bf 1417 9ac0
00000050: b80d 3d42 4234 86be a1a2 88bf 57d7 1740
00000060: 135e 8cc0 3aec 9940 31e4 d840 ad31 a4bf
00000070: 0017 1dc0 9581 d6bf 7d73 ce3f fd96 7a41
00000080: 9eef 61c0 2ac2 56c0 c6c6 8dbf 1c1d 64c0
00000090: 435c cbbe 9117 8cc0 11d8 7640 2f8c fb40
000000a0: b1e0 b140 7907 a640 b5bc 3cc0 ec20 e73f
000000b0: 7342 843f 6256 e4bf 388f ca3f 8ac5 9abf
000000c0: caed fdc0 c6e3 15c0

7.weight f4 [50]
2.0976326 3.833073 5.1978083 5.500213 5.1661563 4.0437565 9.479715 4.1191688
5.317295 3.6364825 3.5840976 3.8135395 8.167767 7.2747865 3.0470576 6.4466896
7.390196 4.197158 5.7701287 7.0179935 5.73941 -3.1764076 4.179239 4.221281
3.317158 5.643281 9.503891 3.1510515 3.2403927 3.4707313 3.3171039 4.8032737
3.8775508 5.4679813 3.7015889 3.0149057 5.0441093 6.8689556 5.064728 3.933543
5.361376 3.7255354 4.707909 4.3883166 4.33844 3.4524662 4.4425974 3.2562885
6.3288627 3.084724
00000000: 9d3f 0640 1151 7540 7254 a640 bf01 b040
00000010: 2751 a540 7466 8140 eaac 1741 3bd0 8340
00000020: 4827 aa40 21bc 6840 db61 6540 0811 7440
00000030: 2caf 0241 0dcb e840 fe02 4340 484b ce40
00000040: 7c7c ec40 1e4f 8640 e5a4 b840 6793 e040
00000050: 3fa9 b740 434a 4bc0 53bc 8540 bc14 8740
00000060: 514c 5440 c295 b440 f00f 1841 d4aa 4940
00000070: 9862 4f40 7620 5e40 6e4b 5440 6bb4 9940
00000080: cb29 7840 b4f9 ae40 d5e6 6c40 37f4 4040
00000090: 5869 a140 7cce db40 4012 a240 2bbf 7b40
000000a0: 6490 ab40 2c6f 6e40 31a7 9640 176d 8c40
000000b0: 80d4 8a40 35f5 5c40 c229 8e40 0867 5040
000000c0: 0b86 ca40 1e6c 4540

7.bias f4 [50]
0.16092509 -0.08224123 0.53911394 0.41122139 1.1202893 1.7052493 3.1051607 -0.11045003
0.62551934 -1.7209797 -1.628864 -0.374892 -1.975873 2.3852422 1.8228045 0.6159421
0.2920432 -0.027102984 0.7582515 -0.4512573 -1.709417 0.37526307 0.0768874 1.2530063
1.1881411 1.1480033 0.6180827 0.57986957 -1.0072467 1.5032026 0.9137523 0.22614828
-1.0664119 3.561419 -0.025154464 2.0579886 -0.015606573 -1.2002343 -1.4446491 0.79142
0.99367136 0.15876342 1.4878578 -0.5715793 -1.4868518 -1.1754888 1.8691361 1.5738289
0.5214513 1.9857159
00000000: 8cc9 243e 176e a8bd 5f03 0a3f 9c8b d23e
00000010: a465 8f3f 9c45 da3f f4ba 4640 a033 e2bd
00000020: 0922 203f 1049 dcbf 9e7e d0bf d8f1 bfbe
00000030: 68e9 fcbf cfa7 1840 a851 e93f 62ae 1d3f
00000040: b086 953e 1407 debc c51c 423f 320b e7be
00000050: 2dce dabf 7b22 c03e 2477 9d3d 8362 a03f
00000060: 0215 983f c6f1 923f ab3a 1e3f 5572 143f
00000070: 76ed 80bf f168 c03f aceb 693f 6a93 673e
00000080: 2f80 88bf 4aee 6340 bc10 cebc 16b6 0340
00000090: b6b2 7fbc 47a1 99bf 43ea b8bf 809a 4a3f
000000a0: 3f61 7e3f e192 223e 2072 be3f 0553 12bf
000000b0: 2951 bebf 6b76 96bf da3f ef3f 3a73 c93f
000000c0: d57d 053f f02b fe3f

7.running_mean f4 [50]
33.720173 43.852566 25.729397 110.48572 80.41079 70.64284 177.57222 76.18633
52.301006 62.392426 72.480225 25.533432 593.499 672.8316 59.521908 110.40423
131.24911 109.8131 45.68812 66.76345 518.5213 53.947323 102.4219 99.89019
41.511433 217.45866 234.91034 79.356384 62.344925 50.191223 120.6086 297.51038
66.65509 18.821754 46.255787 61.708344 108.98471 53.184853 242.85345 212.635
132.89046 179.27629 58.029232 178.17873 40.153835 81.4036 135.66449 66.10916
47.732002 93.761505
00000000: 75e1 0642 0769 2f42 ced5 cd41 b0f8 dc42
00000010: 53d2 a042 2249 8d42 7d92 3143 675f 9842
00000020: 3b34 5142 d891 7942 e0f5 9042 7844 cc41
00000030: f05f 1444 3935 2844 6f16 6e42 f7ce dc42
00000040: c63f 0343 4fa0 db42 a3c0 3642 e386 8542
00000050: 5da1 0144 0fca 5742 03d8 cc42 c7c7 c742
00000060: b50b 2642 6b75 5943 0ce9 6a43 78b6 9e42
00000070: 3461 7942 d0c3 4842 9a37 f142 54c1 9443
00000080: 684f 8542 f492 9641 ed05 3942 58d5 7642
00000090: 2cf8 d942 4abd 5442 7cda 7243 8fa2 5443
000000a0: f5e3 0443 bb46 3343 ef1d 6842 c12d 3243
000000b0: 879d 2042 a5ce a242 1caa 0743 e437 8442
000000c0: 92ed 3e42 e485 bb42

7.running_var f4 [50]
3164.23 9363.006 5686.168 27239.582 17057.496 11294.4375 56103.99 14091.266
10328.377 12656.898 12350.519 3343.2898 74619.61 70633.484 8911.562 26962.682
44261.22 16632.63 10524.485 12679.933 65849.21 8078.4683 14687.269 17313.389
6434.935 53576.32 56625.715 14123.068 12772.545 8636.55 24729.143 28970.545
11232.379 2968.4578 8433.343 9028.303 22194.252 11430.456 28784.533 21111.893
18806.104 20871.654 12700.923 29572.56 6572.27 13656.475 19480.055 11697.751
9164.731 18301.531
00000000: aec3 4545 064c 1246 58b1 b145 2acf d446
00000010: fe42 8546 c079 3046 fd27 5b47 102d 5c46
00000020: 8261 2146 98c3 4546 13fa 4046 a3f4 5045
00000030: cebd 9147 bef4 8947 3f3e 0b46 5da5 d246
00000040: 38e5 2c47 43f1 8146 f171 2446 bb1f 4646
00000050: 9b9c 8047 bf73 fc45 137d 6546 c742 8746
00000060: 7b17 c945 5248 5147 b731 5d47 46ac 5c46
00000070: 2e92 4746 33f2 0646 4932 c146 1755 e246
00000080: 8481 2f46 5387 3945 5fc5 0346 3611 0d46
00000090: 8164 ad46 d399 3246 11e1 e046 c9ef a446
000000a0: 35ec 9246 4f0f a346 b173 4646 1f09 e746
000000b0: 2962 cd45 e661 5546 1c30 9846 01c7 3646
000000c0: ed32 0f46 10fb 8e46

8.weight f4 [20, 50]
-1.4227707 8.849428 6.50567 2.061713 -12.584108 -1.9529647 -1.7087574 7.774848
-4.435472 5.5120406 5.656925 -2.7274244 2.5188012 -5.2815757 -0.9883105 0.53480583
0.083607316 1.3089396 -2.6533542 1.05446 1.2966597 -0.7952756 -4.4783297 1.1406068
1.0210072 0.9245361 2.0693064 0.26168832 -1.6222671 3.521411 -1.8617427 -2.1196847
4.60535 -1.1025666 4.0350337 4.728479 -4.618841 2.470002 1.3760978 -1.1604748
6.6117516 3.540483 -2.2422006 -1.9097977 -1.666178 4.147156 3.1224487 -4.3884597
4.4630227 -2.6241925 -0.46419448 -1.0947802 1.2047145 2.0790014 0.96066314 3.1916554
1.2905267 4.6833353 15.081143 0.631611 -0.43508214 0.61533433 -0.025981331 0.8197081
-5.5851436 -0.4553477 -2.6798906 -1.2337316 16.969013 7.516055 -1.8002328 -3.770889
-3.398994 -1.8312168 0.891403 2.9825468 -4.286716 5.062217 -9.126939 3.3378081
3.5155735 10.208802 -0.51057416 1.0313559 3.8579667 1.1617846 -6.219013 -1.4027995
-6.3239846 -0.50353557 0.41213688 -0.49183285 -0.385828 -3.968909 2.5550985 -1.4720558
-0.08509361 3.3936331 -3.8928716 -4.2768893 -3.335631 6.1633964 1.1652414 -2.598715
2.8711932 8.395349 -1.6716813 1.1515718 0.1517196 -2.3435848 -1.6310974 -0.656173
0.91238207 4.585414 3.7751863 -23.750446 3.0493493 2.8713415 1.9449797 -0.77014357
-1.5149577 2.192343 2.3691947 4.8964596 -1.6897475 0.68375003 -1.00282 -3.9182618
4.9494843 -1.3328 -0.9849846 -1.4178164 5.2895164 -1.9622074 -0.38617018 -7.818773
-4.286864 3.4543483 2.7378387 -0.35543397 -1.8846061 0.7031603 -2.1980982 6.470782
2.0333965 6.4603434 0.43973768 1.7970135 -1.6625876 6.947391 3.00298 4.4994206
1.8279124 -5.571883 -2.2223258 1.5033644 5.4475207 4.602622 0.036702406 -2.0685909
-0.3491012 1.487148 5.4285994 1.1464531 -2.1847756 4.6883907 -4.429411 -10.408732
-1.762967 -7.063865 3.7860992 -5.455202 -5.4176817 -1.6655934 -8.584743 -3.7803524
-2.4051507 1.3253496 -1.0965846 2.6712036 -5.2060633 0.2007871 0.3381109 0.90319157
0.7856664 1.1575582 -8.12841 -1.338691 1.3333015 -7.3344 4.095129 -8.146427
5.6016383 -4.3506217 -5.5950794 5.249964 -0.97341937 4.792558 4.354426 3.9776046
7.406054 3.603799 0.4666421 1.2148348 -6.816707 -2.2525017 -8.090495 1.6288786
-4.8555512 7.3213835 9.808579 6.1913157 6.85363 1.0302356 -2.1841586 1.0721071
0.077216454 -0.07814815 -6.0380077 4.856264 3.1197255 -0.970641 -4.3732533 -1.2504224
-12.657759 0.1877049 -5.6796775 2.9808972 1.9691014 -0.084323935 -1.403754 -4.2940454
6.034337 -1.4508177 -0.5321903 1.7138648 2.4339652 2.2565238 0.18259643 -5.867763
3.575155 -0.57515806 -6.9839063 1.6257029 0.22009914 1.7393295 0.10237837 -1.9472097
-7.459466 -7.940737 -2.6504862 -3.0989003 -3.0966463 3.5393448 5.1872425 2.0577831
00000000: 5a1d b6bf 4297 0d41 732e d040 1bf3 0340
00000010: 8258 49c1 bffa f9bf 90b8 dabf 8ecb f840
00000020: 63ef 8dc0 a362 b040 8805 b540 1f8e 2ec0
00000030: 0a34 2140 ab02 a9c0 eb01 7dbf 09e9 083f
00000040: 503a ab3d 558b a73f 8ed0 29c0 8cf8 863f
00000050: f2f8 a53f 2f97 4bbf 7a4e 8fc0 67ff 913f
00000060: 5db0 823f 66ae 6c3f 846f 0440 03fc 853e
00000070: 73a6 cfbf cc5e 6140 964d eebf eaa8 07c0
00000080: 075f 9340 e720 8dbf ff1e 8140 b34f 9740
00000090: 8ccd 93c0 8314 1e40 f923 b03f 708a 94bf
000000a0: 7893 d340 4697 6240 3780 0fc0 4074 f4bf
000000b0: 5245 d5bf 80b5 8440 33d6 4740 436e 8cc0
000000c0: 15d1 8e40 c5f2 27c0 e6aa edbe c221 8cbf
000000d0: 1634 9a3f 5c0e 0540 05ee 753f 1544 4c40
000000e0: fb2f a53f e2dd 9540 5d4c 7141 42b1 213f
000000f0: 16c3 debe 8d86 1d3f cdd6 d4bc 64d8 513f
00000100: 7fb9 b2c0 5523 e9be 5483 2bc0 ebea 9dbf
00000110: 8ac0 8741 8683 f040 076e e6bf 3f56 71c0
00000120: 1e89 59c0 5065 eabf fd32 643f 0ce2 3e40
00000130: c72c 89c0 affd a140 f107 12c1 a69e 5540
00000140: 28ff 6040 4157 2341 fdb4 02bf 7803 843f
00000150: ede8 7640 5cb5 943f 2802 c7c0 ef8e b3bf
00000160: 155e cac0 b5e7 00bf 9b03 d33e 84d1 fbbe
00000170: 3f8b c5be 9b02 7ec0 bc86 2340 536c bcbf
00000180: 8f45 aebd 4931 5940 cf24 79c0 47dc 88c0
00000190: fa7a 55c0 8b3a c540 a126 953f 5951 26c0
000001a0: a1c1 3740 5953 0641 a7f9 d5bf b466 933f
000001b0: 625c 1b3e 4bfd 15c0 cdc7 d0bf f4fa 27bf
000001c0: df91 693f b6bb 9240 a79c 7140 ea00 bec1
000001d0: 8a28 4340 0fc4 3740 18f5 f83f 2128 45bf
000001e0: 22ea c1bf 594f 0c40 e3a0 1740 ccaf 9c40
000001f0: a549 d8bf 3e0a 2f3f 685c 80bf cdc4 7ac0
00000200: 2d62 9e40 3199 aabf f327 7cbf 027b b5bf
00000210: b843 a940 9d29 fbbf 19b8 c5be 6333 fac0
00000220: fd2d 89c0 0b14 5d40 c038 2f40 71fb b5be
00000230: c63a f1bf 5002 343f a4ad 0cc0 a510 cf40
00000240: 2b23 0240 22bb ce40 4c25 e13e 8a04 e63f
00000250: accf d4bf 0751 de40 d330 4040 41fb 8f40
00000260: 09f9 e93f de4c b2c0 963a 0ec0 3f6e c03f
00000270: 1752 ae40 ae48 9340 4355 163d cb63 04c0
00000280: 64bd b2be de5a be3f 16b7 ad40 fabe 923f
00000290: 5dd3 0bc0 4c07 9640 bcbd 8dc0 2b8a 26c1
000002a0: e7a8 e1bf 2f0b e2c0 734f 7240 0491 aec0
000002b0: a65d adc0 2a32 d5bf 1b5b 09c1 4bf1 71c0
000002c0: fded 19c0 0ea5 a93f e25c 8cbf 00f5 2a40
000002d0: 1298 a6c0 229b 4d3e df1c ad3e 9037 673f
000002e0: 6f21 493f de2a 943f f80d 02c1 3a5a abbf
000002f0: a0a9 aa3f 68b3 eac0 4c0b 8340 c457 02c1
00000300: 9f40 b340 4b38 8bc0 e40a b3c0 b5ff a740
00000310: 0332 79bf a35c 9940 7557 8b40 1391 7e40
00000320: 65fe ec40 a5a4 6640 b7eb ee3e b57f 9b3f
00000330: 7722 dac0 fd28 10c0 ab72 01c1 187f d03f
00000340: ad60 9bc0 c648 ea40 f1ef 1c41 421f c640
00000350: f050 db40 c3de 833f 41c9 0bc0 ce3a 893f
00000360: a923 9e3d 230c a0bd 5c37 c1c0 8466 9b40
00000370: 95a9 4740 ee7b 78bf b1f1 8bc0 d70d a0bf
00000380: 2e86 4ac1 b735 403e ebbf b5c0 05c7 3e40
00000390: 840b fc3f 07b2 acbd 36ae b3bf d268 89c0
000003a0: 4a19 c140 65b4 b9bf a03d 08bf ec5f db3f
000003b0: 16c6 1b40 e36a 1040 8ffa 3a3e b7c4 bbc0
000003c0: 57cf 6440 8f3d 13bf 297c dfc0 0817 d03f
000003d0: ab61 613e 59a2 de3f c0ab d13d 2b3e f9bf
000003e0: f2b3 eec0 841a fec0 91a1 29c0 6254 46c0
000003f0: 742f 46c0 a084 6240 e4fd a540 b8b2 0340

8.bias f4 [20]
-11.40355 0.8716652 -1.9925109 -0.86482275 -6.7949185 2.786973 0.74327475 -0.54792947
4.4719534 0.66874725 1.4399832 -6.5374703 -0.5782611 -3.0255823 -2.9314208 2.9639432
4.6694293 2.5737023 6.8770895 0.026399931
00000000: f174 36c1 7325 5f3f 990a ffbf 0665 5dbf
00000010: f96f d9c0 c45d 3240 4147 3e3f 1b45 0cbf
00000020: 3e1a 8f40 0533 2b3f 5f51 b83f f532 d1c0
00000030: eb08 14bf 24a3 41c0 669c 3bc0 3fb1 3d40
00000040: f76b 9540 8ab7 2440 1e11 dc40 ab44 d83c

11.weight f4 [20]
0.009427593 1.0968204 1.5542113 1.5878426 0.46802616 0.92168194 1.1369382 1.429439
1.1348617 0.84607154 1.0403306 0.0006779924 0.8786751 1.7090983 0.84192866 1.4666069
1.3923044 1.6105201 0.88189775 1.2635163
00000000: 3176 1a3c 9c64 8c3f 65f0 c63f 6d3e cb3f
00000010: 20a1 ef3e 59f3 6b3f 3187 913f dbf7 b63f
00000020: 2643 913f 2598 583f 8e29 853f 4dbb 313a
00000030: daf0 603f bcc3 da3f a388 573f c6b9 bb3f
00000040: 0837 b23f 8625 ce3f 0dc4 613f e7ba a13f

11.bias f4 [20]
-0.00046376753 2.7846818 -0.15185133 0.2313362 0.0520029 -0.078603975 -0.08990122 0.1719775
-1.886635 -2.7671556 2.7104943 6.3896834e-05 -0.063472025 -0.47908106 -2.4076667 0.23653148
-0.10781538 1.0442429 -2.8682733 1.6409875
00000000: d325 f3b9 3a38 3240 ea7e 1bbe 66e3 6c3e
00000010: fe00 553d 1ffb a0bd 211e b8bd df1a 303e
00000020: 417d f1bf 1419 31c0 bd78 2d40 5a00 8638
00000030: 9ffd 81bd 1d4a f5be 3617 1ac0 4f35 723e
00000040: 4fce dcbd c0a9 853f ca91 37c0 e10b d23f

11.running_mean f4 [20]
18.127136 151.51042 83.18159 87.45701 24.397268 58.914127 87.17847 81.94079
175.195 154.98093 113.74843 63.225346 40.949844 94.83505 124.862686 92.72478
110.55502 160.7194 214.2876 98.09108
00000000: 6004 9141 ab82 1743 f95c a642 fde9 ae42
00000010: 9b2d c341 11a8 6b42 605b ae42 afe1 a342
00000020: ec31 2f43 1efb 1a43 327f e342 c1e6 7c42
00000030: a4cc 2342 8cab bd42 b2b9 f942 1673 b942
00000040: 2c1c dd42 2bb8 2043 a049 5643 a22e c442

11.running_var f4 [20]
2487.2534 71783.26 13170.618 13527.44 3725.4705 5848.9775 10753.239 14104.244
43732.41 54587.875 31602.64 10661.349 4087.902 21492.848 29590.918 13974.027
10478.368 51898.02 44638.953 37409.086
00000000: 0e74 1b45 a133 8c47 79ca 4d46 c35d 5346
00000010: 87d7 6845 d2c7 b645 f504 2846 fa60 5c46
00000020: 69d4 2a47 e03b 5547 48e5 f646 6595 2646
00000030: 6f7e 7f45 b2e9 a746 d62d e746 1c58 5a46
00000040: 79b9 2346 05ba 4a47 f45e 2e47 1621 1247

12.weight f4 [1, 20]
-0.00027137634 2.0742686 -0.44839725 0.51843256 0.09354765 -0.24535649 -0.31344527 0.46371698
-1.3826287 -2.093643 2.0227966 7.442024e-05 -0.25273862 -0.5799592 -1.7814578 0.4845341
-0.42510617 0.9101431 -2.2523916 1.1934193
00000000: 8447 8eb9 d1c0 0440 5394 e5be ffb7 043f
00000010: e995 bf3d bb3e 7bbe e67b a0be 506c ed3e
00000020: faf9 b0bf 3ffe 05c0 8075 0140 1012 9c38
00000030: f566 81be 3578 14bf cf06 e4bf db14 f83e
00000040: 84a7 d9be 23ff 683f 2f27 10c0 f7c1 983f
