main_app/deep_model_strength/torch_model_params.pkl (torch_old, 18732 bytes, 5 tensors)

0.weight f4 [60, 42]
000000 a0 42 e0 3f e2 d9 e8 bf e9 55 7f 40 64 a7 2c bf
       1.7520332 -1.8191493 3.9896185 -0.6744292
000010 e2 51 9d bf 4c 59 b9 40 f2 66 e8 3f 23 e8 e1 3f
       -1.2290614 5.7921505 1.8156416 1.7648968
000020 cc 5e 85 40 cf 8c 75 3f 53 be 90 3f dc 91 0d 3e
       4.167822 0.9591798 1.1308082 0.13825172
000030 f2 04 2f bd c7 1c 30 bf eb 11 0a 40 06 11 85 3f
       -0.042729326 -0.6879391 2.1573436 1.039582
000040 a1 97 d0 3f 70 0f b7 3d 08 96 91 3f 55 ef e2 bf
       1.6296273 0.08938491 1.1373911 -1.7729288
000050 18 6d 02 c0 fe 18 d2 bf 17 39 8e be 25 23 7f 3f
       -2.0379086 -1.6413877 -0.2777793 0.99663
000060 74 96 db 3f 37 1c 87 bd 65 4b 9f 3f 43 ea 01 3e
       1.715529 -0.065971784 1.2444884 0.1268702
000070 78 96 df bd 9b aa 62 bf 32 90 f3 bf d1 92 b1 3f
       -0.109173715 -0.88541573 -1.902838 1.387293
000080 38 cf 04 40 62 17 cb 3e 8c 3e f2 bd 05 28 a1 40
       2.0751476 0.39666277 -0.11828336 5.036135
000090 68 75 70 bf 72 48 0b bf 46 f2 f7 3f 5d e2 b1 3e
       -0.9392915 -0.5440742 1.9370811 0.34743014
0000a0 07 9e 59 3f 80 08 cd bc 7a c0 b8 bf 7e 67 63 c0
       0.85006756 -0.025028467 -1.4433739 -3.5531917
0000b0 22 b5 b9 c0 e4 07 fc bf 6f 88 90 3e 13 fd dc c0
       -5.803361 -1.9689908 0.2822909 -6.905893
0000c0 3e 4e 95 bf 78 65 97 3f 19 82 a7 c0 5f d8 ba 3f
       -1.1664503 1.1827841 -5.234631 1.4597281
0000d0 17 bf e3 bf 72 4d e0 3f 2f d5 a8 be 99 46 42 3f
       -1.7792691 1.7523634 -0.32975146 0.75888973
0000e0 2f 51 19 bf aa 6b 35 bf 65 b2 9d c0 fa b0 01 bf
       -0.598895 -0.7086741 -4.9280267 -0.5066067
0000f0 58 30 e6 c0 1d 8b 86 3f 72 b5 09 40 20 a1 b7 3e
       -7.1934013 1.0511204 2.1516995 0.35865116
000100 4e 61 01 c0 f3 dc 71 c0 93 77 8b c0 1c 5a 11 be
       -2.021564 -3.7791107 -4.3583465 -0.1419453
000110 9b e5 7e c0 92 d9 d7 3d 26 a6 9d bf c5 6a 03 bf
       -3.982764 0.10539545 -1.231633 -0.5133479
000120 ad 6b 3e 3f d8 1f c4 3e ec 7f f9 3e c5 ab ea bf
       0.7438305 0.38305545 0.4873041 -1.833367
000130 26 e7 1b be 3f 16 dc c0 41 ac 90 bf c7 f0 08 3f
       -0.15224895 -6.8777156 -1.1302568 0.534924
000140 74 fb b6 bf ea dc d7 c0 ab d2 df c0 60 37 42 3d
       -1.4295487 -6.745717 -6.9944663 0.04741609
000150 35 1f 50 be 3e ce 0b 40 bc cd 13 c0 9f 64 74 bf
       -0.20324405 2.184463 -2.309432 -0.95466036
000160 78 77 91 bf 99 5c 8c 40 66 0a 2e 3f 5a 66 7f 3f
       -1.1364584 4.3863034 0.67984617 0.9976555
000170 2d d3 31 c0 8c 6d 6b bf fe 24 d4 3f a2 f2 89 be
       -2.7785141 -0.9196403 1.6573789 -0.26942927
000180 f9 a3 a2 be 34 ca c8 3e b1 60 39 3f 8c e2 cc 3f
       -0.31765726 0.3921677 0.72413164 1.6006637
000190 24 c6 04 40 dc 93 c5 3f 96 a5 d1 be f3 1d 84 be
       2.0745935 1.5435748 -0.40946645 -0.258041
0001a0 02 13 61 c0 4e 76 c3 3f 83 6c 89 be f9 b8 a8 bd
       -3.5167851 1.5270479 -0.268406 -0.08238406
0001b0 04 7b 0b bf 80 1b 01 3b 6a 74 22 be 28 7b 7f bd
       -0.5448458 0.001970023 -0.15864721 -0.06237331
0001c0 86 a9 41 bf 97 a2 46 bf 46 7d d8 3e 73 0c 34 be
       -0.756493 -0.7759184 0.42283076 -0.17582874
0001d0 aa 7e 36 40 f2 f3 2e bf a0 dc d4 bc 54 ab a7 40
       2.851481 -0.6834098 -0.025984108 5.239664
0001e0 36 e1 14 be 8d c4 ad 3f 1f 8e 79 3f ce 44 09 bb
       -0.14539036 1.3575608 0.97482485 -0.0020945552
0001f0 17 26 bb 3d 3a 2e 58 bd 4e 12 42 40 f9 ec a2 bf
       0.091381244 -0.05277846 3.0323672 -1.2728568
000200 1b 67 69 40 34 64 a3 bf dd 22 82 c0 e5 72 34 40
       3.646918 -1.2764955 -4.066756 2.8195126
000210 d4 39 7f 40 12 5c 1c 40 22 11 85 40 04 0a 92 3f
       3.9879045 2.4431195 4.1583414 1.1409307
000220 d4 ce 83 3f 24 1b ad 3e 4d 82 3f c0 f6 9d ea 3f
       1.0297494 0.3380977 -2.992328 1.8329456
000230 1e da 34 40 74 57 4c 3f 57 37 85 3f e0 81 67 bf
       2.8258128 0.7982094 1.0407513 -0.9043255
000240 ff 83 99 be 4c 62 04 c0 b8 87 55 c0 1d 68 50 c0
       -0.29983518 -2.0684996 -3.3364086 -3.2563546
000250 c5 91 d7 bf 6e f6 ad be 64 6c b6 3d b8 b3 f8 bc
       -1.684136 -0.33977073 0.089073926 -0.030359134
000260 2d b7 95 be 90 f7 d6 3c 97 83 9b bd a5 36 02 bf
       -0.29241315 0.026241094 -0.07593458 -0.5086463
000270 28 c2 3b c0 b6 64 2b 3e 46 9d 60 3f 61 4c c2 bf
       -2.9337254 0.16737637 0.8773998 -1.5179559
000280 5d 91 1c be 1c 15 61 40 02 95 e8 3c fb b0 b8 3e
       -0.15289827 3.5169134 0.028391365 0.36072525
000290 a4 f7 a2 bc fc 06 ec be a2 7d 41 be c0 f1 1f bb
       -0.019893475 -0.4609908 -0.18895581 -0.002440557
0002a0 f1 e3 89 3d 17 9b 6b be ea d0 b2 40 3a 23 1b bf
       0.067329295 -0.23008381 5.588002 -0.60600626
0002b0 b2 31 89 3f 5d 7b 73 40 f2 a7 33 bf ff a6 f9 bf
       1.0718291 3.8044045 -0.7017814 -1.9504088
0002c0 1a 5d 92 40 44 e1 8a 3f e1 53 d3 3f e9 ce 27 bf
       4.573865 1.0849996 1.6509973 -0.65550095
0002d0 14 66 02 bf c5 5f 73 bf ba 11 e4 3f 13 d5 35 40
       -0.5093701 -0.9506801 1.781791 2.84113
0002e0 b6 33 af 3f 83 94 3f bf ec 41 3c 3e fe 59 38 3f
       1.3687656 -0.74835986 0.18384522 0.7201232
0002f0 a5 4b bb bd 0a 3a 67 3f 5d 4d 25 3f 36 4d 02 3f
       -0.091452874 0.90322936 0.6457117 0.50899065
000300 6f 89 76 3f c1 92 02 3e 49 94 15 3f a0 50 cf bc
       0.9630346 0.12751295 0.5842939 -0.025307
000310 0e 74 a9 be 69 b4 3f bf ca 0a 0e c0 ee 57 4e 3f
       -0.33096355 -0.7488466 -2.2194085 0.8060292
000320 d5 37 87 ba eb 18 8a 3f a8 14 bb 3d 28 d4 6c 40
       -0.0010316322 1.0788854 0.09134799 3.700449
000330 fc b7 7d 3f 4b db b2 3f f1 b5 70 3f 97 52 43 be
       0.9910886 1.3973173 0.9402762 -0.19074474
000340 2a a5 31 3f 71 26 0f 3e 08 c7 69 bf b8 89 28 3f
       0.69392645 0.13979508 -0.9131932 0.6583514
000350 20 8a e2 40 37 48 be bf d1 b2 51 c0 65 8e 02 c0
       7.079361 -1.4865788 -3.276539 -2.039941
000360 c2 eb 7f bf 97 54 0e 3e ab fe db 40 01 de 1d c0
       -0.9996911 0.13899456 6.8748374 -2.466675
000370 6f 9b ec 3f 8c f7 14 3d ca f8 86 bf 90 26 1c 40
       1.8484935 0.03636889 -1.0544674 2.4398537
000380 0d a6 24 c0 bd 0e 22 bf 04 7b 71 3d 1b 19 9a be
       -2.572635 -0.6330374 0.058955207 -0.3009728
000390 02 b0 cc be 66 ef 2c c0 0c da 03 c0 03 da 7e bd
       -0.39978033 -2.7021117 -2.0601835 -0.06221963
0003a0 da d9 86 bf e2 2a 10 40 8f 5a 25 40 ea 5e d6 3d
       -1.0535233 2.2526174 2.5836523 0.10467322
0003b0 9b 88 11 40 00 62 74 3c d8 bf a2 3f 9b 99 1c 3f
       2.2739627 0.014915943 1.2714796 0.61171883
0003c0 7d 25 b0 bf 42 21 8b 3f 57 c1 a2 bf b0 df e7 bf
       -1.376144 1.0869524 -1.2715253 -1.8115139
0003d0 da 7f cf 3d 15 ea ef bf 9e e6 22 3f 74 c1 f1 bf
       0.101318076 -1.8743311 0.63633144 -1.8887162
0003e0 06 50 f6 bf 49 58 c3 bf 1c 2d 81 bf 61 9f dc bd
       -1.9243171 -1.5261317 -1.0091891 -0.107725866
0003f0 5e 08 12 40 cf db aa bf b8 f3 2e bf a5 c1 5c 3f
       2.2817607 -1.334833 -0.68340635 0.8623298

0.bias f4 [60]
000000 fa ec a2 c0 0e 85 dd 40 11 89 a3 c0 fe 90 60 c0
       -5.091428 6.922492 -5.1104817 -3.5088496
000010 67 24 66 c0 f6 ae fb 3f cc 1b 15 bf 20 50 c2 bf
       -3.5959718 1.9662769 -0.5824554 -1.5180702
000020 66 2e 30 bf be 4e 89 c0 7a 7a 49 c0 53 75 19 c0
       -0.688208 -4.290862 -3.1481004 -2.397786
000030 f3 fd 94 c0 22 59 f6 3f f9 11 97 3e 76 65 ac c0
       -4.6559997 1.9245951 0.295059 -5.3873854
000040 a5 22 e5 c0 40 7f c7 3f 34 1b 2d 40 86 a2 c4 c0
       -7.160479 1.5585709 2.7047853 -6.1448393
000050 32 7d 54 40 d7 fb 5e bf ff 6f a3 c0 de 68 88 c0
       3.3201413 -0.8710303 -5.1074214 -4.262801
000060 c3 af 89 40 1b 31 98 c0 8e cd 8a be 7c 9e 6e c0
       4.3027053 -4.7559943 -0.2710995 -3.728423
000070 8c 07 05 c1 f1 86 84 c0 a7 14 e4 bf 47 6d ca bf
       -8.3143425 -4.1414723 -1.7818803 -1.5814599
000080 79 33 e4 bc 0e 96 91 c0 08 91 32 c0 df 07 63 c0
       -0.027856575 -4.549567 -2.790102 -3.5473554
000090 e0 d1 04 3e 07 74 af c0 07 df bd c0 e4 0a 9b c0
       0.12970686 -5.4829135 -5.933475 -4.8450794
0000a0 cc 3d ac 40 19 21 d6 c0 de ad 8f 40 9c bd d8 c0
       5.3825436 -6.6915402 4.489974 -6.7731457
0000b0 ca 9b f7 be 86 b0 8c c0 ca 02 73 c0 79 fe 7e 40
       -0.48361045 -4.3965483 -3.7970452 3.9842818
0000c0 50 0d 8e 3f 5f 3e 9f be a8 21 87 40 5d 75 1f c0
       1.1097813 -0.31102273 4.2228584 -2.4915383
0000d0 c1 41 e6 c0 50 cd 11 c0 d0 61 ac c0 00 45 e5 bf
       -7.1955266 -2.2781563 -5.38694 -1.7911682
0000e0 59 f0 cf bf 21 79 d9 c0 af d5 8e c0 06 59 75 c0
       -1.6245223 -6.7960362 -4.4635844 -3.8335586

2.weight f4 [30, 60]
000000 e6 82 07 3e a1 ee ab 3e 71 12 0b 3e 48 26 52 3e
       0.13233528 0.33580497 0.13581254 0.20522416
000010 aa cb 2e 3e 23 42 82 3e e1 be 68 3e 93 f4 ba 3d
       0.17069879 0.25441083 0.22729065 0.0912868
000020 a0 52 80 bd 43 dc 97 bd 65 c7 b8 3d 58 8d 31 3e
       -0.062657595 -0.074150585 0.090224065 0.17339075
000030 28 04 7c 3e 8f 20 61 3e 80 ef 26 3e ec 69 bd 3d
       0.2461096 0.21985076 0.163023 0.092487186
000040 5c a4 92 3e 3e 4f d7 3d cf 60 2a 3c fc 13 55 3e
       0.2864102 0.10513161 0.0103990575 0.20808405
000050 ff 08 7e 3e ce 92 08 3e 94 6a 4c 3e 1d c5 b2 bc
       0.24808119 0.13337252 0.19962531 -0.021822507
000060 f0 69 8c 3e fe 9f 9f 3d ee f6 73 3e aa d1 89 3e
       0.27424574 0.07794188 0.23824665 0.26917773
000070 7a ab 88 3e b3 ba 32 3e d6 e2 03 3e aa c4 05 3e
       0.26693326 0.17454033 0.128795 0.13063303
000080 6f 2b 56 3e 91 c8 87 3e 68 99 20 3e 1d 4d 99 3c
       0.20915006 0.26520208 0.1568352 0.018713528
000090 0e b5 15 3d 41 8f 93 3e 11 99 50 3e f4 30 9b 3d
       0.03654962 0.28820232 0.2037089 0.075776964
0000a0 b4 27 86 3e 2f fd c4 3d 7f bd 76 3e b5 98 1b 3e
       0.26202166 0.096186034 0.24095725 0.15194972
0000b0 e2 73 d2 3d 2a 4a ce 3d f8 53 9e 3d 8e 34 4e 3d
       0.10276009 0.100727394 0.077308595 0.05034309
0000c0 67 6c 7c 3e f7 fd 92 3d 0a 08 93 3e d4 56 f9 3d
       0.24650727 0.07177346 0.2871707 0.12174764
0000d0 fe 31 68 3d 3c e2 85 3e 3b e9 20 3e c1 f5 45 3e
       0.0566883 0.26149166 0.1571397 0.19332029
0000e0 97 6f 43 3e 55 7d 87 3d 62 a5 9c 3d fb d7 45 3e
       0.19085537 0.06615702 0.07648732 0.19320671
0000f0 f9 bf e7 bd ff 27 c9 be 8f 32 87 be 08 ae 79 be
       -0.11315913 -0.39288327 -0.2640576 -0.24382794
000100 96 5b 74 bd 1a ef 44 be 26 7c a8 bd 1b 27 6d be
       -0.059657656 -0.19231835 -0.082268044 -0.23159449
000110 00 a6 38 be e0 74 34 bc 03 87 2e be b2 0a 6a be
       -0.18032074 -0.011014193 -0.1704369 -0.22855642
000120 a9 6f 8e be 2e 40 c8 be 02 a3 84 bd a0 8f 4a be
       -0.27819565 -0.39111465 -0.06476404 -0.19781351
000130 f3 6f c9 be 64 b7 78 be ea da 46 be be 1e 80 bd
       -0.39343223 -0.24288708 -0.19419447 -0.062558636
000140 73 58 96 be 2d 64 20 be 6d 80 76 be 2e 78 28 be
       -0.29364356 -0.15663214 -0.24072428 -0.16452095
000150 02 dd 00 bf 6d 6f 9c bd f0 66 c2 bd 35 cc 85 be
       -0.5033723 -0.0763844 -0.0949229 -0.2613236
000160 f0 5e 15 be f5 be 4f be f0 e5 52 bd 4d 65 46 be
       -0.14586997 -0.20287688 -0.051488817 -0.1937458
000170 48 d1 07 be 59 6a 2f be 77 09 86 be 46 f1 0e be
       -0.13263428 -0.17130412 -0.26179096 -0.13959226
000180 8f 67 06 be 32 bd 62 be 20 30 0f be fa da 9e bd
       -0.13125442 -0.22142485 -0.13983202 -0.0775661
000190 09 6d 96 be 3b 6a 55 be a3 f5 aa be 9b 19 0a be
       -0.29380062 -0.20841305 -0.3339053 -0.1348633
0001a0 87 e0 06 be 98 90 7c be 92 c5 f6 bc d4 70 59 be
       -0.13171588 -0.24664533 -0.030123506 -0.21234447
0001b0 0d 2f 07 be 75 49 d0 bd 84 76 30 be d5 7b 8d bd
       -0.13201542 -0.10170261 -0.1723271 -0.06908385
0001c0 13 73 45 be d5 f6 24 be 8f ae 5a bb b5 00 a6 be
       -0.19282179 -0.16109784 -0.0033368205 -0.32422414
0001d0 d6 77 80 be 28 27 0c be fa 26 64 be a4 de 5b be
       -0.25091428 -0.13686812 -0.22280493 -0.2147165
0001e0 5d de 20 be 34 e8 c2 be 86 9e 8b bc 69 79 99 bd
       -0.15709825 -0.38067782 -0.017043363 -0.0749386
0001f0 da 18 44 be 14 f7 4f bd 6e 96 86 bd dd f6 55 be
       -0.19150105 -0.05077274 -0.06571661 -0.20894952
000200 83 4f 53 be fe 00 0d bc 59 ad dc bd 2d a4 3d be
       -0.206358 -0.008606194 -0.10775251 -0.1851966
000210 e6 70 9f bd fc 18 b8 be 6c e7 b1 bc d8 1d 40 be
       -0.077852055 -0.35956562 -0.021716796 -0.18761384
000220 cd 76 02 be 64 d7 36 be 00 fb 1d be dd 57 fb bd
       -0.12740631 -0.17855603 -0.1542778 -0.12272618
000230 31 eb 53 be 0b 44 85 be 68 c0 8d bc e3 12 3e be
       -0.20695187 -0.26028475 -0.01730366 -0.18561892
000240 f0 26 44 be 4e 58 8f be 2c 9c 47 bd 16 13 8d bd
       -0.19155478 -0.2799706 -0.04873292 -0.06888406
000250 cf a7 50 bd ce e5 ed bd 8f 42 9b bd 55 57 71 be
       -0.050941285 -0.116160974 -0.075810544 -0.23568471
000260 b5 e5 6b be 99 6f 59 be f8 05 71 be c9 e6 73 be
       -0.23036845 -0.21233977 -0.23537433 -0.23818506
000270 32 37 6f be a0 d1 35 be 81 50 9e bd cc 41 6b be
       -0.23360899 -0.17755747 -0.07730199 -0.22974318
000280 0c 8d 77 be 86 33 36 be 3e 12 c8 be e3 b6 bd bd
       -0.24174899 -0.17793092 -0.39076418 -0.092633985
000290 87 eb 57 be e9 a8 5f be eb 6c 0e be bd 70 71 be
       -0.2108594 -0.21841778 -0.13908736 -0.23578162
0002a0 83 47 20 be 0b 36 8c bc f2 51 00 be 8e ee 83 be
       -0.1565228 -0.017115613 -0.1253126 -0.2576794
0002b0 30 aa 8c be 30 00 42 be 33 27 10 bd cf cc 83 be
       -0.27473593 -0.18945384 -0.035193633 -0.25742194
0002c0 24 bb 83 be 88 23 82 be 2a ff 65 be 69 d8 07 be
       -0.25728714 -0.25417733 -0.22460619 -0.13266148
0002d0 0a 5f 8b be 16 fa 97 be 3d 4c 01 be b2 1e 07 bd
       -0.27220947 -0.29682988 -0.12626739 -0.032988258
0002e0 4d 95 09 3c 6f fb 9f bc e7 04 20 be b6 42 9b be
       0.0083974125 -0.019529073 -0.1562687 -0.30324334
0002f0 93 d6 3b be 08 43 05 3d 72 85 a2 bd 45 87 7f be
       -0.18343572 0.03253463 -0.07935609 -0.24953945
000300 33 6b 88 be dd 5a 01 bf 2e eb 51 be a9 b4 6c bd
       -0.26644287 -0.5052927 -0.2049987 -0.05778948
000310 26 c0 37 be f5 a9 d9 bd 4d d3 1f be 9a 9b 00 be
       -0.17944393 -0.1062812 -0.15607949 -0.12559357
000320 58 0c 50 be bd c5 36 be b9 4b f1 bd b1 2a 69 be
       -0.20317209 -0.17848869 -0.11782021 -0.22770192
000330 96 08 e8 be 10 6a 64 be e0 2c 0d bd f6 0f 57 be
       -0.4531905 -0.22306085 -0.034466624 -0.21002182
000340 3a 49 23 be b0 a3 04 be fa 46 b4 bd 90 cd 53 be
       -0.15945902 -0.12953067 -0.088026 -0.20683885
000350 96 da 2c be 74 5b 1e be 35 4a aa be 15 fd cf bd
       -0.16880259 -0.15464574 -0.3325974 -0.101556934
000360 41 d3 fe bd 32 20 8e bd ec 38 96 be 07 1a d4 bc
       -0.12442637 -0.069397345 -0.29340303 -0.025891317
000370 d5 c5 c8 be f8 6c f6 bd 58 6c b2 be a6 30 c8 bd
       -0.39213434 -0.12032503 -0.34848285 -0.09774904
000380 7a 93 62 be e6 e9 92 bd 48 19 70 bb b2 51 bb be
       -0.2212657 -0.07173519 -0.0036636163 -0.36585766
000390 01 99 a7 bd 6b 33 aa bd c0 13 7c be 8c 40 c8 bc
       -0.0818348 -0.083105884 -0.24616909 -0.02444484
0003a0 b3 00 85 be 5a b0 42 be 79 04 58 be 73 ba ea bd
       -0.25977096 -0.19012585 -0.21095456 -0.114613436
0003b0 80 dc c3 be bd ee aa be b4 d1 c2 bd 28 31 99 be
       -0.38254166 -0.33385268 -0.09512654 -0.29920316
0003c0 10 31 73 bd 10 a5 b1 be aa cc 4c be 1c d8 82 bd
       -0.05937296 -0.34696245 -0.19999948 -0.06388876
0003d0 44 18 54 bd 6c 93 89 bd 33 6c 25 be a5 4c cd bd
       -0.051780954 -0.067175716 -0.16154556 -0.100243844
0003e0 9e 9d 40 3d 20 6d 04 be dd 5c b0 bc c8 c3 28 be
       0.047025315 -0.12932253 -0.021528656 -0.16480935
0003f0 c8 44 3b be af 61 9c be 54 43 8b be eb 31 83 be
       -0.18287957 -0.30543277 -0.27199805 -0.25624022

2.bias f4 [30]
000000 aa 26 e9 3e ed be 0b bf bf 42 08 bf c4 b0 ee be
       0.4553731 -0.54588205 -0.53226846 -0.46619236
000010 ca 07 c5 be bd 6b 0e 3f 8a 6d c0 bf 02 dd d4 be
       -0.38482505 0.55633146 -1.5033429 -0.41574866
000020 e1 62 7c 3f 7e ca 9e be 0b 24 d4 bd 11 0c 26 3f
       0.9858838 -0.31013864 -0.10358437 0.6486216
000030 18 d7 36 be 20 04 fe be ee 26 0e bf 53 db ed bf
       -0.17855489 -0.49612522 -0.5552815 -1.8582557
000040 b0 e1 06 bf 8a 01 d3 be c9 87 fa be 1d 40 6f c0
       -0.5268812 -0.41212112 -0.4893172 -3.7382882
000050 ff 29 90 40 ea cf dc be b5 55 a7 be 43 c9 c3 be
       4.5051265 -0.43127376 -0.32682577 -0.38239488
000060 8b ba d7 be 55 1f 48 3f e6 b9 ec be 75 63 c7 be
       -0.42134508 0.7817281 -0.4623558 -0.38943067
000070 00 48 d0 be 1a 83 3c bf
       -0.40679932 -0.73637545

4.weight f4 [1, 30]
000000 3b b1 1c 40 ad 71 13 c0 63 71 17 c0 2d 4d 12 c0
       2.4483173 -2.3038132 -2.3662956 -2.2859604
000010 25 0b 1c c0 87 b3 13 40 e4 b5 f1 bf cb 99 1a c0
       -2.4381802 2.3078325 -1.8883634 -2.4156368
000020 09 f0 02 c0 a3 de 8e 3f 72 62 72 40 25 af 47 c0
       -2.0459006 1.1161693 3.7872586 -3.120065
000030 b8 07 8b c0 67 a9 15 c0 59 7d 13 c0 6a de 03 c0
       -4.344692 -2.3384645 -2.3045256 -2.06045
000040 55 b0 18 c0 45 2d 18 c0 73 d5 11 c0 93 16 7d 40
       -2.3857625 -2.377763 -2.278653 3.9545028
000050 f7 85 98 c0 ff 0e 14 c0 a7 44 08 40 67 e5 19 c0
       -4.766353 -2.3134153 2.1291902 -2.4046266
000060 0b 54 1a c0 b9 01 11 40 b1 68 19 c0 b5 f1 1a c0
       -2.4113796 2.2657301 -2.3970149 -2.4210026
000070 ad 40 14 c0 35 59 12 c0
       -2.3164475 -2.2866948
