main_app/deep_model_strength/torch_model_params.pkl (torch_old, 18972 bytes, 5 tensors)

0.weight f4 [60, 43]
00000000: 5ef0 1f40 91d8 7f3f 6a19 63c1 b600 af3e
00000010: 6030 f53f a2cc 9b3e 4434 20c0 455f e73d
00000020: c670 3fc1 14a7 1ac0 b378 aebe 50b3 1640
00000030: 8bfd 82be 48a8 99bf 3c6b 73bf 7ade 243f
00000040: cc7e febe ad18 8540 1504 3240 2db6 403d
00000050: dcfa 4c40 fab4 423f 1578 b63f 279f 863f
00000060: b8cf 07bf 120b a1bf 6c81 06be 6756 2dbf
00000070: 88fd cf3d 35f3 0fc0 47f5 f9bf 83de bd3f
00000080: 3d0a be3f 3734 3dbf 5d25 6d3e 3829 093e
00000090: 00ba 803f 1f01 d23f 188e f43e 9409 b23f
000000a0: 8822 7e40 9479 d43f c0a0 c63c 0eab ccbf
000000b0: 8720 2fbf 4315 7d3f 3839 db3f 0895 2c3f
000000c0: 1ca8 c9bf ac63 4e40 2926 3c3f 1a89 7e3e
000000d0: b001 5740 de30 f93f a082 05c0 815a e83f
000000e0: 4bcb 67bf c585 14c0 552e 2cc0 9bf9 a4bf
000000f0: 4f28 2cbf a379 dc3f 58d1 2dc0 7054 5440
00000100: d933 2a40 85ae 1bc0 c576 8ebf 6f3b bbbf
00000110: 63fe 9ebf 8146 0bbe b03f c0bf 6ed1 113e
00000120: 5d06 7440 8dd3 7240 3aeb 1b40 9344 87c0
00000130: ef91 823f 3d80 7d3e 7cf6 b13d 6ad4 ecbf
00000140: 02ac 793e 320f 823f 2019 0cc0 5bad 923f
00000150: 4d57 a13f da4e b23d 557e 73c0 de5a ab3f
00000160: f7f9 f740 4a13 1d3f 7f67 ba3e ba4d d23f
00000170: d3f1 b63f 0b0d 533f 990f b640 ea49 55c0
00000180: 4e25 9e40 3a9b 71c0 26c2 97bf b964 143f
00000190: 21e1 f83e b6bc 5b3f fc26 973f 3731 0b40
000001a0: f25e 0e3f 2294 9cbf 24d3 8dbf 60cd 2f3f
000001b0: 2878 c6be 536e 62bf d4b5 edbe c295 313e
000001c0: 7c04 143d d7ca a6be 50a5 f33d 027a 013f
000001d0: 9b07 e43e a11e c73f 4070 40bf 4e8a 5bbf
000001e0: 908c ca3f 12a6 1b3e f8eb 2e40 5f5c 22c0
000001f0: dc15 8abf c992 883f b43b 4abd e0e0 a03e
00000200: 9a15 10be e6fb 12bf bfdc 13be d2f3 5840
00000210: 6e1d f73d d2fd b83e 0501 19bf 2117 9bbe
00000220: 1d88 993c 5eef 3d40 857b 3dbe 2ce2 0f40
00000230: 937f 0cc0 9fa7 9c3f 4b08 903d 2452 1cc0
00000240: b519 aebf 5393 153f d6dc 0dc0 765f 72bf
00000250: ebda 98bf 89aa 853e 576a a73e db97 2840
00000260: 786d f3bf 4033 e6bf c0a7 04c0 0056 6e3a
00000270: 3902 fabf c28b 163e d0a0 d5bd 102d 163e
00000280: bea1 97bd 8e26 253f 1b1f 64bf 203a 4abf
00000290: 09fd 0bbe 5952 8a3b 1efb 953f 2df2 a53d
000002a0: 19c4 223e 4dc2 b7bf 4d45 6fbf 8c99 a03d
000002b0: acb1 b1bf 2785 5940 9517 6c40 9605 4dbf
000002c0: fd81 c4bf 847f df3e 4575 80bf 9e5b 133f
000002d0: dd70 e240 b7d9 433f b6ee 86bf 8b4e 3f3e
000002e0: 353d 5bc0 62bb 2740 48b4 3bbf 3507 823e
000002f0: d0b8 213d 694a c7bf eaeb fdbe 0799 90bc
00000300: ca1a dabf cb1a 563e 3871 d83c c752 733f
00000310: 7599 573f 21e3 c93f 54c4 5bbd 06e9 933f
00000320: ce38 e8bd a63f f13e 1969 be3d 3f98 d23f
00000330: 14a8 903e 5501 af3f 0caf 073f 9c8d 143e
00000340: 7762 b73f 48d8 943f d4cb 2040 c34a 913f
00000350: f502 823f 9369 513f e0f7 223d 7280 ab3f
00000360: a7d7 3040 afaa 0041 d8ce 42c0 a3d4 50c0
00000370: c39a 8bbe 21cf 4ebf c267 bebf 1066 c440
00000380: f3d4 af3f eb1c 81c0 a738 8940 5ddc 74bf
00000390: 9d61 af3f 8b9f 58bf 9894 563f 4069 1d3e
000003a0: 12db 9abe 20a8 cdbf 4bea e83e f095 36c0
000003b0: b29a 243e cd7a ee3e 938f 15be ed59 c23d
000003c0: 81a4 383f 0698 1bbe 9f4d ce3d 82ec 95bd
000003d0: 0561 623f 8895 3a3f e8a1 49c0 c97b e23f
000003e0: dd85 04c0 8ec9 bcbe e03f d23b 8fbe 8cbf
000003f0: 2c45 f53f 79f2 303e 81b3 b7be 62ce 39bf
2.4990458 0.9993983 -14.193705 0.3418023 1.9155388 0.3042956 -2.50319 0.11297468
-11.965033 -2.4164476 -0.3407646 2.3546944 -0.25584063 -1.200448 -0.950855 0.6440197
-0.49706113 4.159262 2.7814991 0.047048736 3.2028112 0.760574 1.4255396 1.051732
-0.5305133 -1.2581503 -0.13135308 -0.67709965 0.10155779 -2.2492192 -1.9527978 1.483353
1.4846874 -0.739078 0.23158784 0.1339463 1.0056763 1.6406592 0.4776466 1.3909173
3.9708576 1.6599603 0.024246573 -1.5989702 -0.6840901 0.9886057 1.7126837 0.67414904
-1.5754428 3.2248335 0.7349573 0.24856988 3.359478 1.9468038 -2.0860977 1.815262
-0.90544575 -2.3206646 -2.690328 -1.2888674 -0.67249006 1.722462 -2.7159023 3.3176537
2.6594145 -2.4325268 -1.1129996 -1.4627513 -1.2421383 -0.13601114 -1.5019436 0.14240047
3.8128884 3.794162 2.436232 -4.227121 1.0200785 0.2475595 0.08689591 -1.8502324
0.24382022 1.0160887 -2.1890335 1.1459154 1.2604767 0.08706446 -3.8045857 1.3387105
7.7492633 0.6135756 0.36407086 1.642997 1.4292549 0.82441777 5.689404 -3.3326364
4.942054 -3.7750993 -1.1856124 0.5796619 0.4860926 0.85834825 1.1808772 2.1748788
0.55613625 -1.2232707 -1.108006 0.6867275 -0.38763547 -0.8844959 -0.46427786 0.17342284
0.03613709 -0.3257663 0.11896765 0.50576794 0.44537053 1.5556222 -0.7517128 -0.8575791
1.5824146 0.1520007 2.7331524 -2.536888 -1.0787921 1.0669795 -0.049373344 0.31421566
-0.1407074 -0.57415617 -0.14439677 3.3898816 0.1206616 0.3613115 -0.5976718 -0.30291083
0.018741662 2.9677348 -0.1850415 2.2481794 -2.1952865 1.2238654 0.07032832 -2.4425135
-1.3601595 0.58427924 -2.2166038 -0.9467691 -1.1941808 0.2610667 0.32698318 2.6342685
-1.9017782 -1.798439 -2.0727386 0.00090917945 -1.9531928 0.14701751 -0.10431063 0.14665627
-0.07403897 0.64511955 -0.89109963 -0.7899494 -0.13670744 0.0042212424 1.171726 0.08102832
0.15895118 -1.4356171 -0.9346512 0.07841787 -1.3882346 3.398752 3.6889393 -0.8008665
-1.5352169 0.43651974 -1.0035788 0.5756167 7.0762773 0.7650408 -1.0541599 0.18682306
-3.4256108 2.620812 -0.7332196 0.25396124 0.03948289 -1.5569583 -0.4959405 -0.017651094
-1.7039425 0.20908658 0.026421174 0.95048183 0.8421853 1.5772439 -0.05365403 1.1555488
-0.1133896 0.47118872 0.092973895 1.6452712 0.28253233 1.3672282 0.53001475 0.14507145
1.4326924 1.1628504 2.5124407 1.135094 1.0157152 0.8180172 0.039787173 1.3398573
2.7631624 8.041671 -3.0438747 -3.2629783 -0.2726651 -0.80784804 -1.4875414 6.137459
1.3736862 -4.03478 4.2881656 -0.9564875 1.3701664 -0.84618443 0.83820486 0.15372181
-0.30245262 -1.6066933 0.4549125 -2.8529015 0.16074637 0.46578065 -0.1460555 0.09489808
0.72126013 -0.15194711 0.10073399 -0.07320501 0.8842929 0.72884417 -3.150507 1.7694026
-2.0706704 -0.36872524 0.006416306 -1.0995654 1.9161735 0.17279996 -0.35879138 -0.7258054

0.bias f4 [60]
00000000: b06a 9fbf d07f 1740 fd69 22c0 b9b7 f9be
00000010: 1dc1 bebf 7ee5 783f dd93 37c0 f574 a3c0
00000020: d784 5440 1f50 94bf ba59 65c0 3cc9 48c0
00000030: 839b 10c0 b189 c93f 74d1 3fbf e1a4 0dbf
00000040: 65fe 8fc0 7050 7e3e 1349 7e3e b26e 4a40
00000050: f019 1c3f 11e7 23c0 7851 afbf 097f 01c0
00000060: b6c8 82c0 a579 7cc0 0ff7 2b40 1d34 d4bf
00000070: 84a8 c4be 2341 703f 3d3c 94c0 1ac8 2140
00000080: 8fd9 99c0 ec8a 04bf 3a1d 423e a560 80c0
00000090: e6e9 a1c0 0b6e 5fc0 3c49 46c0 5d7a 0740
000000a0: 7991 e0bf 9767 7040 d202 0f40 cd1b cbc0
000000b0: e900 2c40 9b83 91c0 ba55 823e 2da7 00c0
000000c0: 5012 c23f b6ea 063f da7d 40c0 fff1 0e40
000000d0: 4534 90bf 1e25 52c0 1d08 8bbf b1ff f5bf
000000e0: e34c a8c0 4180 f0bf c7cb 7440 8aa4 bc40
-1.2454433 2.367176 -2.537719 -0.48772982 -1.4902683 0.9722518 -2.8683999 -5.108027
3.320608 -1.1586951 -3.5836015 -3.1372824 -2.2594917 1.5745145 -0.74928975 -0.5532971
-4.499804 0.24835372 0.24832563 3.1630063 0.6097708 -2.5609782 -1.3696737 -2.0233786
-4.087001 -3.9449246 2.6869543 -1.6578404 -0.38409817 0.9384939 -4.6323533 2.5278382
-4.8078074 -0.5177448 0.18956462 -4.0117974 -5.059802 -3.4910915 -3.0982199 2.1168435
-1.7544395 3.7563226 2.2345471 -6.3471437 2.6875556 -4.547315 0.2545603 -2.0102036
1.5161839 0.5270189 -3.0076814 2.2335203 -1.1265951 -3.2835155 -1.0861851 -1.9218656
-5.2593856 -1.878914 3.8249376 5.8950853

2.weight f4 [30, 60]
00000000: eb83 44c0 5d5e 4bc0 68c4 513f e33f 42bf
00000010: 6a42 5b3f 0172 393f e7dd 8ebe eac5 dabe
00000020: e622 a1c0 81eb a33e 2e2b 333f 6ff0 4abf
00000030: 2769 8fbf 6cbe 7dc0 9b9a 1cc0 a257 723e
00000040: cd93 033f 3dcb 1ac0 65eb 83bf 84a1 afc0
00000050: 0717 64c0 4b14 3c3f fe0f 17be 3742 8f3e
00000060: 0279 cd3f 7558 113f fa07 79c0 dd28 38c0
00000070: bf7f 763f 591b 75c0 5554 81bd b18a 63c0
00000080: b42c a53f 7325 fabd f487 723e 1646 463f
00000090: 11a3 783f 99dd 843e 45e4 8bbf d1d3 40c0
000000a0: 9e7f 4ebe ebfc 86c0 4611 46bf daf5 0840
000000b0: 18ed 3c3f 70e3 c9be bc0f 30bf 98a5 c93d
000000c0: 02b4 af3c d054 bcbf 5a06 343f 54d1 0dbe
000000d0: 8180 143f 7a4f 003e 3fe8 17c0 df4c 22c0
000000e0: fcf2 663f fc0f e63d b579 46be c096 99c0
000000f0: 1899 bfbb 496b fc3d 526c a43e 5a49 8b3e
00000100: 3ac4 d13d cc45 8c3e 5c53 7a3e 105e 3d3e
00000110: e311 853e f745 7a3e eee7 523e 36eb 633e
00000120: 31a9 3e3e f2fe fd3c db7f 663e 3339 fa3d
00000130: 3f3c eb3d eab9 a73c 3bf3 953e 4942 623e
00000140: d1c9 563e 2a72 393e 434a eb3d 2119 ad3d
00000150: f928 e83d bdce 843e 4609 363d bd17 953e
00000160: 3205 913e ab7a 4d3e 6234 753e 64a6 b53e
00000170: c857 583e 07a0 933d a1f5 013d bef5 8a3e
00000180: 2e80 143e b032 873e cd18 193e 5676 643e
00000190: fe3e cd3c 01c0 1c3e 6569 753d 212f 043e
000001a0: 48d6 d53d dd8f 233d a07d 133e a99e 9b3e
000001b0: a163 753e e8a0 cc3d 7ac3 c23d 8283 ac3e
000001c0: 027c 543e 68c0 483e 95b0 ab3e 744d a93d
000001d0: 708e 2f3e aeaa ce3d 1d41 643e 33b0 093e
000001e0: f8c7 41be 02a0 19be fe75 52be 11d1 2bbd
000001f0: af88 5cbe e016 1cbe 3f1f 67bd 786b 28be
00000200: 052d 2dbe eb6c 0dbe 154a 98be 8a54 b6bd
00000210: 92b5 8cbe bea1 9dbe 5504 50be 3d13 18be
00000220: 4d7e 79be 1437 86be f397 7fbe 15fc a6be
00000230: 33b0 22bd 18a2 0abd ba8e 4ebe 31eb c0bd
00000240: de85 54be 8637 64be 7100 85be b7ab a5be
00000250: 19f5 7cbe f6c1 68bd 46b1 62bd 1619 b2be
00000260: 8567 84be f4fd 39be fb60 9bbd 70a2 c4bd
00000270: 0dbd 11be 90c8 56be 99c4 90be c477 67be
00000280: 0d90 4cbe faa1 c7bb 25bd 73be 94db 19bd
00000290: 64c4 84be c1c0 b2bd 3c27 3fbe 3401 3abe
000002a0: 49c3 3dbe 9771 4bbe 1bd5 81be 0b45 50be
000002b0: 06dc 79be cfb3 053c caba 56be 778c 61be
000002c0: c307 64be 07c2 18be 39ac 73be 96e1 90be
000002d0: a847 ae40 f202 c2bd ae59 7fbf 3465 d8be
000002e0: 9435 bdbf 6b43 dcbe 9c52 42bf d967 c2be
000002f0: 1648 e43f 2c40 c53f 4231 cbbf 70b9 d2bd
00000300: 0266 0e3f 2a6c 933f 0a09 0c3f 0140 f9bf
00000310: 4723 cbbf 696c 82bf c2d8 88bf 5342 2e3f
00000320: 4516 2640 7dbf 33c0 9e98 48bf 8db1 42bf
00000330: c069 0d3f 302f 733f 8e78 6b3f c96b 1e3f
00000340: ef70 58c0 332b a840 e6ba 0dbf 2f63 8540
00000350: e9ea 3dc0 6cbf dcbf 09da b6bf 1832 99be
00000360: 15a9 b5bd 956e 883f 84ab 2dbf 1bb0 9b3f
00000370: 10c4 bbbf ef36 1e3f d016 36c0 52d8 733f
00000380: c37e f73e a3e0 79be 8975 a6bf 1d19 10c0
00000390: 0d6c f9bf ca24 46bf 9d23 d3bf 82d8 8b3f
000003a0: e965 15c0 7887 b0bf cf6c 843f a983 8a3f
000003b0: 8104 2a3f e789 ddbf b804 023f 6802 5440
000003c0: 78bb cbbe dffb 00be facf dbbd fca8 73be
000003d0: 7c27 82be 3144 70bd 3684 9dbe 5a89 2ebe
000003e0: 5fca 03bf 91ce 28be 2177 96be 48bf 00bf
000003f0: 4e6e 2dbe 1387 72be 1143 34bd d003 11be
-3.0705516 -3.1776345 0.8194032 -0.75878733 0.85648215 0.7243958 -0.27903673 -0.4272912
-5.03551 0.32015613 0.6998776 -0.7927312 -1.1203965 -3.9647474 -2.4469364 0.23666242
0.513974 -2.4186547 -1.0306212 -5.4884663 -3.5639055 0.73468465 -0.14752194 0.27980205
1.6052554 0.567756 -3.8911119 -2.877494 0.96288675 -3.8297942 -0.06314913 -3.55534
1.2904267 -0.12214174 0.23684675 0.7745069 0.9712382 0.25950316 -1.0929037 -3.0129282
-0.2016587 -4.218374 -0.7737011 2.1400056 0.73799276 -0.39431334 -0.6877401 0.098460376
0.02144814 -1.4713383 0.7032219 -0.13849384 0.5800858 0.12530318 -2.3735502 -2.5359418
0.90214515 0.112335175 -0.19382365 -4.799652 -0.0058471076 0.123251505 0.32113892 0.272044
0.10242505 0.27397 0.24445862 0.18492913 0.2599021 0.24440752 0.20596287 0.22257695
0.18619229 0.031005356 0.2250971 0.12217941 0.114861004 0.020474393 0.29287133 0.22095598
0.20975424 0.18109956 0.11488774 0.084520586 0.1133594 0.2593898 0.044442438 0.29119673
0.28324276 0.20066325 0.23945764 0.35478508 0.21127236 0.07208257 0.03172839 0.2714061
0.14502022 0.2640586 0.14950867 0.22310767 0.025054451 0.15307619 0.059914965 0.12908603
0.104412615 0.03993212 0.14403391 0.30394486 0.23963787 0.09991628 0.095099404 0.33694082
0.2075043 0.19604647 0.3353316 0.08266726 0.1714418 0.10091148 0.22290464 0.13446121
-0.18923938 -0.15002444 -0.20552823 -0.041947428 -0.21536516 -0.15243101 -0.056426283 -0.16447246
-0.16911705 -0.1381108 -0.2974402 -0.08902843 -0.27482277 -0.30787462 -0.20314153 -0.14851089
-0.24364586 -0.26213896 -0.24960308 -0.32614198 -0.039718818 -0.03384599 -0.20171633 -0.09419859
-0.20754191 -0.22286806 -0.259769 -0.3235757 -0.24702872 -0.0568256 -0.055344842 -0.34784764
-0.2586023 -0.18163282 -0.07586857 -0.09601295 -0.14232273 -0.20974946 -0.28274992 -0.2260428
-0.19976826 -0.006092307 -0.23802622 -0.03756292 -0.25931084 -0.08728171 -0.1866731 -0.18164521
-0.18531527 -0.1986755 -0.253579 -0.20338838 -0.24400339 0.0081605455 -0.20969692 -0.2202624
-0.22268586 -0.14917766 -0.23796166 -0.28297108 5.446247 -0.09473218 -0.99746215 -0.42264712
-1.4781976 -0.43020186 -0.759073 -0.37969854 1.7834499 1.5410209 -1.5874407 -0.10289276
0.556244 1.1517384 0.5470129 -1.9472657 -1.5870141 -1.0189334 -1.0691149 0.6806995
2.5951092 -2.8085625 -0.78357875 -0.7605217 0.55239487 0.9499388 0.91980827 0.6188322
-3.381893 5.2552733 -0.5536331 4.1683574 -2.9674628 -1.7245917 -1.4285289 -0.2992103
-0.088701405 1.0658747 -0.6783984 1.2163118 -1.4669209 0.6180257 -2.8451424 0.95251954
0.483389 -0.24402098 -1.3004619 -2.2515328 -1.94861 -0.77399886 -1.6495243 1.0925448
-2.334345 -1.3791342 1.0345706 1.082143 0.6641312 -1.730771 0.5078845 3.3126469
-0.39791465 -0.12596081 -0.10733028 -0.23794931 -0.2542075 -0.058658782 -0.3076493 -0.17044583
-0.5148067 -0.16485049 -0.29387763 -0.5029187 -0.16936609 -0.23684339 -0.044009272 -0.1416161

2.bias f4 [30]
00000000: 95e4 9dc0 1fc6 da3e e66e b6be b9b4 f5be
00000010: 48d8 2ebf cc91 953f 759e 0bbf e56a f03e
00000020: fdff 9dbe 35d9 e63e 7639 e9be 1630 cdbe
00000030: 8349 13bf 3140 e33e 0263 1fbf 549c 053f
00000040: fbec 123f 00e9 323f d2fb 00bf 89b7 a740
00000050: 2681 5f40 34d4 243f 33bc a63e de3b cabe
00000060: 0837 1540 fb1a 84bf 509e c2be 0f8e df3e
00000070: 9bed 1ac0 508e bfbf
-4.934153 0.4272928 -0.35631484 -0.47989443 -0.6829877 1.1685119 -0.5453866 0.46956554
-0.30859366 0.4508759 -0.45551652 -0.4007575 -0.57534045 0.44384912 -0.6226045 0.5219166
0.57392853 0.6988678 -0.5038425 5.241154 3.4922576 0.64386296 0.3256546 -0.394988
2.3314838 -1.0320734 -0.38011408 0.4366307 -2.4207523 -1.4965305

4.weight f4 [1, 30]
00000000: 7b20 7e40 2d0f 1240 b33d 12c0 0542 3cc0
00000010: e5e2 0ec0 c650 fb3f c394 0cc0 37fb 0c40
00000020: 57d2 10c0 f957 0c40 2997 0cc0 a3b0 11c0
00000030: 3b77 0ec0 b327 d8bf 950d 0cc0 b9bb 0c40
00000040: 3b93 0c40 fb23 0c40 17b5 0cc0 be97 2740
00000050: 9e59 4840 df45 0d40 a792 1240 d105 0fc0
00000060: 2f48 49c0 7fb2 0ac0 b9db 0fc0 89a8 1140
00000070: 3f89 8640 c64f 5740
3.9707325 2.2821763 -2.2850158 -2.9415295 -2.2325985 1.9634025 -2.1965797 2.202833
-2.2628381 2.1928694 -2.196726 -2.276406 -2.2260273 -1.6887115 -2.188329 2.1989577
2.1964862 2.189696 -2.1985528 2.6186366 3.1304698 2.2073896 2.290201 -2.23473
-3.1450307 -2.1671445 -2.2477858 2.2759116 4.2042537 3.364244
