main_app/deep_model_strength/torch_model_params.pkl (torch_old, 38373 bytes, 19 tensors)

0.weight f4 [80, 39]
0	0xc04713f7	-3.1105936
1	0x3f96f8c8	1.1794672
2	0x40dc94cd	6.893164
3	0x41bedddf	23.858335
4	0x402ff84f	2.7495306
5	0x4089bfac	4.3046474
6	0xc00545a4	-2.0823755
7	0x4104b441	8.294007
8	0x41213ff7	10.078116
9	0x4084bb13	4.147836
10	0x40e7a8c8	7.239353
11	0x4149a6fd	12.603269
12	0x40b82a5e	5.755172
13	0xc1820dfb	-16.256826
14	0x40809feb	4.019521
15	0xc0ba74c6	-5.8267546
16	0xbed67032	-0.41882473
17	0x41cae922	25.363834
18	0x40869dd5	4.2067666
19	0xbeb1b064	-0.34704888
20	0xc01d98a2	-2.462441
21	0xbfb31a26	-1.3992355
22	0x3d66188a	0.056175746
23	0xbff80166	-1.9375427
24	0xbe36fda1	-0.17870189
25	0xc05b9e72	-3.4315457
26	0xc096b06a	-4.709035
27	0x3f64c55b	0.8936364
28	0xc08c4bd4	-4.3842564
29	0x3ee5601d	0.4479989
30	0xbe3f4560	-0.18678808
31	0x3c62cc5a	0.0138426665
32	0xc1a82c7a	-21.021717
33	0xbdf9fa78	-0.12205976
34	0x3d17a16b	0.037019175
35	0xbe833e14	-0.256333
36	0xbc91b9ba	-0.017788757
37	0xc181fff0	-16.24997
38	0x3d3086f2	0.043097444
39	0xc153927f	-13.223266
40	0x40ccde4e	6.402137
41	0x42a48326	82.25615
42	0x4062dc1b	3.5446842
43	0xc13dd6ef	-11.864974
44	0xc160452f	-14.016891
45	0xc08bb33c	-4.365629
46	0xc0984cab	-4.759359
47	0x3eeb009d	0.45898905
48	0x3f76f641	0.96469504
49	0x3e89cfb4	0.26916277
50	0x426d962d	59.396656
51	0xc0a11ffa	-5.0351534
52	0xc1aeb131	-21.83652
53	0xc19368e7	-18.426222
54	0xc1408d47	-12.034492
55	0x421daa0a	39.416054
56	0xc1b38dff	-22.444334
57	0xbebb07af	-0.365293
58	0xbd9ab51e	-0.075540766
59	0xc12ad51e	-10.677031
60	0xc0ce1931	-6.440575
61	0x3dbcb878	0.09214872
62	0xbf578d94	-0.84200406
63	0xbe1a94c1	-0.15095808
64	0xc19810da	-19.008228
65	0xc290d899	-72.42304
66	0xbfe6a582	-1.8019259
67	0xc1807ecc	-16.061913
68	0xc231f89f	-44.492794
69	0xbdba49f6	-0.09096138
70	0x3d82cbb5	0.0638651
71	0x419c0665	19.503122
72	0x3d4dfd56	0.050290428
73	0xbd657f42	-0.056029566
74	0x3d74b4da	0.059742786
75	0xbce0060e	-0.027346637
76	0x3e2be761	0.16787483
77	0x3e4d8825	0.20071466
78	0xc1380478	-11.501091
79	0xc280e1ce	-64.441025
80	0x42a90123	84.50222
81	0xc0a9b592	-5.3034143
82	0xc1669f32	-14.413866
83	0x4085b8f7	4.1788287
84	0xc0778e5d	-3.8680642
85	0xc0c22cde	-6.067977
86	0xc10d27f3	-8.822253
87	0xc0fff2cf	-7.9983897
88	0xc14c330f	-12.7624655
89	0xc242b13b	-48.673077
90	0x412d85aa	10.845133
91	0xc1617576	-14.091177
92	0x3d4dac0b	0.0502129
93	0xc083db2c	-4.1205044
94	0x41ab6337	21.423445
95	0x4231b337	44.425014
96	0xc1ab2787	-21.3943
97	0x3d7e9ddd	0.06216227
98	0xc110236d	-9.008649
99	0x41384cb8	11.51873
100	0xbe469c2b	-0.19395511
101	0xc0820211	-4.0627522
102	0x3d3d6d3a	0.046246745
103	0x41e7f167	28.992872
104	0xc0d3d13e	-6.6192923
105	0x41df77c1	27.933474
106	0xc0930e18	-4.5954704
107	0xc108ac3e	-8.542051
108	0x3bf4f37b	0.007475314
109	0x3e8c3643	0.27385148
110	0xbfb77aba	-1.4334328
111	0x3d054663	0.03253783
112	0xbb72e568	-0.0037063006
113	0x3da7f591	0.08201135
114	0xbe0b0d2e	-0.13579246
115	0x414e633b	12.899226
116	0xbe80b30d	-0.25136605
117	0x40a3037f	5.094177
118	0x410506a0	8.314117
119	0xbfb67bf6	-1.425658
120	0x41017d38	8.093071
121	0x40b4c924	5.6495533
122	0xc07b17f8	-3.923338
123	0x3f87ebd1	1.061884
124	0xc0087bb3	-2.13255
125	0xbffd3cc0	-1.9784164
126	0x414b0647	12.689033
127	0x4101e625	8.118688
128	0xc02019af	-2.5015676
129	0x40f7784c	7.7334347
130	0x41205504	10.020756
131	0xc0f35b68	-7.604908
132	0x40bbfac3	5.8743606
133	0x414f01ec	12.937969
134	0x417de97d	15.869504
135	0x42157557	37.36459
136	0xbb537867	-0.003226781
137	0x4115f92a	9.373331
138	0x41219365	10.098485
139	0xbe75e76c	-0.24014062
140	0x4113e3d9	9.243127
141	0x3d30e53d	0.04318737
142	0x40ec4074	7.382868
143	0x41378287	11.469367
144	0x414e9698	12.911766
145	0x40fcf9c1	7.9054875
146	0x415a4c27	13.643592
147	0x3dc1bbe6	0.09459667
148	0xbe3deaa4	-0.1854654
149	0x4248c60a	50.193398
150	0x3dd4b5c7	0.10386234
151	0x3e107017	0.14105259
152	0xbddad00a	-0.106842116
153	0xbe2791df	-0.16364239
154	0x41008035	8.031301
155	0x3d794e21	0.060865525
156	0x4140b9c3	12.045352
157	0xc28a69f2	-69.206924
158	0x4233944a	44.894814
159	0xc10e1fd2	-8.882769
160	0xc0808ba4	-4.017046
161	0x41d6484c	26.785301
162	0xc04a9384	-3.1652536
163	0xc0beda7b	-5.96417
164	0xbfd92583	-1.6964573
165	0x3f2f0e05	0.6838077
166	0x3f7d3358	0.9890647
167	0x410230ab	8.136882
168	0x41725e62	15.148043
169	0x4109b869	8.607522
170	0x4081f129	4.0606885
171	0x42177004	37.85939
172	0xc1205858	-10.021568
173	0xc2917858	-72.73505
174	0x41a9f2aa	21.243488
175	0xbd0461d0	-0.032319844
176	0xc00fd2a9	-2.2472327
177	0xc0225df4	-2.5369844
178	0xbdc2618b	-0.09491261
179	0xc086627b	-4.1995215
180	0xbe43933c	-0.19099134
181	0x4161cd00	14.112549
182	0xc21b5995	-38.837482
183	0xc1cf4bc2	-25.911991
184	0x401ec53a	2.4807878
185	0x4039bfb0	2.9023247
186	0xbcc45e7a	-0.023970831
187	0x3d9cfb68	0.076651394
188	0x40f2328a	7.5686693
189	0x3e756748	0.2396518
190	0x3c02f197	0.00799217
191	0xbda42dbe	-0.08016537
192	0xbdd5dcfc	-0.1044254
193	0x40da4f3b	6.8221717
194	0x3d396552	0.045262642
195	0x41a2563b	20.292105
196	0x42c65f28	99.18585
197	0x423b2b1d	46.792103
198	0x40b23d81	5.570008
199	0x406df860	3.7182846
200	0xc05a6419	-3.4123595
201	0xc0ffee9f	-7.9978786
202	0x3fb7ae6d	1.4350106
203	0xc11d68bf	-9.838073
204	0xc14b898c	-12.721081
205	0x40a3b311	5.1156087
206	0x41a73385	20.900156
207	0x408e4848	4.4463234
208	0xc1761489	-15.380013
209	0xc19aa595	-19.33085
210	0xc13df046	-11.8711605
211	0x40f09eef	7.519401
212	0x4276efd5	61.73421
213	0xbf24bc37	-0.64349693
214	0x3c990e8b	0.018683692
215	0x3f82cf96	1.02196
216	0x4180002c	16.000084
217	0xbe00a561	-0.12563087
218	0x40805010	4.0097733
219	0xbda8b69f	-0.08237957
220	0x418f94e5	17.947702
221	0x41be7fb1	23.81235
222	0xc1f6913e	-30.820919
223	0x402795ae	2.6185107
224	0x402be596	2.6858878
225	0xbe3a4944	-0.18192011
226	0xbe550bb7	-0.2080525
227	0xc0fc0662	-7.875779
228	0xbd8782e7	-0.066167645
229	0x3ddbc22d	0.107303955
230	0xbd50b6ea	-0.05095569
231	0xbe1564ab	-0.14589183
232	0x4148d5db	12.552211
233	0xbe32ff7b	-0.1748027
234	0x4114488b	9.267711
235	0x3fd8836b	1.6915106
236	0x40e3720a	7.107671
237	0xc1102db5	-9.011159
238	0xbfed3fe0	-1.8535118
239	0xc041748e	-3.022739
240	0x40673bb5	3.6130192
241	0xbfb23394	-1.392199
242	0xc09a8fdc	-4.830061
243	0x40a9acd9	5.3023496
244	0xc1c6def2	-24.85886
245	0xc0593e42	-3.394425
246	0x40c1c6ec	6.0555325
247	0xc17b0695	-15.689107
248	0xbf88d63c	-1.0690379
249	0x3fa2088b	1.2658857
250	0x3e4f09df	0.2021861
251	0x4205fa30	33.494324
252	0x416ecb93	14.924701
253	0xbd07cbe9	-0.03315345
254	0x40b1d29e	5.55696
255	0x40d56491	6.668526

0.bias f4 [80]
0	0x4021c2a2	2.5275044
1	0xc0f3ec58	-7.6226006
2	0xc0a74cc9	-5.228123
3	0x40a79ee9	5.238148
4	0xc08c5233	-4.385034
5	0x4070c9da	3.76232
6	0xbffd9319	-1.9810516
7	0x41963bc2	18.779179
8	0xc064efe7	-3.5771425
9	0xc1768cbc	-15.409359
10	0x40220623	2.5316246
11	0x3eb0173e	0.34392732
12	0xc15d3baa	-13.827066
13	0x408e1573	4.4401183
14	0x400a453d	2.160476
15	0xbff8f26d	-1.9448982
16	0xc072274d	-3.7836487
17	0xc01942dc	-2.3947058
18	0xc002b76c	-2.0424452
19	0x404cc937	3.1997812
20	0xbf20cc5e	-0.6281184
21	0xc12f44cd	-10.954297
22	0xbf872fd9	-1.0561477
23	0xbf318e17	-0.69357437
24	0x3faa2b47	1.3294457
25	0xc0caed35	-6.341456
26	0xc0933c5a	-4.601117
27	0xc129e263	-10.61777
28	0x401a1d34	2.4080324
29	0xc11a7cf4	-9.655506
30	0xc0b147de	-5.540023
31	0xc056210d	-3.3457673
32	0xbfad16a9	-1.352254
33	0xbf0e3f42	-0.55565274
34	0xc0c955ce	-6.291724
35	0xc033a623	-2.8070152
36	0x40cee7c5	6.465792
37	0xbfa014e3	-1.2506374
38	0xc08b66ea	-4.3563128
39	0x405377d5	3.304189
40	0x3f835d5b	1.0262865
41	0xc0070d82	-2.1101995
42	0xbfa42b80	-1.2825775
43	0x40c8cd52	6.2750635
44	0xbfbfd3ab	-1.4986471
45	0xc117fbcf	-9.498977
46	0xbf555a2d	-0.8334072
47	0xc05c59c9	-3.44298
48	0xc0a516f2	-5.159051
49	0xc098b932	-4.772607
50	0xc01bc838	-2.4340954
51	0xc0c56e06	-6.1696806
52	0xb8a91a9c	-8.063504e-05
53	0xc12778a0	-10.466949
54	0x4051130d	3.2667878
55	0xc09647c9	-4.696263
56	0x3fdedff0	1.741209
57	0xc10a581a	-8.646509
58	0xc00a2fc7	-2.159166
59	0xbe37de99	-0.17956008
60	0xc0ae4fef	-5.4472575
61	0x407a1c12	3.9079633
62	0xc05327d3	-3.2993057
63	0x3e8195c3	0.25309572
64	0xc0c45c27	-6.136249
65	0xc111f5a1	-9.122468
66	0xbfc3a54d	-1.5284821
67	0xc004a755	-2.0727131
68	0x405d5e31	3.458874
69	0xc12df327	-10.871863
70	0xc10d7ca3	-8.842929
71	0xc0662b23	-3.5963829
72	0xbf5bffd5	-0.85937244
73	0x4031a21c	2.7755194
74	0xc012fc11	-2.296635
75	0xbea01ad5	-0.3127047
76	0xc02ae7e8	-2.6704044
77	0xc117a97c	-9.478878
78	0xbf42af94	-0.7604916
79	0xc084ced1	-4.150246

3.weight f4 [80]
0	0xbda12cf7	-0.078699045
1	0x410ef6a3	8.935214
2	0x4088da70	4.2766647
3	0x3b69ab08	0.003565492
4	0x415481f9	13.281732
5	0xc0f6f431	-7.7173085
6	0x3e4b22d1	0.198375
7	0x3e0a7131	0.13519742
8	0x41964ed6	18.788494
9	0x40cee28f	6.465156
10	0x41591be4	13.569309
11	0x40d1871f	6.5477443
12	0x4091ee96	4.5603743
13	0x3f7c1ca1	0.98481184
14	0x40099d9e	2.1502452
15	0x3de934db	0.113870345
16	0x3ee1c07b	0.44092163
17	0x40f5b31e	7.678115
18	0x413b45d4	11.704548
19	0x418157e1	16.16791
20	0x4111e64d	9.118726
21	0x403687e3	2.8520439
22	0xbe355e2d	-0.17711706
23	0x40f96991	7.7941365
24	0x3e30d4fc	0.17268747
25	0x419ca724	19.581612
26	0x4185e72c	16.737877
27	0x40ccccea	6.400014
28	0x4115f535	9.372365
29	0x4142f365	12.1844225
30	0x40e55475	7.1665597
31	0xbd834d4e	-0.06411229
32	0x3d241bdc	0.04006563
33	0x418f216b	17.891317
34	0x411f337a	9.9500675
35	0x413571b8	11.340263
36	0xbe3f4f20	-0.18682528
37	0x412240d3	10.140826
38	0x412f40b7	10.9532995
39	0x3e723591	0.23653246
40	0x3db60cc1	0.08889151
41	0x41137970	9.217148
42	0x40d0c488	6.5239906
43	0xbd8f6321	-0.07001329
44	0x412d8a8f	10.846328
45	0x40b4c121	5.6485753
46	0x4101b7cc	8.107372
47	0x415da0e1	13.851777
48	0x4168e02a	14.554728
49	0x3f30b134	0.6902039
50	0x41146ca5	9.276525
51	0x40c59d4a	6.1754503
52	0x4117f400	9.49707
53	0x41069447	8.411201
54	0x40b6bce9	5.7105603
55	0x415c9a5e	13.787687
56	0x4078a859	3.8852751
57	0x40e6901b	7.205091
58	0x40fef91f	7.9679103
59	0x410c4bea	8.768534
60	0xbdb99f8a	-0.09063633
61	0x3d7b139a	0.06129799
62	0x410c5ef7	8.773185
63	0x41087ba6	8.530188
64	0x40f5ed1a	7.685193
65	0x40960814	4.688486
66	0x4165ebc6	14.370062
67	0xbd986e9c	-0.07442972
68	0xc06362aa	-3.552897
69	0x411d1e29	9.819863
70	0x4162178f	14.130752
71	0xbd1ad953	-0.037804913
72	0x40eed190	7.4630814
73	0xc00272d7	-2.0382593
74	0xc05df80f	-3.4682653
75	0x40981b02	4.753297
76	0x40d1a705	6.551638
77	0x40e71cc8	7.2222633
78	0x412cf095	10.808736
79	0x410de1c9	8.867623

3.bias f4 [80]
0	0x3db139de	0.086536154
1	0xbde16401	-0.11005402
2	0xbeed2be2	-0.46322542
3	0x3eca3b29	0.3949826
4	0xbf874d27	-1.057042
5	0x3e12f941	0.14352895
6	0xbdca0c48	-0.09865624
7	0xbeefc65e	-0.4683103
8	0xc00617f4	-2.095212
9	0xc0543cf8	-3.3162212
10	0xc05b309a	-3.4248414
11	0xc0486902	-3.1314092
12	0x3f87fe3d	1.0624462
13	0xbec9ec40	-0.39438057
14	0xbe8fdfc3	-0.28100404
15	0x3e8306ae	0.25591034
16	0xbdb8e7a0	-0.09028554
17	0xbf48a42a	-0.78375494
18	0x3fc291c6	1.5200737
19	0x40bcdd99	5.9020505
20	0xbf170fa8	-0.59008265
21	0x3fbf58c8	1.4948969
22	0x3ee23e73	0.4418827
23	0x401f052d	2.484691
24	0xbe8368b8	-0.25665832
25	0x400ee924	2.2329798
26	0xc107a0a8	-8.476723
27	0x3f51adc9	0.819058
28	0x3f21db89	0.6322561
29	0x407a009c	3.9062872
30	0xbd3cd136	-0.046097957
31	0xbd8a5d1c	-0.067560405
32	0x3e858c89	0.26083782
33	0xc0dd0bae	-6.9076757
34	0xbe42747c	-0.18989748
35	0x4006e2fe	2.1076045
36	0xbdc08b1f	-0.09401535
37	0xc00a1dcd	-2.158069
38	0x4041f4b1	3.0305598
39	0xbf00bad2	-0.50285065
40	0x3d824626	0.06361036
41	0x3f15abdf	0.5846538
42	0x402d2dd4	2.7059221
43	0xbe295de2	-0.1653972
44	0xbf5c2b21	-0.8600331
45	0xbf3c1280	-0.7346573
46	0x4004492e	2.0669665
47	0xbe72fedc	-0.23730034
48	0xc032fd97	-2.796728
49	0x420609f9	33.50974
50	0x4018816f	2.3829
51	0x3eb2c6a7	0.34917185
52	0x400231eb	2.0342968
53	0x3e6340fd	0.2219276
54	0xbfe1d3ad	-1.7642723
55	0xbf74d319	-0.9563461
56	0x3eff3009	0.49841335
57	0xbfb3b889	-1.4040691
58	0x3ecabad3	0.3959566
59	0x4060b98e	3.5113254
60	0xbb9e0ab5	-0.0048230537
61	0xbe057c5f	-0.13035725
62	0xbe8ff733	-0.28118286
63	0x3f3b4cd7	0.73164123
64	0xbf1cc8cb	-0.61243886
65	0xbfd7638b	-1.6827253
66	0xbf23edcd	-0.6403473
67	0xbe022663	-0.12709956
68	0x3e47b5e0	0.19502974
69	0x3ecf5197	0.40491936
70	0xbf91f5b5	-1.1403109
71	0x3e288b2f	0.16459344
72	0x3f318339	0.69340855
73	0x3ecca1d6	0.3996722
74	0x3a60ddca	0.0008577971
75	0x3fabad5e	1.3412282
76	0x3fc50150	1.5391026
77	0xbea217fa	-0.31658918
78	0x3e45a568	0.19301379
79	0xc008e7b2	-2.1391416

3.running_mean f4 [80]
0	0x46a0c00a	20576.02
1	0xc2a30a7b	-81.52047
2	0xc372ac95	-242.67415
3	0x46a78dcb	21446.896
4	0x44dbcc79	1758.3898
5	0x440c5538	561.33154
6	0xc28dc6c8	-70.888245
7	0x470550e5	34128.895
8	0x44ad1864	1384.7622
9	0xc270af7f	-60.171383
10	0x45072d3b	2162.827
11	0x468bbdc0	17886.875
12	0xc2b49df7	-90.308525
13	0xc18bb067	-17.461134
14	0x443f731f	765.79877
15	0x468cb17c	18008.742
16	0xc30d9769	-141.59145
17	0xc3262adc	-166.16742
18	0xc274e62b	-61.224773
19	0x449088fe	1156.281
20	0xc3035dd2	-131.36649
21	0xc2652618	-57.2872
22	0xc2a53767	-82.60821
23	0xc32ce4fb	-172.89445
24	0x46c7c743	25571.63
25	0x4526b36d	2667.214
26	0x4507c2be	2172.1714
27	0xc213a666	-36.9125
28	0xc296af79	-75.34272
29	0x44639fce	910.49695
30	0xc2d337fa	-105.60933
31	0xc3a6338c	-332.4027
32	0x43c76c4f	398.84616
33	0xc29a7ad8	-77.23993
34	0xc2a47b09	-82.2403
35	0xc30972a2	-137.44778
36	0x468a7c89	17726.268
37	0xc216218b	-37.532757
38	0x446cf64c	947.8484
39	0x46a42984	21012.758
40	0x46be5647	24363.139
41	0xc21aa2c0	-38.658936
42	0xc2d92e7f	-108.59081
43	0x4540790b	3079.5652
44	0xc2c6da91	-99.42689
45	0xc2234379	-40.81589
46	0xc3035f57	-131.37242
47	0xc249038c	-50.253464
48	0x4493987b	1180.765
49	0xc31c09c5	-156.03816
50	0xc390c0d5	-289.5065
51	0xc2da7b93	-109.241356
52	0xc2cdd675	-102.91886
53	0xc25c0573	-55.00532
54	0x45a880d7	5392.105
55	0x44cfc5fe	1662.1873
56	0x44e7dca4	1854.895
57	0xc21767b9	-37.85129
58	0x44013784	516.86743
59	0xc2cc1064	-102.03201
60	0xc328af09	-168.68373
61	0x420ef979	35.743626
62	0x44bd97f0	1516.748
63	0x46d282c8	26945.39
64	0xc22a052c	-42.50505
65	0x44ebdfc7	1886.993
66	0x449e5bd1	1266.8693
67	0xc3782549	-248.14565
68	0x44656079	917.5074
69	0xc276e992	-61.728096
70	0x44afb8c1	1405.7736
71	0xc2dbf351	-109.97523
72	0xc31280a5	-146.50252
73	0x437b9525	251.5826
74	0xc339e916	-185.91049
75	0xc32e0fef	-174.06224
76	0xc2818730	-64.76404
77	0xc276119e	-61.517204
78	0xc2dbbaf6	-109.86516
79	0x4501a3c3	2074.235

3.running_var f4 [80]
0	0x4ab7d771	6.0241205e+06
1	0x438e8484	285.03528
2	0x43e9bd04	467.47668
3	0x4a85a96a	4.379829e+06
4	0x4a78f7a4	4.079081e+06
5	0x498c6ea9	1.1504211e+06
6	0x48be738e	390044.44
7	0x4c0b7add	3.6563828e+07
8	0x4a937ce6	4.832883e+06
9	0x438d4b36	282.5876
10	0x4a93292b	4.8221655e+06
11	0x4a12286a	2.3946505e+06
12	0x438d73e5	282.90543
13	0x48994a93	313940.6
14	0x4acbe6fd	6.6814705e+06
15	0x4b24b933	1.0795315e+07
16	0x43620bb3	226.0457
17	0x43b90f41	370.11917
18	0x41a8ce7c	21.100822
19	0x49e1eb33	1.8507264e+06
20	0x4327c986	167.7872
21	0x4337c9db	183.7885
22	0x44356273	725.53827
23	0x4392f963	293.94833
24	0x4ae3a372	7.459257e+06
25	0x4aa4f8c8	5.405796e+06
26	0x4aa06cd2	5.256809e+06
27	0x429ac68e	77.3878
28	0x420cb247	35.1741
29	0x498d0302	1.1551682e+06
30	0x442343fa	653.06213
31	0x45609750	3593.457
32	0x4ac34444	6.398498e+06
33	0x44a48413	1316.1273
34	0x443418aa	720.3854
35	0x420284cf	32.629696
36	0x4b51a878	1.3740152e+07
37	0x4248e3eb	50.222576
38	0x49e11dcb	1.8441534e+06
39	0x4b34adb9	1.1840953e+07
40	0x4aa1890d	5.2931905e+06
41	0x41d99322	27.196842
42	0x4381418b	258.51205
43	0x4bae6b57	2.2861486e+07
44	0x42444320	49.06555
45	0x4283e7fd	65.9531
46	0x442c831a	690.04846
47	0x4181e45c	16.236504
48	0x4a1e1119	2.5897662e+06
49	0x4417079d	604.11896
50	0x424da1a4	51.407852
51	0x43c031b3	384.38828
52	0x42a4be08	82.371155
53	0x4345c9d4	197.78839
54	0x493328da	733837.6
55	0x49b93884	1.5173285e+06
56	0x4af5d404	8.055298e+06
57	0x427c17f5	63.023396
58	0x495abc2e	895938.9
59	0x44c8ff8c	1607.9858
60	0x44e4fe06	1831.9382
61	0x4942a570	797271.0
62	0x4a19dc26	2.5208415e+06
63	0x499f9896	1.3074108e+06
64	0x429083cf	72.25744
65	0x4949646e	824902.9
66	0x4a6ca75e	3.8773355e+06
67	0x450b6160	2230.086
68	0x4a8d19d2	4.623593e+06
69	0x43854767	266.55783
70	0x49f1a855	1.9796586e+06
71	0x44bf8720	1532.2227
72	0x424adae0	50.713745
73	0x4a87682f	4.4370155e+06
74	0x440edf0d	571.48517
75	0x433dbd24	189.73883
76	0x42c061af	96.19079
77	0x4375fff8	245.99988
78	0x4394e8cb	297.8187
79	0x4a36aa13	2.9927728e+06

4.weight f4 [50, 80]
0	0xbfb1ad64	-1.388104
1	0x400068dd	2.0064003
2	0x40a0be7e	5.0232534
3	0x3fc3a486	1.5284584
4	0x3fa528e9	1.290311
5	0x3e4aeffd	0.19818111
6	0x4000817f	2.0079038
7	0x3e4725a2	0.1944795
8	0xc0faa8be	-7.8330984
9	0x408074a8	4.0142403
10	0xbec612c2	-0.38686186
11	0xc1b0e0b3	-22.109716
12	0xc011b624	-2.276742
13	0xbfe9e495	-1.8272883
14	0x40952551	4.660805
15	0x3ef3862f	0.4756331
16	0x3ecb27f9	0.39678934
17	0x4003bdc1	2.0584567
18	0x3ed860ca	0.42261344
19	0x4037fa03	2.8746345
20	0xc054279c	-3.3149176
21	0x4180312e	16.024014
22	0xbfc7c2f6	-1.5606372
23	0x409ca634	4.8952885
24	0x3f9ab2c8	1.208581
25	0x41331d0b	11.194591
26	0xc17599b4	-15.350025
27	0xc0b5564f	-5.6667857
28	0x4176a11f	15.414336
29	0x4140eba2	12.057528
30	0x4153d7ce	13.240187
31	0x3f02f322	0.5115224
32	0x3f4ac8a3	0.792124
33	0xc10bbe7a	-8.734003
34	0x40b8bc0a	5.772954
35	0x402b6806	2.678224
36	0x3fd14783	1.6349949
37	0xc093625b	-4.6057563
38	0xc067a588	-3.6194782
39	0x3ec5e438	0.3865068
40	0xbeae8f6e	-0.34093803
41	0xc164e560	-14.306
42	0x41495065	12.582128
43	0xbeb37ce4	-0.3505622
44	0xc136291c	-11.385036
45	0x40fb57c5	7.854464
46	0x3f86bf44	1.052712
47	0x40abc27b	5.3674903
48	0xc086d992	-4.214059
49	0x412a7d9c	10.655666
50	0xc0882d3a	-4.255521
51	0xc08de268	-4.4338875
52	0xc0a63166	-5.19353
53	0xc009a585	-2.1507275
54	0x40c1f4b1	6.0611196
55	0x41a3ee6a	20.491413
56	0x40f88959	7.766766
57	0xc16f78e8	-14.967018
58	0xc0c9ce54	-6.3064365
59	0x3f5355f3	0.82553023
60	0x3f1598aa	0.5843607
61	0x3f6e2720	0.9302845
62	0x412a8e69	10.659768
63	0xc1579ecb	-13.476268
64	0x40845a0a	4.135991
65	0x41090c71	8.565537
66	0x413e9dea	11.913553
67	0x3fa7855f	1.3087577
68	0xc0c9d57e	-6.307311
69	0x3f1c22cd	0.609906
70	0xc0a35c88	-5.1050453
71	0xbfa0c9f0	-1.2561626
72	0xc14d39f4	-12.826649
73	0xc1006a08	-8.025887
74	0xc094951a	-4.643201
75	0x4108525a	8.520105
76	0xc0de96e0	-6.9559174
77	0x404f2c4c	3.2370787
78	0x413e0fb2	11.878832
79	0xc1389d91	-11.538468
80	0xbecdc913	-0.4019247
81	0xc09cbbad	-4.8979096
82	0x3eba39d9	0.3637226
83	0x3ffd594d	1.9792877
84	0x411e1d5b	9.882167
85	0xc15328c4	-13.197453
86	0x401c73c9	2.444567
87	0xc01e8714	-2.4769945
88	0x3f14ac04	0.58074975
89	0xc04a352e	-3.1594958
90	0x3fae7bff	1.3631591
91	0xc086fd67	-4.218433
92	0xbfb4933c	-1.4107432
93	0xc08739b6	-4.225795
94	0xbf46f5e6	-0.7771896
95	0x406a3b3c	3.6598654
96	0xbf596cba	-0.8493153
97	0xc0a1074b	-5.0321403
98	0x3f48fba3	0.7850897
99	0xc1c3004a	-24.375141
100	0xbe3ccdfc	-0.18437952
101	0xc0c26ed3	-6.0760283
102	0xbe3ccc66	-0.18437347
103	0xc126662b	-10.399943
104	0xbe9a82c4	-0.3017789
105	0x4078e745	3.8891156
106	0x400bb9c9	2.1832144
107	0xc14b93b3	-12.723559
108	0x4075b63e	3.8392482
109	0x3d4885e5	0.048955817
110	0xc1047f18	-8.281029
111	0xbfddf5d6	-1.7340648
112	0x404ac8f8	3.1685162
113	0x3f3644e9	0.711989
114	0x3ea13fc4	0.31493962
115	0x40cbb4e5	6.365832
116	0x3ea0a17a	0.31373197
117	0x40e6b835	7.209986
118	0xc104eadd	-8.30734
119	0xbff0dcc6	-1.8817375
120	0x3f72f048	0.9489789
121	0x410ac4e5	8.67307
122	0xc162a256	-14.164633
123	0x3f206ade	0.62663066
124	0x3f89babd	1.0760113
125	0xc1b97c63	-23.185736
126	0xbf2cedb6	-0.6755022
127	0xc17cc044	-15.79694
128	0x40d1b4a7	6.5533023
129	0xc14e4e89	-12.894174
130	0xbe86b204	-0.2630769
131	0x414d3a01	12.826661
132	0x3f035746	0.51305044
133	0xc1991015	-19.132853
134	0x3f45d956	0.77284753
135	0xc1682458	-14.508873
136	0xc160ea23	-14.057162
137	0xc10259f1	-8.146958
138	0x4064fcd6	3.577932
139	0x41046a4d	8.275952
140	0x3f7908b3	0.972789
141	0x3f1491eb	0.58035153
142	0xc07a951b	-3.9153507
143	0xc1764e8b	-15.394176
144	0x413d7f8d	11.84364
145	0xc0701992	-3.7515607
146	0xc0402174	-3.0020418
147	0xbf8466f5	-1.034392
148	0xc0836523	-4.106096
149	0x40cd05d4	6.4069614
150	0xbf246d6c	-0.64229465
151	0xc071c12c	-3.7774153
152	0x414804d8	12.501183
153	0xc0432979	-3.0494063
154	0xbfde01b8	-1.7344275
155	0x41989f12	19.077671
156	0x418e9b83	17.825933
157	0x40f2969d	7.5808854
158	0xc1337709	-11.216561
159	0x3e4fdd74	0.20299321
160	0x3f781f75	0.96923
161	0x3fbd7c96	1.4803646
162	0x4134d587	11.302131
163	0xbefeb338	-0.49746108
164	0x40f92dec	7.7868557
165	0x40807dfd	4.0153794
166	0x3d9fe471	0.078072436
167	0x3e998c8e	0.29990047
168	0x413a63f0	11.649399
169	0x3fab7553	1.339518
170	0xc121d0ec	-10.113506
171	0xc14406bc	-12.251644
172	0xc1187496	-9.528463
173	0xbf8f0ac3	-1.1175159
174	0x40889407	4.2680697
175	0xbe99f9a4	-0.30073273
176	0x3f8923f9	1.0714103
177	0xbe8fc639	-0.2808092
178	0xc0f0f44d	-7.529822
179	0x3f4f7a80	0.81046295
180	0xc0a9edae	-5.3102636
181	0x411608ed	9.377179
182	0xbf38b0e4	-0.72144914
183	0x40f70d11	7.720345
184	0xbf10543b	-0.56378525
185	0x3fdf3383	1.7437595
186	0xc12e66bb	-10.900081
187	0x41d39b2b	26.450766
188	0xc141eb40	-12.119934
189	0x3fc0110d	1.5005203
190	0xc091dbb9	-4.5580716
191	0xbde04791	-0.1095115
192	0x3f9c310c	1.2202468
193	0x40b34297	5.6018786
194	0x40946155	4.6368814
195	0xc1beead6	-23.864666
196	0x3e455cad	0.19273634
197	0x411e67e1	9.900361
198	0xc1ae758b	-21.807394
199	0xbeed6d59	-0.46372488
200	0xbddec258	-0.10876912
201	0x3fc480d4	1.5351815
202	0xbf8d805b	-1.1054796
203	0x3e925db8	0.28587127
204	0x40d72a56	6.723918
205	0xc0e1a9c1	-7.051972
206	0xc044ed10	-3.0769691
207	0x412d77c2	10.841738
208	0x40fb3f29	7.85146
209	0xbfbee745	-1.4914328
210	0xc11c881a	-9.783228
211	0x40b6bfc8	5.710911
212	0x40e4e8f0	7.1534348
213	0xc0454e9c	-3.082923
214	0xbff398be	-1.9030988
215	0x3fe9723f	1.823799
216	0x405bee65	3.4364254
217	0x406cbb25	3.6989224
218	0xc1888fce	-17.070217
219	0x3ec0b731	0.37639764
220	0xbddfcfa9	-0.1092828
221	0xbf00d266	-0.5032104
222	0x4183676c	16.425499
223	0xbff95263	-1.9478267
224	0x410d4e64	8.831638
225	0xc11b3d6a	-9.702494
226	0xc087ee6e	-4.247855
227	0x3ef1b32a	0.47207004
228	0xc0a6ce55	-5.212687
229	0xc08106bf	-4.0320735
230	0xc038dc41	-2.8884432
231	0x3f9dac0f	1.2318133
232	0xc0d7933b	-6.7367225
233	0x3f293f2c	0.6611202
234	0x3fe6a553	1.8019203
235	0xc0a2087b	-5.063535
236	0xc04b81b9	-3.1797926
237	0xc1f8745e	-31.05682
238	0xbfb1471e	-1.3849828
239	0x41637201	14.215333
240	0xbe842e9b	-0.25816807
241	0x41131ff3	9.1953
242	0xbfc40737	-1.5314702
243	0x3e75af7f	0.23992728
244	0xc0cfed95	-6.4977517
245	0xc17a810e	-15.6565075
246	0xbf807c28	-1.003789
247	0x3e74517d	0.2385921
248	0xc1f209a1	-30.254702
249	0x407d8d22	3.961739
250	0xc0cee7e8	-6.465809
251	0xc09c3afe	-4.882201
252	0xc00e5688	-2.2240314
253	0xbda9cb95	-0.08290783
254	0xc027264f	-2.6117132
255	0xbe9a816f	-0.30176875

4.bias f4 [50]
0	0x4137e15f	11.492522
1	0xc15588b0	-13.345871
2	0xbfeca9ef	-1.848936
3	0xc085f429	-4.1860547
4	0xc00c2891	-2.189976
5	0x403519c8	2.8296986
6	0x40d67979	6.702328
7	0xc0c930ba	-6.287198
8	0xbe5c421c	-0.21509594
9	0xc12ef2d7	-10.934287
10	0x412b2a6c	10.697857
11	0xc0b5355d	-5.662764
12	0x428e96a9	71.29426
13	0xbffbb135	-1.9663454
14	0xc13d3a1f	-11.82669
15	0xc0c669a1	-6.200394
16	0xc015c099	-2.3398802
17	0x41b28a9d	22.317682
18	0x3f94459a	1.1583741
19	0xbfe8ae84	-1.8178258
20	0x4372ab29	242.6686
21	0xc19515fc	-18.635735
22	0xc0d3f5c4	-6.6237507
23	0x40bc2239	5.8791776
24	0xc10a2ee2	-8.636446
25	0xc082f434	-4.09231
26	0xc1276c6b	-10.463969
27	0xc077f21a	-3.8741517
28	0xc00bb199	-2.1827147
29	0xbf7b672c	-0.982043
30	0xc05638dd	-3.3472207
31	0xc0f0841b	-7.516126
32	0x410fddf9	8.991693
33	0x40b9c25b	5.804975
34	0xbe7408b2	-0.23831442
35	0xc119e621	-9.618684
36	0x40e1ec09	7.060063
37	0xbfcb934f	-1.590433
38	0xc0654be6	-3.5827575
39	0x414fc985	12.986699
40	0x4112d834	9.177784
41	0xc0a85b49	-5.261143
42	0x40728997	3.7896478
43	0xc16f8f16	-14.972433
44	0xc1565c28	-13.397499
45	0xc122f764	-10.185398
46	0x4036b974	2.8550692
47	0xc15faedc	-13.98019
48	0xc1376ddf	-11.464324
49	0xc0bbd5c6	-5.8698454

7.weight f4 [50]
0	0x4115adbd	9.354917
1	0x40bcff1c	5.9061413
2	0x40f8cac2	7.7747507
3	0x40def857	6.967815
4	0x40f73379	7.7250333
5	0x40eb1d0a	7.347295
6	0x40eda817	7.426769
7	0xc0bf5a4a	-5.9797716
8	0x41990a60	19.130066
9	0x41355f6e	11.335798
10	0x40d860d2	6.761819
11	0x411f479e	9.954985
12	0x4192440a	18.283222
13	0x410ad82a	8.677774
14	0x40db2d77	6.8493
15	0x40e2ce37	7.0876727
16	0x409c08e5	4.8760858
17	0x41563e20	13.390167
18	0x41226996	10.150778
19	0x40d5b3a1	6.6781774
20	0x41c7d98d	24.981226
21	0x413d5d86	11.835333
22	0xc0dab363	-6.834398
23	0x40e1dce8	7.058216
24	0x40e1b75b	7.0536323
25	0x410f2116	8.945578
26	0x4090cc90	4.524971
27	0x40f552f4	7.666376
28	0x41388463	11.532321
29	0x40daf9ae	6.8429785
30	0x40fc1ac7	7.8782687
31	0x40e4f459	7.1548276
32	0x415f984f	13.974685
33	0x412aa11d	10.664334
34	0x40fe8feb	7.955068
35	0xc0f8f9b3	-7.780481
36	0x4123500e	10.207045
37	0x41033064	8.199314
38	0x4170354e	15.013014
39	0x41595a9b	13.58462
40	0x410989d8	8.596153
41	0x40e7ae9b	7.240064
42	0x4103f263	8.246676
43	0x40b250b1	5.57235
44	0x40a7dfe9	5.246083
45	0x410889f6	8.533682
46	0x4153d80e	13.240248
47	0x40b70b7c	5.720152
48	0x40cb069d	6.3445573
49	0x40d1a420	6.551285

7.bias f4 [50]
0	0xc0c078d6	-6.0147505
1	0xc0fa90eb	-7.83019
2	0x3f9faa48	1.2473841
3	0xbf1024fb	-0.5630643
4	0xc00a11d0	-2.1573372
5	0x3eb1068c	0.34575307
6	0xbf31ff76	-0.6953043
7	0xbe061f66	-0.13097915
8	0x40b13e2f	5.538841
9	0x3fdea447	1.7393883
10	0x3f756afc	0.9586637
11	0x400cbcc3	2.199021
12	0xc03dc332	-2.9650388
13	0x3f938c2d	1.1527153
14	0x3dc1ce7d	0.09463213
15	0x40129a53	2.2906692
16	0xbf7d6bbf	-0.9899253
17	0x40d8a0dc	6.769636
18	0x40a184aa	5.0474443
19	0xc03f3489	-2.9875815
20	0xc00056be	-2.0052943
21	0xbfc06205	-1.5029913
22	0x3f1dbd83	0.61617297
23	0xbf53cef2	-0.8273765
24	0x3f8b18d7	1.0866956
25	0x4034b9b8	2.8238354
26	0x3ffaf4aa	1.9605916
27	0x3f41e1bd	0.75735074
28	0x40a1adc3	5.052461
29	0xbf564c49	-0.8371015
30	0x3f864845	1.0490805
31	0x400cd6cb	2.20061
32	0x410d4b79	8.830926
33	0x402e20bf	2.7207487
34	0x3fc57b8d	1.542833
35	0xbf3c90eb	-0.7365863
36	0x3f09eb14	0.53874326
37	0x4087fe6f	4.249809
38	0x40807444	4.0141926
39	0x402399a4	2.5562525
40	0xbfecf791	-1.8513051
41	0xc0216400	-2.5217285
42	0xc09066d8	-4.512554
43	0xbd821b65	-0.06352881
44	0xbfb9ab56	-1.4505413
45	0xc026cc62	-2.6062245
46	0x4089c2f9	4.3050504
47	0xc03d1678	-2.9544964
48	0x3f37a16f	0.71730703
49	0xc056d18e	-3.3565402

7.running_mean f4 [50]
0	0x44610d8d	900.21173
1	0x435abe53	218.74345
2	0x435dab23	221.6685
3	0x43d3ffce	423.99847
4	0x43c2f3df	389.90524
5	0x43d82424	432.28235
6	0x443548f8	725.14014
7	0x43009cbd	128.61226
8	0x447fb4f5	1022.82745
9	0x43d701d8	430.0144
10	0x440865c2	545.58997
11	0x4392072c	292.05603
12	0x45355fdd	2901.9915
13	0x43965011	300.62552
14	0x43666998	230.41248
15	0x4352424a	210.25894
16	0x432ee59e	174.89694
17	0x44ca66bd	1619.2106
18	0x43db8349	439.02567
19	0x43b67685	364.92593
20	0x458732a0	4326.328
21	0x4390b7b6	289.43524
22	0x43123df7	146.24205
23	0x43e076f0	448.9292
24	0x43aa44c9	340.53738
25	0x43d02ff9	416.3748
26	0x4312900c	146.56268
27	0x43a668d9	332.81912
28	0x43a708ab	334.06772
29	0x43ac79ea	344.95245
30	0x43515daa	209.36588
31	0x431865a1	152.39699
32	0x43a4bc62	329.47174
33	0x44453643	788.84784
34	0x439e3211	316.39114
35	0x432ffbff	175.98436
36	0x4427f4a1	671.8223
37	0x4398843f	305.03317
38	0x4470ea4f	963.6611
39	0x44a91cca	1352.8997
40	0x44361745	728.3636
41	0x43c1ee75	387.86295
42	0x4397be44	303.48645
43	0x434161ab	193.38152
44	0x4308d4f3	136.83183
45	0x436b2f22	235.18411
46	0x444d0dbc	820.2146
47	0x42cdfa7c	102.98923
48	0x43ac4f03	344.61728
49	0x4331c50c	177.76971

7.running_var f4 [50]
0	0x48c24232	397841.56
1	0x4842087a	198689.9
2	0x482ff3ad	180174.7
3	0x48341bde	184431.47
4	0x488179d8	265166.75
5	0x488d36b0	289205.5
6	0x48e1946a	461987.3
7	0x479b2fd6	79455.67
8	0x49a792a6	1.3727568e+06
9	0x486da35d	243341.45
10	0x48a0f1b5	329613.66
11	0x485efd7d	228341.95
12	0x498bbd84	1.1447525e+06
13	0x4858a332	221836.78
14	0x48223cfa	166131.9
15	0x47f6cecd	126365.6
16	0x47eaa01e	120128.234
17	0x4980fe6c	1.0567175e+06
18	0x488c087d	286787.9
19	0x4896f684	309172.12
20	0x4a430e7f	3.1958078e+06
21	0x4880df57	263930.72
22	0x47c5c103	101250.02
23	0x4883c82b	269889.34
24	0x488f7177	293771.72
25	0x4893fd5c	303082.88
26	0x47c5dd98	101307.19
27	0x48799dcf	255607.23
28	0x48950994	305228.62
29	0x486dde7b	243577.92
30	0x47c82d38	102490.44
31	0x479a2414	78920.16
32	0x483d4b60	193837.5
33	0x4861d5b9	231254.89
34	0x4827a429	171664.64
35	0x47af57d9	89775.695
36	0x48c04741	393786.03
37	0x489ae56a	317227.3
38	0x4a302a05	2.8862732e+06
39	0x4942124d	794916.8
40	0x492e03a3	712762.2
41	0x48674486	236818.1
42	0x4839ace1	190131.52
43	0x484cbafc	209643.94
44	0x47e83a98	118901.19
45	0x482058f8	164195.88
46	0x48fea741	521530.03
47	0x4756c35f	54979.37
48	0x487b4f8d	257342.2
49	0x47b5e084	93121.03

8.weight f4 [20, 50]
0	0xc1ae337b	-21.775137
1	0x4107c243	8.484927
2	0x411a70ed	9.65257
3	0xc10d1a87	-8.818976
4	0xc1511ba5	-13.069249
5	0xbf952bfb	-1.1654047
6	0xbfa384a1	-1.277485
7	0xc18322e0	-16.392029
8	0x4101eb04	8.119877
9	0xc0bb7278	-5.857723
10	0xc000ace3	-2.0105522
11	0xc15076bd	-13.028989
12	0xc138b7fd	-11.544919
13	0x41416a65	12.088475
14	0x418f651a	17.924366
15	0x4017d7a7	2.3725374
16	0xc117d1af	-9.488692
17	0xc11fbf5d	-9.98422
18	0x410a2765	8.634618
19	0xc13bb204	-11.730961
20	0xbdbafc26	-0.09130125
21	0x410243f6	8.141592
22	0x41013423	8.075229
23	0xc00fb458	-2.2453823
24	0xc0bd25f3	-5.9108825
25	0x4120d37a	10.05163
26	0xc0fb8bfc	-7.860838
27	0xc107f043	-8.496158
28	0x40a53234	5.1623783
29	0x41348763	11.283053
30	0xc156da62	-13.428316
31	0x410e6933	8.900683
32	0xc126897b	-10.408565
33	0xc0f0ff68	-7.5311775
34	0x3f1586aa	0.58408606
35	0x41947c41	18.56067
36	0xc0979bf3	-4.737787
37	0x40d62a77	6.6926837
38	0xc10b3396	-8.700094
39	0x40ad9083	5.4238906
40	0x40994bbd	4.7904954
41	0x3ff4de26	1.9130294
42	0x416f421a	14.953638
43	0x3fbb77ef	1.4645976
44	0xbfe0c014	-1.7558618
45	0x411743dc	9.454067
46	0x413a775e	11.654142
47	0x400a1115	2.1572926
48	0xc14efb77	-12.936393
49	0xc10e157c	-8.880245
50	0xc06eca2c	-3.7310896
51	0xc1b4be4f	-22.592924
52	0xbf0dd362	-0.5540067
53	0x403d51db	2.958121
54	0x403ba58b	2.931979
55	0x40a8bb83	5.2728896
56	0x4105ecc0	8.3703
57	0xc1441de5	-12.257298
58	0xc161b942	-14.107729
59	0xc0535097	-3.3017938
60	0x40b55c6e	5.667533
61	0xc09c0ead	-4.8767915
62	0x41031787	8.193244
63	0xc11392d6	-9.223349
64	0x40bfbb6b	5.991628
65	0xc0fd96b5	-7.924647
66	0x41367d51	11.405595
67	0xc0aef98c	-5.4679623
68	0xc0d8eb82	-6.7787485
69	0x402b4a00	2.6763916
70	0xc12e52e1	-10.895234
71	0x404d1391	3.2043192
72	0x4095bdd4	4.6794224
73	0xc026d758	-2.6068935
74	0x40213ad9	2.5192168
75	0x408e7d2a	4.452779
76	0x412a2e30	10.636276
77	0x40704320	3.754097
78	0x3f79859d	0.974695
79	0xc10e99ff	-8.912597
80	0x40ef63c3	7.480928
81	0xc0534920	-3.3013382
82	0x40ead998	7.3390617
83	0x41983dc1	19.030153
84	0x3f20f4cb	0.62873524
85	0xc1060658	-8.376549
86	0x403362af	2.8028982
87	0x409fb654	4.991007
88	0x41a7b2b4	20.962257
89	0x415ef2f9	13.9343195
90	0xc1c10f3f	-24.132444
91	0x40a139e0	5.038315
92	0xc114c627	-9.298377
93	0x416a1e5c	14.632412
94	0x40987975	4.7648263
95	0x3efd8237	0.4951341
96	0xc0ec2d62	-7.38054
97	0xbfe997c7	-1.8249444
98	0x3fdb60d3	1.7138923
99	0xc11234b0	-9.137863
100	0xc119fc76	-9.624136
101	0xc12feb27	-10.99491
102	0xbf1bd558	-0.6087241
103	0x3f6d35d4	0.9266026
104	0xbfdff884	-1.7497716
105	0xc0be1611	-5.9401937
106	0xc103ac1f	-8.229522
107	0xc0900963	-4.501146
108	0x410d9c64	8.850681
109	0x40264550	2.5979805
110	0x40a4d3e5	5.150866
111	0xc0626f77	-3.5380533
112	0xc0dcf83a	-6.905301
113	0x40711e5c	3.767478
114	0xc09cfc0a	-4.9057665
115	0xc15a52e1	-13.645234
116	0x4046774e	3.1010318
117	0x40cfa289	6.4885907
118	0x410c42f1	8.766343
119	0xc0c5b64d	-6.1785035
120	0x41027ece	8.155958
121	0xc09be3d3	-4.8715606
122	0x40a4a430	5.1450424
123	0x3f591a88	0.8480611
124	0x3d8a99cc	0.06767616
125	0x4046c7f1	3.1059535
126	0x40b5d611	5.682381
127	0xc0b1b19a	-5.55293
128	0xbdb83cea	-0.089959934
129	0x3f46f0a5	0.77710944
130	0xc0073c85	-2.1130688
131	0x40413973	3.0191314
132	0x426c5e77	59.09225
133	0xc0de18f5	-6.9405465
134	0x4079229a	3.892737
135	0x3fe121e4	1.7588468
136	0xc104c8e7	-8.299048
137	0x40b5ea1f	5.684829
138	0xc121f812	-10.123064
139	0x40210a04	2.5162363
140	0x40d3d7ce	6.6200933
141	0xc1495d0a	-12.585215
142	0x40ae451a	5.4459352
143	0x406b04d4	3.6721697
144	0xc0bc0a89	-5.876286
145	0xc0a4c6e5	-5.149279
146	0x41693c22	14.577181
147	0xc1326aa8	-11.151039
148	0x406fd883	3.7475898
149	0x4085c3b3	4.180139
150	0x3c01b567	0.007916785
151	0xc0d032bc	-6.506193
152	0x40bc8039	5.890652
153	0x4082aeed	4.0838532
154	0xc09a8095	-4.828196
155	0xc16c79cf	-14.779738
156	0xc12186c1	-10.095399
157	0xc118b024	-9.543003
158	0xc12502ec	-10.313213
159	0xc0ba96c5	-5.8309045
160	0xbfc57185	-1.5425268
161	0x405dd576	3.4661536
162	0x42016363	32.347057
163	0x414e4134	12.890919
164	0x40ea17d3	7.315408
165	0x414f0ef4	12.941151
166	0xc0abebeb	-5.3725486
167	0xc1236cde	-10.214079
168	0x40fd2af8	7.911495
169	0xc126df7b	-10.429561
170	0xc135b327	-11.356238
171	0x4035c8fb	2.8403919
172	0x40228e28	2.5399265
173	0xc195afcd	-18.71084
174	0x41007a83	8.02991
175	0x408fe112	4.4962244
176	0x408cb190	4.396675
177	0x408a76ee	4.327018
178	0xbf017932	-0.50575554
179	0x410c4a14	8.7680855
180	0xc0ba8ec2	-5.8299265
181	0x411013b5	9.004811
182	0x403586c2	2.83635
183	0xc0e1bfea	-7.054677
184	0x41594be1	13.581025
185	0x4079f8e0	3.9058151
186	0x40f4f7ef	7.6552653
187	0x4098353e	4.7564993
188	0x414f0024	12.937534
189	0x405f9a95	3.49381
190	0xc1184284	-9.516239
191	0xc0c851a3	-6.2599654
192	0x3e1f453a	0.15553752
193	0x410bab73	8.729358
194	0x40795260	3.8956528
195	0x401d4976	2.4576087
196	0x40949414	4.643076
197	0x40035ab1	2.0524104
198	0x4159cfbb	13.613215
199	0x3f5f3f40	0.87205887
200	0x4109ab54	8.604328
201	0x403adcd8	2.9197292
202	0x40cdd486	6.432193
203	0x4108224b	8.508372
204	0xc03548c5	-2.8325665
205	0x40e0caed	7.024771
206	0xc1037498	-8.215965
207	0xc0c0ed93	-6.0290008
208	0x409ce1df	4.902572
209	0x4025eb2b	2.5924785
210	0xc10382b7	-8.219413
211	0x3fd02fb5	1.6264559
212	0xc0d807ed	-6.7509675
213	0x408f22bc	4.47299
214	0xc13f16e8	-11.943092
215	0xbfc1251f	-1.5089453
216	0x3fce464a	1.61152
217	0xbeb366af	-0.3503928
218	0x4155d1b2	13.363695
219	0x40eddfd3	7.4335723
220	0xc0ac5762	-5.385667
221	0xc0580d4d	-3.3758118
222	0xc06a9e33	-3.6659057
223	0x4094b0eb	4.6465964
224	0x40892685	4.285952
225	0xc0f4be6a	-7.648244
226	0xc11200a1	-9.125154
227	0xc0a41454	-5.1274815
228	0xbf843715	-1.032931
229	0xbf130231	-0.5742522
230	0xc0b723b0	-5.7231064
231	0x4066ad26	3.6043181
232	0xc06c6b97	-3.6940668
233	0xc11881f4	-9.531727
234	0xc18bbb68	-17.466507
235	0xc115db66	-9.366064
236	0x403e8407	2.9768083
237	0xc1cb505b	-25.414236
238	0xc0b201a5	-5.5627007
239	0x3fa44437	1.2833318
240	0xbfb45a26	-1.4090011
241	0x409f9492	4.986886
242	0xc04922d5	-3.142751
243	0xc0f1f78b	-7.5614676
244	0xc1b4d227	-22.602613
245	0xc11d1a06	-9.818853
246	0xc0a0f44e	-5.0298223
247	0x415acbaa	13.674723
248	0xc12414a8	-10.255043
249	0xc0438c61	-3.055443
250	0x40c30118	6.0938835
251	0xc120317e	-10.012083
252	0x40c75ec0	6.230316
253	0x403084e2	2.7581105
254	0x415b7a68	13.717384
255	0x40ba5e62	5.8240213

8.bias f4 [20]
0	0xc11925ad	-9.571698
1	0x411ca9cb	9.791453
2	0x413bbd81	11.733766
3	0x409d1a4f	4.9094615
4	0xc1a729d9	-20.895433
5	0xbe767009	-0.24066176
6	0xc1064a97	-8.39321
7	0x3ec81ad9	0.39082983
8	0xc0ceb59c	-6.459669
9	0x4100d908	8.052986
10	0xc12c2693	-10.759418
11	0xc1054c44	-8.33112
12	0xc056fade	-3.3590617
13	0xc0fdc4a6	-7.930255
14	0x409277f6	4.5771437
15	0xc0950b42	-4.6576242
16	0x400e57f7	2.224119
17	0x3ffee0bb	1.9912332
18	0xc1c3bea9	-24.468096
19	0x417b9273	15.723254

11.weight f4 [20]
0	0x3fcc5bbe	1.5965497
1	0x3febe7d4	1.8430123
2	0x403202b2	2.7814145
3	0x3fb3fcc9	1.4061519
4	0xbe98cb3a	-0.2984255
5	0x3fb8edd4	1.4447579
6	0x3fc0926c	1.5044684
7	0x3fcc1523	1.594395
8	0x3fd867b7	1.6906651
9	0x404f7b38	3.2418957
10	0x3f68b1d0	0.9089632
11	0x3fa7a82b	1.3098196
12	0x3fcd8f0e	1.6059282
13	0x3fcbbb16	1.5916469
14	0x4001b392	2.026585
15	0x3f97fc78	1.1873922
16	0x3fbb3632	1.4625914
17	0x3fc36b7d	1.5267178
18	0xbacfef18	-0.0015864102
19	0x3f54387e	0.828987

11.bias f4 [20]
0	0xbcb7f3db	-0.022455147
1	0xbd8054ad	-0.062661506
2	0x3e31c496	0.17360148
3	0xbd978794	-0.07398906
4	0xbcecc400	-0.028902054
5	0x3cfd3f66	0.03091402
6	0xbdba35e7	-0.09092312
7	0xbba69e17	-0.0050847637
8	0xbc1b611d	-0.009483603
9	0x3ed9a62e	0.42509598
10	0x3c812b06	0.015767585
11	0xbd4817d4	-0.04885085
12	0xbddc3045	-0.10751394
13	0x3c127f6c	0.008941513
14	0xbe29f118	-0.16595876
15	0xbd25a8e4	-0.04044427
16	0x3d009a96	0.031397425
17	0x3d80925b	0.06277915
18	0xb99bfb8f	-0.0002975133
19	0xc0aca6d3	-5.3953643

11.running_mean f4 [20]
0	0x438e29a9	284.32547
1	0x43f81cd2	496.22516
2	0x44854b1a	1066.3469
3	0x43be1470	380.15967
4	0x42c90fef	100.53112
5	0x43585821	216.34425
6	0x43eada24	469.70422
7	0x43acf682	345.92584
8	0x4384fb80	265.96484
9	0x443d003c	756.00366
10	0x432a2547	170.14561
11	0x43505983	208.34966
12	0x43be0340	380.0254
13	0x43917095	290.87955
14	0x44069106	538.266
15	0x43469f74	198.62286
16	0x4398982a	305.18878
17	0x43a9c6c6	339.55292
18	0x428ad230	69.41052
19	0x447f3928	1020.89307

11.running_var f4 [20]
0	0x48278021	171520.52
1	0x4845504f	202049.23
2	0x49a3074d	1.3355296e+06
3	0x481086a2	147994.53
4	0x4713fb4c	37883.297
5	0x47a798d1	85809.63
6	0x48a5c48e	339492.44
7	0x482b6830	175520.75
8	0x480af078	142273.88
9	0x49c565b9	1.6170791e+06
10	0x47a8fc8c	86521.09
11	0x479c61cf	80067.62
12	0x485a4cfa	223539.9
13	0x48111fb5	148606.83
14	0x48b854a0	377509.0
15	0x477fec91	65516.566
16	0x47d53a9c	109173.22
17	0x482cfd2a	177140.66
18	0x471cfe76	40190.46
19	0x49a77a04	1.3719685e+06

12.weight f4 [1, 20]
0	0x3eef7604	0.46769726
1	0xbef4d657	-0.47819778
2	0x3f5e385c	0.8680475
3	0xbeb2627f	-0.34840772
4	0x3da13399	0.078711696
5	0x3eb48a55	0.3526179
6	0xbebffa7e	-0.37495798
7	0x3ebc32ac	0.3675741
8	0xbefb17aa	-0.49041492
9	0x3f8bf1c1	1.0933152
10	0x3e481805	0.19540413
11	0x3eb14f7d	0.34630957
12	0xbeded00e	-0.43518108
13	0x3eeb7c23	0.45993146
14	0xbf0f6fe3	-0.560301
15	0xbe8864be	-0.2663936
16	0xbebc74f6	-0.36807984
17	0x3eb6c95b	0.35700497
18	0x39d61da7	0.00040839353
19	0xc07b129c	-3.9230108
